data.pth (torch, 125503 bytes, 4 tensors)

l1.weight f4 [8, 2592]
00000000: 8760 a3bd a4d9 013e 0c24 b83d b37f 073e
00000010: 8979 34bc 5dfe 8cbd 7640 823d e60d a03d
00000020: 567d cbbd 3d11 5ebd e8ed 6c00 4161 ae3d
00000030: cbe4 ca3d 1037 0201 4e43 c8bd 9c61 9501
00000040: 9951 23be 5469 993e 353f b83e f80c 6c3e
00000050: b5f1 093e c34e cd3e 254c c3bc b817 3481
00000060: 7990 d73c 055b ab3c 961a 9e3c e6b0 4b3e
00000070: e319 5a3e a121 573e de60 1b3e 365a bcbd
00000080: 67bb 093e e9a8 3e3e 2624 b8bd fd06 dfbc
00000090: e590 193d 97e0 c3bc d68c 27bc 78a5 1181
000000a0: 3a7b e3bc b0d0 20bc caea 35bc 78a4 1dbc
000000b0: 3814 a580 1835 3abc 49ef 503e 5d90 d53c
000000c0: 70ad e43d 285e 743d 3bff d43c fd38 6b3d
000000d0: b5dd f8bd 96a6 783d 5281 2d3e 1fc9 1a3e
000000e0: 3868 1ebd a636 4fbd f3f0 ea3c 182d a980
000000f0: 9376 ab3d 0b58 a53d 66f3 6e3e b7b8 913e
00000100: 17f0 82be 8855 aabd 7691 6b3e c504 dd3d
00000110: bac8 2f3e 8146 7b3d d3fd b93d b97b 2dbc
00000120: 6729 643e 9d00 31bd 5189 293d 09e5 313e
00000130: daa3 933d 12cc 82be ca71 793d ae67 70be
00000140: 8ad2 dabc 2115 c3bb 5077 733e ec4e 9d81
00000150: 63d1 893d 7e1a c43d e03d f480 f50f 64be
00000160: 17d1 543e d603 633e 6031 5501 ecfc 323e
00000170: 33b2 28b9 01a8 b13d ecfd 94be c3d4 27bd
00000180: 7f9c e83d e52b e43d 1871 e93d 296f 4a3d
00000190: 4e3e 2e3d aa29 c33d c048 913d 0ba8 4f3e
000001a0: 122f 343d 40cc e53d 4aa4 c23c e067 9f01
000001b0: 023b 0c3e d695 283d 6b8e ec3c f1a7 a53d
000001c0: b07d 1400 321c 8d3d 85fa ec3d d38c 223d
000001d0: 792d ec3d abfd 563e cfa7 883d 4135 a381
000001e0: 04f8 1380 a5e1 b23d 15c7 e33c 211f 933d
000001f0: 771b c13d 8430 183e e739 fa3d 78a0 263d
00000200: cde4 0a3d c366 a9bd dc02 8600 af99 32be
00000210: 88b3 903e 1554 bf3d 9ee1 903d 3768 883d
00000220: 395b 2f3e ba8c 2ebe 6ac4 d93d b882 f5bc
00000230: de6c 213d 4b2d 623d 8050 213e b06f 553d
00000240: 1da7 0ebe 0e8c a3bd 78a5 3abd 9db2 5e3d
00000250: 875f 273e 889d 4a3d 032c 97bd 0830 ab80
00000260: 084e fc80 bdf6 85bd f19d 82be 73bd 2a3e
00000270: 869f 563d 2018 4ebe 5284 45be 6983 123e
00000280: 87c3 77bd 6da9 a5be 3c1c 8ebd 088e 2dbd
00000290: 212c 2a3e b90c a0bd 8da1 0fbd d5b7 22bd
000002a0: a7f6 503e 2b71 1c3e 7c99 f3bb 094d 65be
000002b0: c907 d4bc 4b3b 453e d328 343d 1291 37bc
000002c0: 661e c43c b082 a781 35ab 643e 2cf0 44be
000002d0: d0e4 b53d 241e 693d 6ee1 52bd 9377 3b3d
000002e0: 39a2 a4bb 80f6 86bc 057b 8b3e f885 b500
000002f0: 5980 9cbd 8e4c ff3e 00fc 9a3d 44f7 3001
00000300: 637f 243e 4096 6fbd 8c3c b7bd 1b84 173d
00000310: 3ae5 c23d f165 a0bd ce9a 543e 589b 66be
00000320: 9a53 4bbe 8fb6 a33e 4ec4 37be 09cb 1b3d
00000330: 60e4 94be b8b3 a1bd a5aa c9bc 7825 f13d
00000340: f717 75be 6ba0 8f3e 63a8 b63b d38d 823e
00000350: d58a abbd 1874 a200 947d 33bd ab36 39bd
00000360: 3e93 3abd 4428 943e 4cc2 82bd 634d 9bbc
00000370: c8be 0581 21aa 6e3c 20fe cb3e a54e f43d
00000380: 31b1 b53d 2237 3c3e f2cc 9ebd 19be 9cbc
00000390: 419d fc3d b614 d2be 7e61 24be 1560 a63e
000003a0: dc90 58be 86c8 9dbd 5ac6 0e3e f4fb c73e
000003b0: dda3 9e3d 84dc 433d 43fa 943a 67b8 d6bc
000003c0: 9213 023e f20e 2b3e 5965 83bd b14c f1bb
000003d0: 5b32 8fbd e0f6 94bd bc5a 8bbd 35ac 313e
000003e0: acb0 29be 055e e7bd 3838 2d01 31b9 803e
000003f0: 3a7f a9bb 0811 f13d e2ac 283e 2453 7dbd
-0.079773955 0.1268068 0.089912504 0.13232307 -0.011015304 -0.068844534 0.06359951 0.07815151
-0.09936015 -0.05421566 1.0003578e-38 0.085146435 0.0990692 2.3916734e-38 -0.09778462 5.487402e-38
-0.15949096 0.2996317 0.35985723 0.23051822 0.1347111 0.40099153 -0.02384002 -3.3077796e-38
0.026314007 0.020917425 0.019299787 0.198917 0.21298937 0.21008922 0.1517367 -0.09196894
0.13450395 0.18619122 -0.0899127 -0.027225012 0.037491698 -0.023910804 -0.010226449 -2.6751012e-38
-0.02776872 -0.00981538 -0.011103341 -0.009621732 -1.516011e-38 -0.011365198 0.2040378 0.026069814
0.11165893 0.059660107 0.02600061 0.057427395 -0.12151662 0.060705744 0.16943863 0.15115784
-0.03867361 -0.050589226 0.028679347 -1.5536375e-38 0.083722256 0.080734335 0.23335037 0.2846124
-0.255738 -0.08317095 0.23004708 0.10791925 0.17166415 0.061346535 0.09081616 -0.01058858
0.22281419 -0.043213475 0.04139072 0.17372526 0.072089866 -0.25546318 0.060899533 -0.2347705
-0.026711721 -0.0059534465 0.23775983 -5.778594e-38 0.067293905 0.095753655 -2.2430058e-38 -0.22271712
0.20782886 0.22169432 3.9157346e-38 0.17479295 -0.00016088113 0.08674622 -0.29099977 -0.04097439
0.11357974 0.11141185 0.11398524 0.049422417 0.042539887 0.09529431 0.07093954 0.20278947
0.043990202 0.11220598 0.02375998 5.855643e-38 0.13694385 0.04115852 0.028876504 0.08088673
1.881798e-39 0.068901435 0.1157122 0.03968508 0.11532111 0.20995204 0.06672632 -5.995316e-38
-1.833846e-39 0.087344445 0.02780489 0.07183672 0.09429067 0.14862257 0.12218075 0.04068038
0.033909608 -0.08271553 1.2306982e-38 -0.17441438 0.2826197 0.09342209 0.07074283 0.066605024
0.17124642 -0.1704587 0.10633166 -0.029969558 0.039410464 0.055218976 0.15753365 0.052108467
-0.13930936 -0.07985698 -0.04556796 0.054369558 0.16345035 0.04946664 -0.073814414 -1.57211e-38
-2.3170537e-38 -0.06541202 -0.25511125 0.16673832 0.052398227 -0.2012639 -0.19288757 0.14307941
-0.060489204 -0.32355824 -0.06938979 -0.04237178 0.16618396 -0.07814927 -0.035066176 -0.039726097
0.2040659 0.15277545 -0.0074340682 -0.22392668 -0.025882619 0.192609 0.043984246 -0.011204021
0.023940276 -6.153364e-38 0.22330935 -0.19232243 0.08881533 0.05691351 -0.051484518 0.04576833
-0.0050242213 -0.016474962 0.27242294 1.6670284e-38 -0.07641668 0.49863094 0.075675964 3.25035e-38
0.16064219 -0.0584929 -0.08947095 0.03699122 0.09516378 -0.07831944 0.20762178 -0.22520196
-0.1985611 0.3197522 -0.17945978 0.038035426 -0.29080486 -0.07895607 -0.024617502 0.11774725
-0.23934923 0.28052077 0.0055742725 0.25498828 -0.083760895 1.4918997e-38 -0.043820933 -0.04521815
-0.045550577 0.2893697 -0.063847154 -0.0189578 -2.456512e-38 0.014566929 0.3984232 0.11929063
0.08871687 0.18380406 -0.07753934 -0.019133614 0.12334681 -0.41031426 -0.16052815 0.3249518
-0.2114901 -0.077042624 0.13942853 0.39059412 0.07746098 0.047817722 0.0011366088 -0.026210977
0.12702778 0.1670492 -0.06415815 -0.0073638787 -0.069920264 -0.0727365 -0.068044156 0.17350848
-0.16571301 -0.1129723 3.1815417e-38 0.2514129 -0.0051726373 0.117708266 0.164722 -0.061846867

l1.bias f4 [8]
00000000: ecf4 3d3f 64a1 5c3e bfca 593e 6647 023f
00000010: 2895 c43e 872f 273f ea16 de3e df17 553f
0.74201846 0.2154594 0.21268748 0.50890195 0.38395047 0.65306896 0.43376857 0.8323955

l2.weight f4 [7, 8]
00000000: e2d0 9a3f 24cb 83bf db61 b6bf c508 913f
00000010: afe6 693f 7119 9e3f c676 36be d377 96bf
00000020: efb9 33bf 2a69 653f 4d4f 8fbf a044 5b3f
00000030: 81e3 86bf d1e0 3ebd 33e5 283f 202e 9dbf
00000040: 765c b9bf 225b 5abf 88d6 663f da5d 883f
00000050: e4a0 743f 558f adbf 0f5b 2fbf a27f 063f
00000060: a8e5 673f 01f9 4cbf 5b70 523f fdd4 41bf
00000070: 610f 89bf 6375 41bf eee6 afbf a213 513f
00000080: 0a83 163f a162 7b3f df93 3b3f 6654 8bbf
00000090: 539b 003f f7b5 ce3e 9335 723d 155f babf
000000a0: 4f6e b03d 2f83 9ebf c85d 35bf 9f90 75bf
000000b0: 6a20 a9bf 22c7 a8bf 8474 9e3f 8bb1 193f
000000c0: f3e0 aabf 02ad 9c3e af0a 7abf 7527 a6bf
000000d0: 2bc7 f23e cb7c 913f 4ec6 65bf 3ae6 853f
1.2094996 -1.0296369 -1.4248613 1.1330801 0.9136762 1.2351514 -0.17818746 -1.1755317
-0.7020559 0.8961359 -1.1196076 0.8565159 -1.0538179 -0.04660112 0.6597473 -1.2279701
-1.4481342 -0.8529531 0.901711 1.0653641 0.95558 -1.3559366 -0.6849832 0.525385
0.905848 -0.8006745 0.8220269 -0.7571562 -1.0707818 -0.7556974 -1.3742349 0.8167058
0.587937 0.9819737 0.7327251 -1.0885131 0.50237006 0.40373203 0.059133124 -1.4560267
0.0861479 -1.2383784 -0.70846224 -0.959238 -1.3213017 -1.318577 1.2379308 0.60036534
-1.3349899 0.30600744 -0.9767255 -1.2980791 0.47417578 1.1366209 -0.89755714 1.0460885

l2.bias f4 [7]
00000000: f750 373d f791 d4be 51f9 4ebe 0b2b 8c3d
00000010: 2b3b 0abf aa39 863e 6904 463d
0.04475495 -0.41517612 -0.20212294 0.06844147 -0.53996533 0.2621587 0.04834405
