train/data.pth (torch, 83576 bytes, 4 tensors)

l1.weight f4 [8, 1728]
0	0x3e6160b7	0.2200955
1	0x3e5200f5	0.20508178
2	0xbea5d395	-0.32387987
3	0xbd50facc	-0.05102043
4	0xbdc9a39c	-0.09845659
5	0xbeacaf4a	-0.33727485
6	0x3af2f935	0.0018537404
7	0xbc11d3ea	-0.008900622
8	0x3e926f25	0.28600422
9	0xbb02e932	-0.001997542
10	0x3eab9e46	0.3351919
11	0x3e976039	0.295656
12	0x3f252f6f	0.645255
13	0x3f019487	0.5061726
14	0x3ee54018	0.44775462
15	0x3f00d291	0.503213
16	0x3f12b419	0.5730606
17	0x3d4e8ea5	0.050429005
18	0x3ee40fc3	0.44543275
19	0x3cf4dfc5	0.029891858
20	0x3e2e7039	0.17034997
21	0x3db506cb	0.08839186
22	0x3d44730f	0.04796129
23	0x3ddc1bc7	0.107474856
24	0x3df5969c	0.11991617
25	0x3ea93f9e	0.3305635
26	0x3e9dae68	0.30797124
27	0xbd141d89	-0.03616098
28	0xba2d1b80	-0.0006603524
29	0x3e715af9	0.2356986
30	0x3e9ca0c9	0.3059142
31	0x3ec3e24a	0.38258582
32	0x3dd84c25	0.105613984
33	0xbdb5089a	-0.08839531
34	0x3d9f4d82	0.07778455
35	0x3ee67b5c	0.4501599
36	0x3eb74ee9	0.3580239
37	0x3dc4a937	0.09602588
38	0x3edbefe1	0.4295645
39	0xbdc5a67c	-0.09650895
40	0x3d40dc96	0.047085367
41	0x3ee7bf0f	0.45262954
42	0x3cfcfd04	0.030882366
43	0x3e316f20	0.17327547
44	0xbe5aa51b	-0.21352045
45	0xbd8897d3	-0.06669583
46	0x3ee71bbe	0.45138353
47	0x3d7af600	0.06126976
48	0x3e7e43d3	0.2483056
49	0x3e655298	0.22394788
50	0xbd66aba6	-0.05631604
51	0xbe3dbb04	-0.18528372
52	0x3e9e0aea	0.30867702
53	0xbe8610df	-0.26184747
54	0x3ec44a64	0.38338006
55	0x3de43a2f	0.1114391
56	0x3d3a253d	0.04544567
57	0x3e2e9fc2	0.1705313
58	0x3dd59e04	0.1043053
59	0x3f0eefea	0.5583483
60	0x3d620fbd	0.05519079
61	0x3e856fdc	0.26061904
62	0x3da9d324	0.08292225
63	0x3ea56bc1	0.32308772
64	0x3e0cd05f	0.13751362
65	0x3d3d7329	0.046252403
66	0x3e9e28ca	0.30890495
67	0x3d403664	0.04692687
68	0x3e8c90c8	0.2745421
69	0x3db3e73b	0.08784338
70	0x3eee84d9	0.4658573
71	0x3e10f0b9	0.14154328
72	0x3d84aa15	0.06477753
73	0x3e081444	0.1328898
74	0x3cdb4664	0.026766963
75	0x3e04416b	0.1291558
76	0x3e6b0922	0.22952703
77	0x3ecc4ee7	0.39903948
78	0x3eae0d87	0.33994696
79	0x3e04655e	0.12929294
80	0x3d8f58e8	0.069993794
81	0x3ed8815d	0.42286196
82	0x3e27b275	0.1637667
83	0x3dfab4cc	0.122415155
84	0x3ddd5992	0.108081
85	0x3ee8df5c	0.4548291
86	0xbe9064c4	-0.28201878
87	0x3e552f6d	0.20818873
88	0x3daae911	0.08345235
89	0x3e1f5d75	0.15562995
90	0x3ece5759	0.40301016
91	0x3db636ac	0.088971466
92	0xbdd139e6	-0.102161214
93	0x3de8d149	0.11368043
94	0x3ec83286	0.39101046
95	0x3dde69ee	0.10860048
96	0x3d9244b4	0.0714201
97	0x3ef24d56	0.47324628
98	0x3d9dbbe1	0.07701851
99	0x3f0479ec	0.5174854
100	0xbe6711d7	-0.22565399
101	0xbe1f7111	-0.15570475
102	0x3d6c0c32	0.057628818
103	0x3d943de4	0.07238367
104	0x3ec352b0	0.38149023
105	0xbca8cf04	-0.020606525
106	0xbd0db239	-0.034593794
107	0x3efe63e3	0.49685583
108	0x3eb376d0	0.35051584
109	0x3f0d65dc	0.5523355
110	0xbf01174d	-0.5042618
111	0x3dc8795a	0.09788771
112	0x3e72d490	0.23713899
113	0x3ed0c82d	0.40777722
114	0x3d8ce38d	0.06879339
115	0x3e09e838	0.1346749
116	0x3e139342	0.14411643
117	0x3e042cce	0.12907717
118	0xbe4ca527	-0.19984876
119	0xbd857722	-0.065168634
120	0x3d45b51b	0.04826842
121	0x3e8a12f4	0.26967585
122	0xbd8ad8c0	-0.06779623
123	0xbe81da81	-0.25362018
124	0x3e4524a1	0.19252254
125	0x3e6f92c5	0.23395832
126	0x3de427fe	0.111404404
127	0xbd3cd987	-0.046105888
128	0xbe1ad7e5	-0.1512142
129	0xbe85e2c7	-0.2614958
130	0x3e755dfa	0.2396163
131	0xbf3078fc	-0.6893461
132	0x3e8f9cb9	0.28049257
133	0x3ea08091	0.31348088
134	0x3eb2a1c8	0.34889054
135	0x3d540c8d	0.05176978
136	0x3ed82e3f	0.42222783
137	0x3f098222	0.5371419
138	0xbe47575a	-0.19466916
139	0x3e06f638	0.13179862
140	0x3e04dbb2	0.12974432
141	0x3e3255cc	0.17415541
142	0x3e945c9b	0.28976902
143	0xbda10153	-0.07861581
144	0xbeab16fb	-0.3341597
145	0xbdd941b2	-0.106082335
146	0xbcff9fe7	-0.031204177
147	0x3e59dba8	0.21275198
148	0x3ef65985	0.48115173
149	0x3e936ee8	0.28795552
150	0x3eadfe3c	0.33983028
151	0xbdbfe31b	-0.09369489
152	0xbdb56ca0	-0.08858609
153	0x3e3802ed	0.17969866
154	0x3e273f10	0.1633265
155	0x3e43cfd9	0.19122256
156	0x3c664e78	0.014056794
157	0xbe0cf987	-0.13767062
158	0xbe32fc73	-0.17479114
159	0xbde1719c	-0.110079974
160	0xbe8317d6	-0.25604123
161	0xbd2a6f58	-0.041610092
162	0x3db18bbe	0.08669232
163	0xbe3dbe8d	-0.1852972
164	0xbe38baed	-0.18040057
165	0x3e1b04fc	0.1513862
166	0x3def983f	0.116989605
167	0xbe07896f	-0.1323602
168	0xbdd956ef	-0.106122844
169	0x3d8e1983	0.0693846
170	0x3e7d57ca	0.2474052
171	0xbce6e4be	-0.028185245
172	0xbe8d95b4	-0.27653277
173	0xbc83f1cc	-0.016106509
174	0xbe562712	-0.20913342
175	0x3e8c295d	0.27375308
176	0x3dd96103	0.10614207
177	0xbe007d26	-0.1254774
178	0x3c11434e	0.008866144
179	0xbe44dba6	-0.19224414
180	0x3ccb6822	0.024829928
181	0x3e4af605	0.19820412
182	0xbd96b024	-0.07357815
183	0x3ecebe5b	0.40379605
184	0xbdac6724	-0.0841811
185	0x3d9d752a	0.07688363
186	0xbdb33851	-0.08750976
187	0x3e344a44	0.17606455
188	0x3e6a80f5	0.22900756
189	0x3dece60a	0.11567314
190	0xbdec2157	-0.115297966
191	0xbe7ada68	-0.24497378
192	0xbba299a6	-0.004962164
193	0xbdb5b352	-0.08872093
194	0x3df7daaf	0.121022575
195	0x3ea0653a	0.3132723
196	0x3de40fb9	0.11135811
197	0xbe326722	-0.17422155
198	0xbe8e7500	-0.2782364
199	0xbda850a8	-0.08218509
200	0xbdd14217	-0.10217684
201	0xbe062a9d	-0.13102193
202	0x3e30bb23	0.17258887
203	0x3e0a4552	0.13503006
204	0x3e465daf	0.19371675
205	0xbe42c08e	-0.19018766
206	0x3dbabf1c	0.091184825
207	0x3e2d052b	0.16896503
208	0xbdb54439	-0.08850903
209	0x3dc11b27	0.09429007
210	0xbdaf194a	-0.085497454
211	0xbdc012cc	-0.09378585
212	0xbe02bd48	-0.12767518
213	0x3ebaeb2a	0.3650754
214	0x3d63478f	0.055488165
215	0x3eaede48	0.34153962
216	0xbe928ec6	-0.28624552
217	0x3eb3f322	0.35146433
218	0x3e2016f2	0.15633753
219	0x3dac6fab	0.084197365
220	0xbe2a3ffc	-0.1662597
221	0x3ebe69bb	0.3719004
222	0xbc971eb3	-0.018447256
223	0x3d7f77d0	0.06237012
224	0xbe3a7083	-0.18206982
225	0x3c30ec32	0.010798501
226	0x3e99dfbc	0.30053508
227	0x3d5d814d	0.05407839
228	0xbe8c11fe	-0.27357477
229	0xbeda2e3c	-0.426134
230	0x3ca6afc2	0.02034748
231	0x3d247194	0.04014738
232	0xbe9bc28e	-0.3042187
233	0x3c130212	0.008972662
234	0xbe07a828	-0.1324774
235	0xbde8ff50	-0.11376822
236	0xbdec28f5	-0.115312494
237	0x3dcf8707	0.10133176
238	0xbedd4056	-0.43213147
239	0xbdc5d53c	-0.09659812
240	0x3e27969f	0.16366051
241	0x3dc0c71e	0.094129786
242	0xbe75b2af	-0.23993944
243	0xbe34fc03	-0.1767426
244	0x3e117844	0.14206034
245	0x3f206267	0.6265015
246	0x3e70389c	0.23459095
247	0x3dd1c03a	0.102417424
248	0x3df9d5fd	0.12199018
249	0x3d2d1aec	0.042262003
250	0xbe6ee84d	-0.23330803
251	0xbdbbf481	-0.09177495
252	0xbea2b316	-0.31777257
253	0xbd6ef810	-0.05834204
254	0x3d9758d6	0.07389991
255	0xbe08b47f	-0.13350104

l1.bias f4 [8]
0	0x3f275b29	0.65373474
1	0x3f81a102	1.0127261
2	0x3ec05aa9	0.37569168
3	0x3ee06bce	0.43832248
4	0x3f115f77	0.5678629
5	0x3ebd9c2e	0.37033218
6	0x3ed08319	0.4072502
7	0x3fa60d27	1.2972764

l2.weight f4 [5, 8]
0	0x3fa85111	1.314974
1	0xbf4e967e	-0.8069838
2	0xbf1bc6e0	-0.60850334
3	0xbf7d7153	-0.99001044
4	0x3fad602c	1.3544974
5	0xbf6d31ab	-0.9265391
6	0xbf5e805c	-0.8691461
7	0xbf98bb31	-1.1932126
8	0xbfa8239f	-1.3135871
9	0x3f8df73e	1.1091077
10	0x3fc35621	1.526066
11	0x3f8cf91f	1.1013526
12	0xbf82fc59	-1.023326
13	0xbf93965f	-1.1530265
14	0xbf86ee24	-1.0541425
15	0xbfc8a11a	-1.5674164
16	0xbe0ae823	-0.13565116
17	0x3fc74dc4	1.5570607
18	0xbfd8e502	-1.6944888
19	0xbfa4d304	-1.2876897
20	0xbfe534c0	-1.7906723
21	0xbf9ca48a	-1.2237713
22	0xbf8fe222	-1.1240885
23	0x3fc69f8d	1.5517441
24	0x3f4aa752	0.7916156
25	0xbf97bb22	-1.1853983
26	0xbf899140	-1.0747452
27	0x3f660afd	0.89860517
28	0xbfb9976a	-1.4499333
29	0xbf70880f	-0.9395761
30	0x3f833e36	1.025336
31	0xbf157038	-0.5837436
32	0xbfe02f51	-1.751444
33	0xbf73534e	-0.9504899
34	0x3f861fd8	1.0478468
35	0xbfb54334	-1.4161134
36	0x3f495b60	0.7865505
37	0x3fae119e	1.3599126
38	0x3f8ab3f1	1.0836164
39	0x3eef22b2	0.46706158

l2.bias f4 [5]
0	0x3e026698	0.12734449
1	0x3dbb2a4f	0.09138929
2	0x3eebf351	0.46084073
3	0x3dcacda6	0.099025056
4	0xbf35318b	-0.7077872
