train/data.pth (torch, 126207 bytes, 4 tensors)

l1.weight f4 [8, 2605]
000000 f1 d5 b9 bd 0d 16 97 3e 8c 57 63 3e e7 c6 80 be
       -0.09074009 0.2950901 0.22201365 -0.2515175
000010 ee 74 06 bd 98 59 25 be a3 78 9c 01 7a 24 0a 3e
       -0.032826357 -0.16147459 5.7478455e-38 0.13490477
000020 c7 2d 90 bd 28 3a 30 80 91 36 3e bd 3d b9 b4 3d
       -0.07039981 -4.428966e-39 -0.046438757 0.08824394
000030 12 3c 23 3e 9a b5 4d be b2 17 4e bd 78 cb 6b 80
       0.15940884 -0.20088807 -0.050315566 -9.899389e-39
000040 79 fc 83 be f7 6a 6f be 23 76 3d be 0d 84 85 3e
       -0.2577856 -0.23380648 -0.18502097 0.2607731
000050 0c ec 2d 3e 58 8d 61 81 e0 8c 9b 3b 46 1a 0a 3e
       0.16984576 -4.1427382e-38 0.004747018 0.13486585
000060 f2 23 40 be a6 8a 2a 3e 47 2a 18 3e 7a 40 ca 3e
       -0.18763712 0.16654453 0.14859878 0.39502317
000070 b8 8e 09 3f 77 1d e8 3e e5 44 ce 3e 8d 0c aa bd
       0.53733397 0.4533498 0.40286937 -0.08303175
000080 60 e0 30 3e 1d 10 bd 3e 94 cf ad bd 0a 19 a7 81
       0.17273092 0.36926356 -0.08486858 -6.138204e-38
000090 18 6e 8e 00 38 d0 5f 00 50 e6 1a bd 0c b6 3e bd
       1.3080135e-38 8.799067e-39 -0.0378173 -0.046560332
0000a0 78 3a b9 80 9e c5 4d 81 d4 da 22 bd 02 93 0f bd
       -1.7010541e-38 -3.7794337e-38 -0.039759472 -0.035052307
0000b0 e6 66 c9 bd 47 82 27 bd 39 5e b6 3e 96 4f 70 3d
       -0.098340794 -0.040895727 0.3561876 0.05866965
0000c0 52 b4 6b 3e c3 c1 07 3e cb b2 14 3d 49 7e 0f 3e
       0.23018005 0.13257508 0.036303323 0.14013018
0000d0 df 42 c3 bd 11 39 19 3e 7b 50 c1 3e a7 93 48 3e
       -0.09534239 0.14963175 0.37756714 0.19587575
0000e0 fa a1 08 bd 5c 13 ae bb 2a 9d c1 bc cf db 2d 3e
       -0.033357598 -0.0053123664 -0.023634512 0.16978382
0000f0 3d 6d 4e 3e 13 da aa 3e f3 4a 9a 3e 9c 58 ba 3e
       0.20158859 0.33369502 0.30135307 0.3639573
000100 54 37 ba 01 8e 91 fc bd 54 9f 07 80 7f 07 b6 3d
       6.8405e-38 -0.1233245 -7.00005e-40 0.088881485
000110 d7 06 da 3e 58 1a b4 3e c2 82 2b 3e c3 85 d7 3e
       0.42583343 0.3517635 0.16749099 0.4209424
000120 b3 28 bd bc 46 9b 85 3e ec a3 af 00 a7 af cf 3d
       -0.023090696 0.26095027 1.6130016e-38 0.10140925
000130 8d b0 bd 3e ee 29 e7 3d 37 0a 0b 3e 35 4f 57 be
       0.3704876 0.11287294 0.13578115 -0.21026309
000140 26 65 b0 bc c8 dd 0d bd 85 6d a1 3e 1c 6b a8 3d
       -0.021532606 -0.034635335 0.3152887 0.082235545
000150 89 f2 f6 3e 6b ef 5b 3e 00 02 32 81 a4 fa ea bd
       0.48231915 0.2147805 -3.2694872e-38 -0.11473587
000160 45 0c ed bd 9b 29 97 3e 43 8a 95 3e 62 4f 57 3e
       -0.11574606 0.2952393 0.29207048 0.21026376
000170 07 43 73 3e d6 87 6c bc 76 c4 c0 3b b0 51 22 01
       0.23756038 -0.014436683 0.005882795 2.981331e-38
000180 c8 d5 21 80 15 e4 3c 3e 3f 70 ca 3e a8 4c 8f 3d
       -3.107262e-39 0.18446381 0.39538762 0.06997043
000190 f5 71 52 3b 63 1c d7 3d 95 d2 2e 3e 19 2d dd 3d
       0.003211138 0.10503461 0.17072518 0.10799617
0001a0 1c 01 bc 3e 92 1a a1 3d 5d d9 6c 3e 3b 5a 89 3d
       0.36719596 0.07866396 0.23129793 0.06706663
0001b0 61 41 88 3e 94 8f 9b bd 7c 0c d2 bd 15 81 c6 3d
       0.2661238 -0.07595745 -0.102562875 0.09692589
0001c0 e5 32 58 3d d6 f8 ec 3d 2f fc 5b 3d 0c 29 6a 3e
       0.05278291 0.11570899 0.053707298 0.2286722
0001d0 4a 92 4b 3e ff ed 98 3d 67 41 8d 3e ef a5 ff 3e
       0.19880024 0.07467269 0.2758896 0.49931285
0001e0 32 1c ee 3d c4 58 34 be 6f 2e d5 bc 7e 3d 96 3d
       0.116264716 -0.17611986 -0.026023118 0.073359475
0001f0 bc 1e 04 3c 91 e0 db ba 1d 6b 87 bd a2 2c 74 3e
       0.008063968 -0.00167753 -0.06612227 0.23845151
000200 b8 1e 2c 80 68 c3 81 3d a9 54 09 3e 56 17 06 3e
       -4.051782e-39 0.06336099 0.13411202 0.1309484
000210 91 ac 74 3e 39 2e 7f 3e 9b 85 c6 3d 04 33 78 3d
       0.23893954 0.24919976 0.09693452 0.060595527
000220 f0 94 81 01 f6 77 be 81 69 25 eb bd 8a 1d ab 3d
       4.760083e-38 -6.996711e-38 -0.11481745 0.083552435
000230 16 b5 03 3e 84 a5 16 3e 29 43 dd 3d 0b 7b ec 3e
       0.12862048 0.14711577 0.108038254 0.46187624
000240 88 46 08 00 b8 ee 8d 3e 42 47 91 bd 47 97 ba 3d
       7.59986e-40 0.2772119 -0.070936695 0.09110885
000250 4c 78 24 be a9 f1 1c be b9 e6 b7 3d 59 a1 54 3e
       -0.16061515 -0.15326561 0.08979554 0.20764674
000260 19 0a 01 3e 60 56 e5 80 aa 96 24 be 5c 2f 66 81
       0.12601508 -2.1061314e-38 -0.16073099 -4.2278307e-38
000270 19 0d 4c be 30 9f 4d 80 64 33 b3 01 10 49 d5 3d
       -0.19926871 -7.128439e-39 6.5827957e-38 0.10414326
000280 66 35 c9 3e d4 62 03 3e c2 44 92 3d 9c 3b 78 bd
       0.39298552 0.12830669 0.07142021 -0.060603723
000290 f8 2e 28 81 d0 24 14 01 8e 4e 4b be 71 4c e1 3e
       -3.0890425e-38 2.7209719e-38 -0.19854185 0.44003633
0002a0 3b 47 03 3e 3b 6b f1 bd a5 54 14 be db 0b 1d be
       0.12820141 -0.11788031 -0.14485414 -0.15336554
0002b0 b3 6e 40 be c0 04 9e 01 4b 08 02 3b 03 57 7b be
       -0.18792228 5.804685e-38 0.0019841369 -0.24544911
0002c0 e7 52 e7 bc 3a c8 99 bd 54 1c 8c 3e 8b 21 0f be
       -0.028237773 -0.07508893 0.27365363 -0.1397764
0002d0 3c aa 8d bc ce 65 8e bc c9 bd e9 3e 4d a8 b0 3e
       -0.017293088 -0.017382529 0.45652607 0.34503403
0002e0 50 12 db bb 83 16 fc 3e 2b 95 94 bc 94 02 c7 be
       -0.0066855326 0.49235925 -0.018137535 -0.38869154
0002f0 48 53 71 81 99 ab 35 bc fd 0e 97 3e 18 85 cd 3d
       -4.432446e-38 -0.011088275 0.29503623 0.10035151
000300 4c ae b0 3e 32 4c 13 81 59 bc 11 3e 26 3e 08 3e
       0.34507978 -2.7054303e-38 0.14232005 0.13304958
000310 cc d4 77 bd 58 91 d0 3d 39 be cd 3e 9f 5b 6c be
       -0.060505673 0.10183972 0.4018419 -0.23081826
000320 01 68 c4 3e 5a 90 9c bd 0c e0 16 bd 51 58 08 3f
       0.383606 -0.076447204 -0.03683476 0.5325976
000330 64 5d 41 3e 8c 3e a1 bc 54 6f b1 3d 28 ed a9 00
       0.18883282 -0.019683145 0.08663812 1.5605274e-38
000340 84 97 74 3d eb d5 1e 3e 1c 1e 10 3e 2c 0f eb bd
       0.05971481 0.1551129 0.14073986 -0.11477503
000350 d2 85 50 bd ae f8 00 bd 95 5f 21 be e0 90 46 81
       -0.05090887 -0.03148716 -0.15759118 -3.64708e-38
000360 83 b3 8c bd 95 5b f5 3d 90 3a 66 be f7 ef b7 3e
       -0.06870177 0.119803585 -0.22483277 0.35925266
000370 dc 24 a3 bd d2 4d 0b 3e cc 59 bb 3d d0 42 b0 3e
       -0.07966015 0.13603905 0.09147987 0.34425974
000380 ff 32 20 3b 34 a7 5a 3e 60 69 5f bd 6c d8 9b 01
       0.0024444459 0.21352845 -0.054543853 5.724856e-38
000390 73 72 83 bd 08 71 af 01 89 d2 bb 3c 8a b6 44 3e
       -0.06418314 6.444704e-38 0.02292754 0.19210258
0003a0 e2 81 a4 bd 6d 7d 06 3e 0c 09 6b 3e f2 9e e2 bd
       -0.08032586 0.13133784 0.2295267 -0.11065473
0003b0 63 69 d3 3d 6b b1 08 be e0 a1 13 3e 26 23 65 3e
       0.10322835 -0.1334893 0.14417219 0.2237669
0003c0 e0 f5 ea 00 74 5b 5d 01 94 78 bd 3d cb 41 03 3f
       2.157771e-38 4.0656904e-38 0.09251514 0.5127227
0003d0 b0 64 80 3e 55 43 a1 3e 03 41 48 be a7 a9 97 3d
       0.25076818 0.31496683 -0.1955605 0.074054055
0003e0 31 83 58 3e 9a 4a 84 3c 48 93 55 3e 11 00 bd bd
       0.21143796 0.016148854 0.20856965 -0.09228528
0003f0 45 38 b7 3d bb ca af bd 10 f1 6d 00 73 2f 38 3e
       0.089462794 -0.0858359 1.0096546e-38 0.1798685

l1.bias f4 [8]
000000 7e f4 f4 3e 82 be 32 3f 38 1a 87 3e 06 0b 31 3f
       0.47842783 0.6982194 0.2638719 0.69157445
000010 e2 a4 0b 3f 0e 0f 8e 3e 05 d9 c1 3e 1a ce d0 3e
       0.54548466 0.2774586 0.37860885 0.40782243

l2.weight f4 [7, 8]
000000 05 68 7b 3f d7 74 9f 3f 66 4a 78 bf 01 67 7d 3f
       0.98205596 1.2457532 -0.96988523 0.98985296
000010 69 cc c2 bf bf 2b 16 bf f4 cf b0 bf da 79 77 bf
       -1.5218631 -0.586605 -1.3813462 -0.96670306
000020 b6 a1 92 3f 29 b2 74 3d 3c 61 65 bf 71 33 a7 bf
       1.14556 0.05974022 -0.8960149 -1.3062574
000030 fa 4d a5 bf e6 a4 88 bf df 3d 04 3f fd 6e 4c 3f
       -1.2914422 -1.0675323 0.5165691 0.79856855
000040 63 23 a7 bf 24 ad 2e 3f e9 93 87 bd 58 6b 9d bf
       -1.3057674 0.6823294 -0.066200085 -1.2298384
000050 76 02 bf bf 9a a9 30 3f 98 5a 51 3f 61 f6 39 3f
       -1.4922626 0.6900879 0.8177886 0.7264157
000060 f3 c7 16 bf f6 d9 2f bf e7 10 6c bf 89 f3 a3 bf
       -0.5889885 -0.68691957 -0.9221329 -1.2808696
000070 5c dc a5 3f 65 cf 6e 3e 5e ed ba bf 00 08 96 3f
       1.2957873 0.23321302 -1.4603689 1.1721191
000080 52 14 85 3f a5 ca a6 bf 45 46 e4 bc 54 7b cb 3e
       1.0396826 -1.3030592 -0.027865538 0.3974253
000090 14 00 19 3f 24 08 21 3f 45 a1 98 bf 66 1b 95 bf
       0.59765744 0.62903047 -1.1924216 -1.1648986
0000a0 14 4a 8a bf b8 62 91 bf 1e de a3 3f 54 a1 bc bf
       -1.0803857 -1.1358252 1.280216 -1.4736733
0000b0 65 7c b2 bf d1 e5 1c 3f 7d c1 b1 bf 3a 70 8e bf
       -1.3944212 0.6128817 -1.3887173 -1.1127999
0000c0 04 42 47 bf 60 79 87 bf c6 85 42 bf 23 a5 1e 3f
       -0.77835107 -1.0583916 -0.7598537 0.6197073
0000d0 d8 44 86 3f 56 6e a6 bf e8 86 91 3f a4 26 ed be
       1.048976 -1.3002422 1.1369295 -0.46318543

l2.bias f4 [7]
000000 52 d9 3d 3f 4f 4b c8 be ce 17 f9 be e6 06 ab 3e
       0.7415973 -0.39119956 -0.48650974 0.334037
000010 14 b7 05 bf cc fc 61 3f 70 4f 5c 3e
       -0.5223248 0.8827636 0.21514678
