train/data.pth (torch, 126719 bytes, 4 tensors)

l1.weight f4 [8, 2615]
0	0x3e124408	0.14283764
1	0xbd6efc1f	-0.05834591
2	0xbd4954d9	-0.049153183
3	0xbd948946	-0.07252745
4	0xbcb9c5bc	-0.022677295
5	0x818d7170	-5.1957995e-38
6	0x3d5ccad3	0.053904366
7	0x3dd0020e	0.10156642
8	0x3e0bce05	0.13652809
9	0xbb97c1a8	-0.00463124
10	0x80fb7b10	-2.3094856e-38
11	0x3d87d196	0.06631772
12	0x3daa583b	0.0831761
13	0x3e23bf62	0.15990975
14	0x81a33390	-5.995073e-38
15	0xbdd3790d	-0.10325823
16	0x014e2438	3.786221e-38
17	0x3e8b80c5	0.2724668
18	0xbd4c8130	-0.04992789
19	0x010b5a58	2.5595086e-38
20	0x3e12f16c	0.14349908
21	0x803bdfc8	-5.498572e-39
22	0xbe61aaca	-0.22037807
23	0x3d84f4a8	0.06491977
24	0xbe115793	-0.14193563
25	0x3dc0cbf0	0.09413898
26	0x3da00234	0.0781292
27	0xbe6a42d3	-0.22877054
28	0xbe37208d	-0.17883511
29	0x3de5a080	0.112122536
30	0xbe054e65	-0.13018186
31	0x3de233dd	0.110450484
32	0x3e15effb	0.14642327
33	0xbe3b11ac	-0.1826846
34	0x3e07edd1	0.13274314
35	0x3d4bfb2d	0.049800087
36	0x80cb8608	-1.8690687e-38
37	0x3d4bb6ba	0.04973481
38	0xbcb97c30	-0.022642225
39	0xbb485a10	-0.003057126
40	0x3d4c23b4	0.049838737
41	0xbcb52d07	-0.022116197
42	0xbcb79c57	-0.022413416
43	0xbcb7c14d	-0.02243104
44	0xbdadc5c2	-0.08484985
45	0xbcc40c7c	-0.023931734
46	0x3d5bb774	0.05364175
47	0x00a71670	1.5344577e-38
48	0xbd1f7558	-0.038930267
49	0xbc256671	-0.010095225
50	0xbbdc3bf5	-0.0067210146
51	0xbc2569ca	-0.010096023
52	0xbe40701f	-0.18792771
53	0xbc25662e	-0.010095162
54	0xbe078561	-0.13234474
55	0x3d122542	0.035680063
56	0x011916aa	2.8117922e-38
57	0xbcdbee37	-0.026846988
58	0x003f7418	5.827283e-39
59	0x3dc4e771	0.096144564
60	0xbc94c60b	-0.01816084
61	0xbe309fee	-0.17248508
62	0xbe7064a9	-0.23475899
63	0x3e27f38d	0.16401501
64	0x3daf173a	0.08549352
65	0x3dffaf98	0.12484664
66	0x3e0d32e9	0.13788952
67	0xbd24471d	-0.04010688
68	0xbe49fc8f	-0.1972525
69	0xbe1587ab	-0.14602534
70	0xbd1c2cd8	-0.038128704
71	0xbe2793e1	-0.16365005
72	0xbd87eb97	-0.06636732
73	0x0159318a	3.9892148e-38
74	0xbd0b46fc	-0.034003243
75	0xbd8222be	-0.06354283
76	0xbe05aa51	-0.13053252
77	0x803aaa20	-5.387488e-39
78	0x8115cd72	-2.7514378e-38
79	0x3dfaad9b	0.12240144
80	0x3cd44cf3	0.025915598
81	0xb9c6b7c4	-0.0003790242
82	0xbe1dae6d	-0.1539857
83	0xbc94186f	-0.018078057
84	0x3d89f95f	0.06737017
85	0xbc8173d7	-0.015802307
86	0xbba213a8	-0.004946191
87	0x3db72bdd	0.08943913
88	0x3dbe939d	0.09305499
89	0x80be4cb8	-1.7476266e-38
90	0x3e59ebd9	0.21281375
91	0x3e1c2eb5	0.15252192
92	0x3e4602ad	0.19336958
93	0xbe16200c	-0.14660662
94	0xbd6be25e	-0.057588927
95	0x3d8f2864	0.06990126
96	0xbe2506f0	-0.16115928
97	0x3df4dabd	0.119557835
98	0xbdf4c943	-0.1195245
99	0x01a4874b	6.043822e-38
100	0x3e02512e	0.1272628
101	0xbd821ded	-0.06353364
102	0xbd99f23c	-0.07516906
103	0x01407910	3.535169e-38
104	0xbe485f4a	-0.195676
105	0x01365dfc	3.349555e-38
106	0xbe0dffae	-0.13867065
107	0xbbdc3b2c	-0.006720921
108	0xbdc709ab	-0.09718641
109	0x3e00adf4	0.12566358
110	0x3d738451	0.05945236
111	0xbd42f6e9	-0.047598753
112	0x80f72bbc	-2.2699056e-38
113	0xbdf1f0ea	-0.11813529
114	0x01acb7ee	6.344675e-38
115	0xbd2485bd	-0.040166605
116	0xbc228f05	-0.009921794
117	0x817f64b8	-4.6908365e-38
118	0x3d3ade9b	0.04562245
119	0xbe3b9be1	-0.18321182
120	0xbd4368a2	-0.047707208
121	0x010221a4	2.3901365e-38
122	0x807c8ac8	-1.1437387e-38
123	0x81178e64	-2.783648e-38
124	0x3da91ac0	0.08257055
125	0x3d4bb205	0.04973032
126	0xbdcdb9e1	-0.10045219
127	0xbd2485be	-0.04016661
128	0x3dab8451	0.08374847
129	0xbbb9a940	-0.005665928
130	0x80bcbd70	-1.733303e-38
131	0xbdbdd218	-0.09268588
132	0xbe20d878	-0.15707576
133	0xbdc21eaf	-0.09478509
134	0xbd431eea	-0.047636904
135	0xbc8157bb	-0.015788903
136	0xbd8732b0	-0.06601465
137	0x3d92312a	0.071382836
138	0x012b429e	3.1455535e-38
139	0x3dd6bbeb	0.10485061
140	0x3c325e84	0.010886792
141	0xbd4fc44e	-0.05072432
142	0x00f5b304	2.2563915e-38
143	0xbe084aa1	-0.13309719
144	0x01a5ee59	6.095344e-38
145	0xbda8cfd4	-0.08242765
146	0x3d65aaa1	0.056070928
147	0x803e0ae0	-5.697702e-39
148	0x3d94c77a	0.0726461
149	0x80230038	-3.214321e-39
150	0xbc14d357	-0.0090835905
151	0xbdca40be	-0.0987563
152	0xbd38eb19	-0.04514608
153	0x3d335bc4	0.043788686
154	0x3d908307	0.070562415
155	0x3db955b4	0.0904955
156	0x3de4dbd5	0.11174742
157	0x3d9ad051	0.075592645
158	0x3ca600ce	0.020264056
159	0xbb200e62	-0.0024422635
160	0xbdf6cd42	-0.120508686
161	0xbd38eb06	-0.04514601
162	0x0183149b	4.815137e-38
163	0x3d9caa41	0.07649661
164	0x3db5867a	0.0886354
165	0x3d90825b	0.07056113
166	0x3de29891	0.11064256
167	0xbe05116e	-0.1299493
168	0xbd38eb55	-0.045146305
169	0x3db82b4e	0.08992635
170	0x3d96297f	0.073321335
171	0x3d6e88f9	0.058236096
172	0x3d96b681	0.073590286
173	0xbe5ba210	-0.2144854
174	0x8174c374	-4.4955953e-38
175	0xbd8f403d	-0.06994674
176	0x3e236e1f	0.15959977
177	0xbd200175	-0.03906389
178	0xbdefc3f5	-0.11707298
179	0xbc565316	-0.013081333
180	0x3d4c6194	0.049897745
181	0x3d4bc45f	0.04974782
182	0xbe846e23	-0.25865278
183	0xbe172fba	-0.147643
184	0x011e30ac	2.9054937e-38
185	0xbdb6c316	-0.089239284
186	0x3c297df3	0.01034497
187	0x3de0c03d	0.109741665
188	0x01978440	5.565841e-38
189	0x3c9632eb	0.018334826
190	0xbe30f075	-0.17279227
191	0x81237f54	-3.0029725e-38
192	0xbe44e21b	-0.19226877
193	0x3d846bb7	0.064658575
194	0xbda8799a	-0.08226319
195	0xbc2582f8	-0.010102026
196	0x81290638	-3.104486e-38
197	0xbcf9d530	-0.030497164
198	0x80815b00	-1.1879424e-38
199	0x3c04877f	0.008088945
200	0x3e0501fc	0.12989038
201	0x3ddb20bf	0.10699605
202	0x3d9e531a	0.07730694
203	0x3ef494d1	0.47769788
204	0xbdec0200	-0.11523819
205	0xbadee555	-0.0017005602
206	0x3dfd6bff	0.12374114
207	0xbd9e5c21	-0.07732416
208	0xbc7f0c57	-0.015566907
209	0xbd84bde4	-0.06481531
210	0x3e4f1773	0.20223789
211	0x3dc60026	0.09667997
212	0x3e2ba330	0.1676147
213	0xbdc8776a	-0.097884014
214	0xbe38a0d7	-0.18030106
215	0x3e678cd1	0.22612311
216	0x39d2f01b	0.00040233214
217	0xbe420dec	-0.18950623
218	0xbe18b5f4	-0.1491316
219	0xbe45d52e	-0.19319603
220	0x808a82b0	-1.272018e-38
221	0xbdd84c87	-0.105614714
222	0xbe35a3ce	-0.17738268
223	0x3e69cc97	0.22831951
224	0xbe1c1c59	-0.15245189
225	0x3da0e22b	0.07855638
226	0x3d957728	0.07298118
227	0x39269255	0.00015885507
228	0x3d9e1b0b	0.07720002
229	0xbe5cb6dc	-0.2155413
230	0xbe6352b6	-0.2219952
231	0x3e6a5123	0.22882514
232	0x3e1511fb	0.1455764
233	0x015e7378	4.0857805e-38
234	0xbd8c367a	-0.06846328
235	0xbe86e1cd	-0.26344147
236	0x3db637ce	0.08897363
237	0xbd6238a4	-0.055229798
238	0x3d62bc33	0.055355262
239	0x3e408ade	0.18802974
240	0x80f6d0e0	-2.2666462e-38
241	0xbd03f3c6	-0.032214902
242	0xbd83f99e	-0.06444095
243	0xbed41f13	-0.41429958
244	0xbd7070b0	-0.058701217
245	0x3e9979f8	0.29975867
246	0x3e5588e1	0.20852996
247	0x3d02f642	0.03197313
248	0xbbb9a914	-0.0056659076
249	0x3e04e9c0	0.12979794
250	0xbcf8c516	-0.030367415
251	0x3d68a5db	0.056798797
252	0x3d6402ae	0.055666618
253	0xbd988e54	-0.07449022
254	0x3dde0998	0.108416736
255	0x3e195adb	0.14976065

l1.bias f4 [8]
0	0x3f2e8dc9	0.68185097
1	0x3f35a851	0.70959955
2	0x3f45ba45	0.7723735
3	0x3e5a981b	0.21347086
4	0x3ed712ea	0.42006618
5	0x3e914a2c	0.283769
6	0x3f1e5ef8	0.6186366
7	0x3f364f57	0.71214813

l2.weight f4 [7, 8]
0	0x3f94d3af	1.1627101
1	0xbfb68365	-1.4258848
2	0x3f40ddeb	0.7533862
3	0xbf7828cd	-0.9693726
4	0x3f17f4f1	0.59358126
5	0xbfa19f04	-1.2626653
6	0x3e424bc6	0.18974218
7	0x3fa49682	1.2858431
8	0xbf7d02fd	-0.98832685
9	0x3f639250	0.8889513
10	0xbfa25a4e	-1.2683809
11	0x3f21f1b9	0.63259465
12	0xbf7777e4	-0.96667314
13	0x3f2f915f	0.68581194
14	0xbf98e734	-1.1945558
15	0xbf843473	-1.0328506
16	0xbec0e13e	-0.37671846
17	0xbfa16543	-1.2609028
18	0xbf7541d8	-0.95803595
19	0x3f6ce1f5	0.92532283
20	0x3e1d62af	0.15369676
21	0x3ebee0f9	0.37281016
22	0x3fa9367c	1.3219752
23	0xbfb56d47	-1.4173974
24	0x3f5a65af	0.85311407
25	0x3f304d7e	0.68868244
26	0x3f8f4c5f	1.1195182
27	0xbeee9e17	-0.46604988
28	0xbfa4c1d5	-1.2871653
29	0xbed15626	-0.4088604
30	0xbdd5e4e7	-0.1044405
31	0xbfadb874	-1.3571916
32	0xbfa1c560	-1.2638359
33	0xbfb594b7	-1.4186009
34	0xbfba07ff	-1.453369
35	0x3f65d05e	0.8977107
36	0x3f47d9e4	0.7806685
37	0x3f4ea775	0.8072427
38	0xbfb64a58	-1.4241438
39	0x3f048edd	0.5178049
40	0xbfd58f7c	-1.6684413
41	0xbf81c4ba	-1.0138161
42	0x3f872d92	1.0560782
43	0xbfafaab6	-1.3723972
44	0x3f64032f	0.8906736
45	0x3f3999bf	0.7250022
46	0xbfa2158a	-1.2662823
47	0xbfc18a4c	-1.512033
48	0x3f449930	0.76796246
49	0x3f8d2799	1.1027709
50	0xbfbf3916	-1.4939296
51	0xbf9a793c	-1.2068248
52	0xbfaaf10e	-1.3354814
53	0xbfa278c7	-1.2693108
54	0x3f7c93ea	0.986632
55	0x3f9499c0	1.1609421

l2.bias f4 [7]
0	0xbd277f5d	-0.040892947
1	0x3e5ab7d4	0.21359187
2	0xbe043ba8	-0.12913382
3	0x3e14fab7	0.14548765
4	0xbde64f69	-0.11245615
5	0x3ec445a6	0.38334388
6	0xbdd2aa45	-0.102863826
