train/data.pth (torch, 27583 bytes, 4 tensors)

l1.weight f4 [16, 384]
-0.09071557 0.3471904 0.37049007 -0.097434714 0.050477594 -0.35328057 0.26569775 -0.4002212
0.059971344 0.23753236 0.13788979 -0.24028732 0.2959585 0.26947862 0.12336215 -0.14754678
-0.21029545 -0.19621836 0.42120728 -0.05618472 -0.14152566 -0.29516578 -0.2436919 0.35392478
0.33513194 0.5433327 -0.101616174 0.18995292 -0.33826065 -0.28879622 -0.44774333 0.11543763
-0.3371437 0.16980189 0.35514653 0.1763894 -0.36781007 -0.81057847 0.50142175 0.6192602
-0.17356333 0.23869525 0.23119865 0.23487231 -0.08516783 -0.38990492 -0.16784017 0.16380332
-0.5285401 -0.6088599 -0.49982485 -0.2413166 -0.5244049 0.1420825 -0.40749592 -0.03870562
-0.40762988 -0.4834789 0.34850624 -0.26706958 -0.14869227 0.25749093 -0.14811061 0.088189304
-0.025133835 0.19397382 -0.34496737 -0.16335464 -0.5917026 -0.24398963 -0.41908425 0.30262432
-0.063367546 -0.4252575 -0.0039437967 -0.59899753 0.21033983 -0.6979407 0.28828526 -0.020385107
0.24235961 0.04310058 -0.33033746 0.26479706 -0.6489877 0.20209956 0.08557857 0.6410501
-0.18279307 0.44027442 -0.08824921 -0.013755393 -0.29844877 0.08813396 -0.07608828 0.47001693
0.031120718 -0.217318 -0.6152364 -0.34425536 -0.039800223 -0.15259872 -0.1362213 0.336655
0.026608577 0.099517174 0.016281515 -0.06748065 0.20284952 0.34042257 -0.0050623757 -0.059211753
0.56542057 0.9426647 -0.15994708 0.16832285 -0.097307324 0.01733401 -0.48051387 0.6197446
0.1776008 0.39242062 0.4881338 0.2834925 -0.4464158 0.13238914 -0.27962363 2.450905e-30
-0.12338405 0.21579325 0.4419103 0.4668236 0.08251549 -0.3746705 -0.52123487 0.033004187
0.24990632 0.62106407 -0.37830564 0.31996393 0.30538136 0.894066 0.5327078 0.45140767
0.27031404 0.31682116 -0.16380355 0.45914018 -0.4950531 0.033724308 -0.64957494 -0.022229565
0.023281354 -0.16804707 -0.38226393 -0.045266997 0.37537366 0.21479946 0.20706733 -0.12867735
-0.15504184 0.2772043 -0.021371873 -0.24825427 0.4226929 -0.6374627 0.016822606 0.40989053
-0.25046507 -0.40908536 0.5401012 -0.25830302 -0.14803284 -0.3832015 0.09285943 0.21071874
-0.5109383 0.6072547 -0.30769664 0.35858387 0.07476437 0.38518292 0.30337223 -0.17758939
-0.019335877 0.06544185 -0.2572312 0.3869407 -0.2652389 0.22588243 0.6040765 -0.39054492
0.15242963 0.8169165 -0.47655573 0.18262206 0.32856515 -0.029555162 -0.22402436 0.014823234
0.19295149 -0.15937139 0.26257494 -0.4237683 -0.002061183 0.05742973 -0.11574395 0.27792785
0.07560239 0.34280708 -0.09391911 -0.42431945 0.0145088835 0.155869 -0.24513389 -0.6559579
0.14908506 -0.062476907 0.28209016 -0.377685 0.46516687 0.18225095 0.1687769 -1.6808296e-30
0.42245084 -0.582114 -0.027440779 0.41498202 -0.26919374 -0.29305702 -0.3087293 -0.11296131
0.10459611 0.22867697 -0.26253167 -0.22851446 -0.5628639 -0.24571641 -0.4213778 -0.20614147
-0.43073606 -0.22691907 0.27087286 0.09454672 0.22402515 0.70357627 -0.35977435 0.46387964
0.059001673 0.2876687 -0.34823513 -0.10178596 -0.08512842 0.32501543 0.05061481 -0.57135
00000000: 16c9 b9bd f1c2 b13e e0b0 bd3e da8b c7bd
00000010: 98c1 4e3d 31e1 b4be 8909 883e cbe9 ccbe
00000020: 83a4 753d af3b 733e fb32 0d3e e10d 76be
00000030: df87 973e 1af9 893e 4ba5 fc3d 8116 17be
00000040: b157 57be 77ed 48be 7ba8 d73e f321 66bd
00000050: 1aec 10be f81f 97be 5f8a 79be a135 b53e
00000060: 6a96 ab3e da17 0b3f 241c d0bd 0583 423e
00000070: 8030 adbe 19dd 93be 9d3e e5be 906a ec3d
00000080: 199e acbe 8ce0 2d3e c4d5 b53e 6c9f 343e
00000090: 9a51 bcbe 1282 4fbf 2d5d 003f d687 1e3f
000000a0: 96ba 31be 876c 743e 57bf 6c3e 5e82 703e
000000b0: 796c aebd 9ea1 c7be 4bde 2bbe 0fbc 273e
000000c0: 674e 07bf 3ede 1bbf 0be9 ffbe b31b 77be
000000d0: 663f 06bf 137e 113e 4ea3 d0be c989 1ebd
000000e0: ddb4 d0be 8c8a f7be 696f b23e 58bd 88be
000000f0: c942 18be dad5 833e 4faa 17be 989c b43d
00000100: 79e5 cdbc 13a1 463e 909f b0be 7046 27be
00000110: d279 17bf 6bd8 79be 3692 d6be 93f1 9a3e
00000120: d8c6 81bd 5abb d9be f73a 81bb e757 19bf
00000130: 5363 573e 3eac 32bf 209a 933e abfe a6bc
00000140: 1e2d 783e 3c8a 303d fe21 a9be 7b93 873e
00000150: 0f24 26bf 30f3 4e3e d143 af3d dc1b 243f
00000160: 1b2e 3bbe a66b e13e 00bc b4bd 4d5e 61bc
00000170: 47ce 98be 947f b43d 2cd4 9bbd 0fa6 f03e
00000180: e0f0 fe3c 9c88 5ebe 2280 1dbf 3d42 b0be
00000190: 8f05 23bd d742 1cbe 997d 0bbe 0b5e ac3e
000001a0: 3bfa d93c a9cf cb3d d060 853c 4c33 8abd
000001b0: c9b7 4f3e de4b ae3e 49e2 a5bb 0688 72bd
000001c0: 67bf 103f 7952 713f 2bc9 23be d35c 2c3e
000001d0: 1049 c7bd 0e00 8e3c ea05 f6be 95a7 1e3f
000001e0: fcdc 353e 5beb c83e acec f93e ee25 913e
000001f0: 9d90 e4be 0591 073e d42a 8fbe 4ed7 460e
00000200: c7b0 fcbd e8f8 5c3e 1142 e23e 8103 ef3e
00000210: e2fd a83d d0d4 bfbe a66f 05bf 662f 073d
00000220: 71e7 7f3e 0efe 1e3f 47b1 c1be 50d2 a33e
00000230: f25a 9c3e 82e1 643f 8a5f 083f e81e e73e
00000240: 9a66 8a3e 6236 a23e 1ebc 27be 6c14 eb3e
00000250: 9a77 fdbe 8022 0a3d 8b4a 26bf c71a b6bc
00000260: 8ab8 be3c 8814 2cbe 19b8 c3be e369 39bd
00000270: fa30 c03e 64f4 5b3e 7509 543e ffc3 03be
00000280: 4ac3 1ebe b9ed 8d3e 1114 afbc 5e36 7ebe
00000290: 346b d83e c130 23bf 90cf 893c 2cdd d13e
000002a0: f53c 80be a373 d1be 1244 0a3f 4b40 84be
000002b0: ec95 17be fd32 c4be 162d be3d a7c6 573e
000002c0: dacc 02bf 0b75 1b3f 6a8a 9dbe 4e98 b73e
000002d0: 101e 993d b236 c53e 9b53 9b3e fed9 35be
000002e0: 4666 9ebc 6006 863d cfb3 83be 171d c63e
000002f0: 65cd 87be b94d 673e c2a4 1a3f 81f5 c7be
00000300: 8316 1c3e 7121 513f 1dff f3be 4701 3b3e
00000310: b139 a83e ab1d f2bc a466 65be 26dd 723c
00000320: 1395 453e 4132 23be 3970 863e 29f8 d8be
00000330: ea14 07bb 703b 6b3d 2a0b edbd 8f4c 8e3e
00000340: 6dd5 9a3d 6984 af3e aa58 c0bd 6640 d9be
00000350: abb6 6d3c 209c 1f3e 6104 7bbe dbec 27bf
00000360: c1a9 183e c9e7 7fbd 1f6e 903e ee5f c1be
00000370: 5a2a ee3e fe9f 3a3e dad3 2c3e 775d 088e
00000380: 7a4b d83e 6c05 15bf 7ccb e0bc 8678 d43e
00000390: c3d3 89be 920b 96be c411 9ebe 4258 e7bd
000003a0: 7c36 d63d 4c2a 6a3e 8d6a 86be b2ff 69be
000003b0: d917 10bf 159d 7bbe d5be d7be c016 53be
000003c0: 7089 dcbe 795d 68be d9af 8a3e b6a1 c13d
000003d0: d966 653e 931d 343f 5834 b8be a281 ed3e
000003e0: bdab 713d 5049 933e e04b b2be 2875 d0bd
000003f0: cf57 aebd 6c68 a63e 7a51 4f3d fe43 12bf

l1.bias f4 [16]
0.4388127 0.50862306 0.29327318 0.30894384 0.47086358 0.35615298 -0.003434898 0.52155125
0.20347305 0.3149046 0.18679334 0.36590353 0.0493703 0.14978798 0.3874676 0.45395848
00000000: 0fac e03e 1f35 023f e727 963e e32d 9e3e
00000010: 0815 f13e af59 b63e 071c 61bb 6284 053f
00000020: 3d5b 503e 2d3b a13e c146 3f3e b557 bb3e
00000030: 8338 4a3d 0562 193e 2762 c63e 3f6d e83e

l2.weight f4 [7, 16]
-1.406981 -0.4265721 0.4372168 0.13705772 -1.3173326 0.045965508 0.7913795 -1.0315955
0.43031913 -0.20243913 0.93865174 0.7233062 0.4285866 -1.052773 0.13453558 0.76859593
0.4238933 -1.0240788 -0.32791817 -1.1409527 0.6378611 -1.1998825 0.9603011 0.61654073
0.62678516 -0.6125457 -0.4497772 -0.21062788 0.6058913 0.67625475 -1.1839997 -1.1106489
0.3403357 0.3035746 -1.2293297 -0.82775825 0.36153427 0.70004505 -1.2651267 0.5354888
0.8554246 -1.3764148 -0.3793661 0.33090484 -0.99038404 -0.5493815 1.1228082 0.0924663
1.0185021 -0.99563396 -0.78550756 0.23614651 -1.1076103 1.0437473 0.539911 -1.2189885
-0.05616143 0.8986281 -0.98482287 -1.0456744 0.42705837 -1.0388193 -1.2622377 -0.5684667
0.7419935 0.7095359 0.37818816 -0.2766763 -0.82907236 -1.2180523 -0.73674303 -0.67617995
-0.6171736 0.434456 0.6692971 -1.2224404 0.9295646 0.6267472 0.8002148 -0.97670674
-0.16188152 0.80214256 0.82384014 -0.67130196 0.7916914 -0.31171197 -1.0348475 0.9458152
-1.0865937 0.9864367 -0.6208263 -0.22996391 -1.124898 -1.1380392 -1.0167242 0.62178457
-1.3722003 -0.98524374 -0.8945715 1.272292 0.017671611 -0.6031367 -1.0840371 0.11029519
-0.69305766 -0.8252245 -0.6580643 0.3985608 -1.0257356 1.1303961 -0.23180526 -0.12677626
00000000: f417 b4bf a967 dabe e1da df3e dc58 0c3e
00000010: 5b9e a8bf 5446 3c3d d997 4a3f 520b 84bf
00000020: ca52 dc3e 344c 4fbe 7b4b 703f 982a 393f
00000030: b46f db3e 44c1 86bf b2c3 093e b4c2 443f
00000040: 8b08 d93e 0415 83bf e4e4 a7be bd0a 92bf
00000050: dd4a 233f c095 99bf 4bd6 753f 9dd5 1d3f
00000060: fe74 203f cccf 1cbf 3249 e6be d6ae 57be
00000070: b11b 1b3f 081f 2d3f 4d8d 97bf be29 8ebf
00000080: 7b40 ae3e 216e 9b3e ad5a 9dbf f7e7 53bf
00000090: 051b b93e 2736 333f acef a1bf cb15 093f
000000a0: 1bfd 5a3f 5c2e b0bf 463c c2be 5c6c a93e
000000b0: cf89 7dbf 44a4 0cbf 2eb8 8f3f f95e bd3d
000000c0: 475e 823f dee1 7ebf 0617 49bf 64d0 713e
000000d0: 2dc6 8dbf 8399 853f 9b37 0a3f d107 9cbf
000000e0: 8709 66bd 7e0c 663f 5a1d 7cbf a9d8 85bf
000000f0: 65a7 da3e 08f8 84bf 0191 a1bf 0987 11bf
00000100: 49f3 3d3f 25a4 353f e1a1 c13e 84a8 8dbe
00000110: 163e 54bf 23e9 9bbf 319b 3cbf 211a 2dbf
00000120: 17ff 1dbf 0471 de3e 0e57 2b3f ed78 9cbf
00000130: f2f7 6d3f 8172 203f e1da 4c3f 7409 7abf
00000140: 45c4 25be 3759 4d3f 30e7 523f 72da 2bbf
00000150: 4aac 4a3f b698 9fbe e275 84bf f220 723f
00000160: 8115 8bbf 1e87 7c3f 79ee 1ebf a97b 6bbe
00000170: a8fc 8fbf 45ab 91bf 0524 82bf 462d 1f3f
00000180: 42a4 afbf ef38 7cbf a302 65bf 77da a23f
00000190: 0ec4 903c 2b67 1abf bac1 8abf 72e2 e13d
000001a0: 3a6c 31bf ea41 53bf e776 28bf 2910 cc3e
000001b0: 4e4b 83bf d2b0 903f 5c5e 6dbe a3d1 01be

l2.bias f4 [7]
-0.08836225 -0.29734346 0.3971658 0.024696715 -0.16270003 0.31245896 0.22201334
00000000: 44f7 b4bd 673d 98be 5159 cb3e c450 ca3c
00000010: d69a 26be 9ffa 9f3e 7757 633e
