train/data.pth (torch, 126527 bytes, 4 tensors)

l1.weight f4 [8, 2611]
-0.08050305 0.28034106 0.22345853 0.015020312 -0.0115623465 0.07889077 0.046329163 0.09475134
2.076489e-39 -0.0104942 -0.06401575 0.051772356 0.07115431 -0.2431505 -0.09708225 4.6650605e-38
0.019585462 3.619453e-39 0.004760723 0.19973476 0.06507987 -0.34094137 0.07144403 0.090076834
-0.015613006 0.17907828 0.17491807 0.5424752 0.5390018 0.2578012 0.4727955 -5.0075625e-38
0.067749865 0.47108465 -0.11163824 -0.039230153 0.047882974 -0.043890484 -0.0013676259 2.8512904e-38
-0.04360008 -0.0014596132 -0.0015657046 -0.0016050946 -0.08487387 -0.001086748 0.32517624 0.027541764
0.32611573 0.1472789 0.029250432 0.14839923 0.22328869 0.16705291 0.34903097 0.30107105
-0.05357982 0.12923412 0.056104414 0.09717541 0.16947176 0.23160923 0.52248853 0.2352639
-0.008004142 -0.03357897 -0.08561059 0.26270932 0.37946573 0.32052428 0.06115809 0.3846688
0.09474633 0.18140882 -0.04161411 0.09448171 0.40906516 5.4711613e-38 5.8210757e-38 4.587683e-39
-0.024721036 4.592313e-38 0.32121688 -3.6742987e-38 0.23199324 0.18186517 -0.001502246 -0.01412855
-0.012439285 3.487259e-38 0.15240945 -1.4455716e-38 0.14240932 0.008947507 0.0055378038 -0.08875345
0.24423385 0.09339521 0.40720007 0.08894505 -0.00042099855 0.09437517 0.20204926 0.1201689
0.54044676 0.04836473 0.20114982 0.053652357 0.26980075 -0.03885689 -0.061771005 0.09912116
0.03537687 0.20962802 -6.428803e-38 7.528347e-39 0.21230607 0.09283282 -2.8256343e-38 0.51497966
0.18357828 -0.009694789 -0.008995956 0.08116939 -0.0070897047 -0.006287649 0.13388237 0.13813293
-0.010227525 0.031229787 0.11370456 0.18393987 0.343622 0.32261425 0.0936482 0.044531737
0.03495397 2.9211008e-38 -2.0280326e-38 -1.3158282e-38 0.1442343 0.13115972 0.11464332 0.487233
-0.2381927 0.16033293 -0.021688346 0.08099909 3.4279236e-38 -0.106634915 -3.663146e-39 0.43374866
0.12593298 -0.006245239 -0.15695626 -0.029307652 4.928833e-38 -0.0061214506 -0.1287102 -5.174681e-39
0.4133003 0.17187469 0.08100819 -0.038830284 -3.407403e-39 -0.015896456 2.6109e-41 0.4561643
0.12783661 -0.0139701115 -0.07850114 -0.1554793 2.083428e-39 0.33516848 -0.043194227 -0.21826585
0.02185093 -0.06409703 0.2839784 -0.1054358 -0.0377581 -0.024083477 0.47398332 0.25907117
-0.007401131 0.47134995 -0.047015768 -0.103250295 0.07117685 -0.019724656 0.23510024 0.057056352
0.35489306 -0.07224091 0.13213052 0.1473436 -0.035273187 3.0437172e-38 0.32158566 -0.22360772
0.34506541 -0.106679924 -0.259256 0.38204068 0.18365167 -0.065062985 5.8089107e-38 0.15211485
0.084144846 0.15406224 0.0253889 -0.09681915 0.07856011 -0.1938856 -0.2157151 1.22429e-40
-0.15240626 0.3209026 0.1071289 0.26262754 -0.04178341 0.27209258 0.14856562 0.20242612
-0.028398303 0.10774003 -0.095089085 0.2751449 -0.0833384 2.739016e-38 -0.07719941 0.24822949
0.0006427219 0.13259146 0.13767518 0.13167696 -0.21429235 0.21702345 0.06590014 0.06951352
-0.046980534 0.10326057 0.23319443 0.50499225 0.2603501 0.14751488 -0.24475117 0.1849081
0.2856261 0.0014445827 0.18650803 -0.074711114 -0.010179252 0.070266664 0.0988485 0.08293643
00000000: c8de a4bd dd88 8f3e 50d2 643e c117 763c
00000010: ff6f 3dbc 7c91 a13d a6c3 3d3d fe0c c23d
00000020: 689c 1600 ddef 2bbc b11a 83bd 400f 543d
00000030: 5ab9 913d 72fc 78be 0fd3 c6bd 74fd 7d01
00000040: b171 a03c 9069 2700 d7ff 9b3b 4587 4c3e
00000050: 9848 853d de8f aebe 3f51 923d 347a b83d
00000060: b2cd 7fbc 4c60 373e b91d 333e a8df 0a3f
00000070: 06fc 093f 85fe 833e 4012 f23e 9e51 8881
00000080: 71c0 8a3d 0232 f13e 97a2 e4bd ccaf 20bd
00000090: f020 443d 82c6 33bd e941 b3ba 303d 1b01
000000a0: ff95 32bd 7e50 bfba 5438 cdba 0a62 d2ba
000000b0: 5ad2 adbd 3671 8eba 807d a63e 449f e13c
000000c0: a4f8 a63e 48d0 163e 9a9e ef3c f8f5 173e
000000d0: caa5 643e eb0f 2b3e 30b4 b23e fc25 9a3e
000000e0: 8376 5bbd f355 043e becd 653d e703 c73d
000000f0: 018a 2d3e f82a 6d3e cfc1 053f 05e9 703e
00000100: ce23 03bc 1a8a 09bd 9b54 afbd d681 863e
00000110: 5549 c23e c21b a43e e880 7a3d 4ff3 c43e
00000120: 5d0a c23d 3cc3 393e 8f73 2abd a07f c13d
00000130: fd70 d13e 6ef0 9401 fa76 9e01 98f4 3100
00000140: c583 cabc 8007 7a01 8a76 a43e 400c 4881
00000150: a38f 6d3e dd3a 3a3e 03e7 c4ba 6f7b 67bc
00000160: 25ce 4bbc 4cdd 3d01 3911 1c3e a868 9d80
00000170: c0d3 113e 9098 123c 7776 b53b 5ec4 b5bd
00000180: 7018 7a3e fd45 bf3d 877c d03e d328 b63d
00000190: 78b9 dcb9 c547 c13d 00e6 4e3e 1d1b f63d
000001a0: b85a 0a3f 181a 463d 38fa 4d3e 93c2 5b3d
000001b0: 5323 8a3e 6728 1fbd 9803 7dbd 0900 cb3d
000001c0: 56e7 103d baa8 563e 3802 af81 f8f9 5100
000001d0: c366 593e 221f be3d 98d7 1981 b5d5 033f
000001e0: f2fb 3b3e e4d6 1ebc c663 13bc 233c a63d
000001f0: c150 e8bb 9f08 cebb 7618 093e b872 0d3e
00000200: 5991 27bc 9cd5 ff3c f0dd e83d bc5a 3c3e
00000210: 39ef af3e b22d a53e a1ca bf3d e966 363d
00000220: e52b 0f3d 340a 1f01 4cd5 dc80 f047 8f80
00000230: 28b2 133e bc4e 063e 1eca ea3d 9b76 f93e
00000240: cae8 73be 512e 243e c2ab b1bc dae2 a53d
00000250: 48a2 3a01 6863 dabd 5ce3 2780 4e14 de3e
00000260: 93f4 003e dda4 ccbb 24b9 20be 9a16 f0bc
00000270: f42c 8601 7396 c8bb 9bcc 03be e858 3880
00000280: 199c d33e ebff 2f3e 9fe7 a53d 810c 1fbd
00000290: 741a 2580 4939 82bc c848 0000 5e8e e93e
000002a0: 9ae7 023e e5e2 64bc 35c5 a0bd f735 1fbe
000002b0: c0af 1600 349b ab3e 6eec 30bd 1581 5fbe
000002c0: b900 b33c 4e45 83bd 9e65 913e baee d7bd
000002d0: 3da8 1abd b64a c5bc f1ad f23e faa4 843e
000002e0: 3085 f2bb c854 f13e 9b93 40bd e474 d3bd
000002f0: 2bc5 913d 9a95 a1bc 1ebe 703e ecb3 693d
00000300: 8bb4 b53e 0bf3 93bd 394d 073e 3ee1 163e
00000310: 9e7a 10bd 3ab7 2501 e0a6 a43e 6cf9 64be
00000320: 6aac b03e 017b dabd 34bd 84be d69a c33e
00000330: 2f0f 3c3e be3f 85bd 3322 9e01 ffc3 1b3e
00000340: 2254 ac3d 7ec2 1d3e 62fc cf3c 1e49 c6bd
00000350: 1fe4 a03d f289 46be 6be4 5cbe 4855 0100
00000360: 6310 1cbe 584d a43e 6666 db3d 1e77 863e
00000370: 1525 2bbd b84f 8b3e 9621 183e cb48 4f3e
00000380: 8fa3 e8bc cea6 dc3d 11be c2bd cbdf 8c3e
00000390: 53ad aabd 5020 1501 b91a 9ebd df2f 7e3e
000003a0: 567c 283a 0ec6 073e b9fa 0c3e 53d6 063e
000003b0: 746f 5bbe 653b 5e3e a7f6 863d 1b5d 8e3d
000003c0: a96e 40bd 477a d33d 85ca 6e3e 2c47 013f
000003d0: 9c4c 853e 240e 173e 0da0 7abe 8d58 3d3e
000003e0: 963d 923e 2758 bd3a f6fb 3e3e 2402 99bd
000003f0: e1c6 26bc f8e7 8f3d 1571 ca3d 93da a93d

l1.bias f4 [8]
0.34372124 0.5707826 0.4867473 0.94266284 0.7623816 0.26149458 0.59250814 0.3070792
00000000: 3bfc af3e cf1e 123f f136 f93e 5a52 713f
00000010: 712b 433f 9ee2 853e 9dae 173f 7c39 9d3e

l2.weight f4 [7, 8]
0.22110927 0.2719264 -1.558008 1.0466214 0.6280549 -1.3112388 1.3784351 0.32133624
1.2039924 1.024204 -1.2400177 -1.2333238 -1.1747779 -1.0533499 -1.1547828 0.967103
-0.8700473 1.1561505 -1.0806583 -1.2592279 0.023698064 1.1828468 -0.8364138 -1.3209865
-1.1019565 -1.3259996 0.6389837 0.79397136 1.2805567 -0.9972694 -0.8280272 -0.9818501
0.6902628 -1.2919194 0.3232914 -0.26278955 -0.99163103 0.69923276 0.8850504 0.78135103
0.1768164 0.1172466 0.78014433 -1.380809 0.8785145 -1.1238455 -1.3330435 1.0864115
-1.1375813 -0.5400642 1.0699712 1.2245319 -1.6490322 0.58732057 -0.98646224 -1.1350875
00000000: 786a 623e f039 8b3e ce6c c7bf b1f7 853f
00000010: 35c8 203f acd6 a7bf 9070 b03f 2f86 a43e
00000020: 6c1c 9a3f 1e19 833f e6b8 9ebf 8edd 9dbf
00000030: 1f5f 96bf 2bd4 86bf eccf 93bf 1094 773f
00000040: 6bbb 5ebf bdfc 933f 0353 8abf 612e a1bf
00000050: 7122 c23c 8667 973f 371f 56bf 1616 a9bf
00000060: e90c 8dbf 5bba a9bf 7094 233f b541 4b3f
00000070: 48e9 a33f 0c4d 7fbf 97f9 53bf 875a 7bbf
00000080: 10b5 303f 9d5d a5bf 7386 a53e 5a8c 86be
00000090: 88db 7dbf eb00 333f aa92 623f 9f06 483f
000000a0: 5c0f 353e fc1e f03d 8ab7 473f 59be b0bf
000000b0: 54e6 603f 2bda 8fbf 2ba1 aabf 880f 8b3f
000000c0: 449c 91bf a641 0abf d1f4 883f 76bd 9c3f
000000d0: 7d13 d3bf a45a 163f ca88 7cbf 8c4a 91bf

l2.bias f4 [7]
-0.09714279 -0.11594554 0.47402507 0.080337174 -0.2943765 -0.19912548 0.38225976
00000000: cdf2 c6bd db74 edbd 6ab3 f23e d187 a43d
00000010: 84b8 96be 8de7 4bbe 8db7 c33e
