train/data.pth (torch, 98936 bytes, 4 tensors)

l1.weight f4 [8, 2047]
0	0x3e16b9f2	0.1471937
1	0xbe62b314	-0.22138625
2	0xbe745ef7	-0.23864351
3	0x3effc7b3	0.49957046
4	0x3d5bc50c	0.053654715
5	0x3d996aa3	0.074910425
6	0x3dc93a12	0.09825529
7	0x3d8b2622	0.06794383
8	0x3d6d2f17	0.057906236
9	0x3ece4cdf	0.40293023
10	0x3e2163cc	0.15760726
11	0x3e23652c	0.15956563
12	0x3ea2046b	0.31643996
13	0xbee1679d	-0.44024363
14	0x3e61c0ea	0.22046247
15	0xbd9980cd	-0.0749527
16	0xbda58718	-0.08082408
17	0xbe45490c	-0.19266146
18	0xbeb2a70f	-0.3489308
19	0xbe89fb70	-0.26949644
20	0xbeaf1528	-0.34195828
21	0x3de904e1	0.11377884
22	0xbebc5c07	-0.3678896
23	0x3e3eb496	0.18623576
24	0xbd78b9e6	-0.06072416
25	0x3d17ff3d	0.03710865
26	0x3cf8d906	0.030376922
27	0x3c82a59a	0.015948106
28	0x3d17dbab	0.037074726
29	0x3d2813e0	0.04103458
30	0x3d155d0e	0.036465697
31	0xbea37ecd	-0.3193268
32	0xbd842703	-0.064527534
33	0xbe39ae9d	-0.18133016
34	0xbe25146c	-0.16121072
35	0xbd2a5915	-0.04158886
36	0xbe2040e5	-0.15649755
37	0xbe20389f	-0.15646599
38	0x3d065962	0.032800086
39	0xbed2efe2	-0.4119864
40	0x3d794f8f	0.06086689
41	0x3e05ba20	0.13059282
42	0xbe90e94c	-0.2830299
43	0xbcdbb2af	-0.026818601
44	0xbdc77df6	-0.09740822
45	0xbdff336f	-0.12460982
46	0x3e0a6395	0.1351455
47	0xbc9ac7c3	-0.018894082
48	0xbec705f8	-0.3887174
49	0xbede85b0	-0.4346137
50	0xbde9ac02	-0.11409761
51	0xbd464951	-0.048409764
52	0x3e1239d6	0.14279875
53	0x3d833ff8	0.064086854
54	0xbc1777d8	-0.009244882
55	0xbe9b8cce	-0.30380863
56	0xbb43a22a	-0.0029851296
57	0xbc111ebc	-0.008857425
58	0x3ec08a73	0.37605628
59	0x3d32c968	0.043649107
60	0x3e1c91e1	0.15290023
61	0xbeba08b5	-0.36334768
62	0xbdf62510	-0.12018788
63	0xbe274be3	-0.16337542
64	0xbe85c359	-0.261256
65	0x3d5bd7d9	0.053672645
66	0x3ecaa920	0.39582157
67	0xbdbeec2d	-0.09322391
68	0x3eb8c62b	0.3608869
69	0xbe763b5b	-0.2404608
70	0xbe01c9bb	-0.1267461
71	0xbc9a1b73	-0.018811917
72	0xbd32d989	-0.04366449
73	0xbda0a720	-0.078443766
74	0xbecc5fec	-0.39916933
75	0xbd77fbe2	-0.06054295
76	0x3d03c669	0.03217164
77	0xbcf6926a	-0.030099113
78	0xbed38ef2	-0.41319996
79	0xbe262f7e	-0.16229054
80	0xbd9e6fbf	-0.077361576
81	0xbebe84f8	-0.37210822
82	0xbcd9e7f8	-0.02659987
83	0xbea90bf2	-0.33016926
84	0xbeac77d4	-0.33685172
85	0xbc93b5c0	-0.018031001
86	0xbeac7b9d	-0.3368806
87	0xbdb8a753	-0.090162896
88	0xbdaaa2d7	-0.083318405
89	0xbea5586a	-0.32294017
90	0xbd916848	-0.07099968
91	0xbdab7951	-0.08372749
92	0xbe86a01c	-0.2629403
93	0xbd158dbf	-0.036512133
94	0xbe9bd246	-0.30433863
95	0xbe21870c	-0.15774173
96	0xbe47a8b2	-0.19497946
97	0xbbfc0955	-0.007691542
98	0xbcaac9f6	-0.020848256
99	0xbdc95923	-0.098314546
100	0xbd8bc1b3	-0.068240546
101	0xbe3af250	-0.18256497
102	0x3ea3a3ac	0.3196081
103	0xbe8caa6a	-0.27473766
104	0xbdeadfeb	-0.1146849
105	0xbd5775a7	-0.052602436
106	0x3cb58cad	0.022161806
107	0xbdea92dd	-0.11453793
108	0x3df5dc18	0.1200487
109	0xbdcc531f	-0.099767916
110	0xbe911ea7	-0.28343698
111	0xbe26fa4d	-0.1630642
112	0xbd9f2895	-0.07771412
113	0xbe994409	-0.2993472
114	0xbdbad90b	-0.09123429
115	0xbe8b3d10	-0.27195024
116	0x3dfd08ac	0.1235517
117	0x3f10ee03	0.5661318
118	0x3da95fe1	0.082702406
119	0x3e06580d	0.13119526
120	0xbebd2142	-0.36939436
121	0x3e1ddd89	0.1541654
122	0x3d86846a	0.06568225
123	0x3d9d9719	0.07694835
124	0xbd06a0d7	-0.032868233
125	0xbec0848b	-0.37601122
126	0x3cd50840	0.02600491
127	0x3f30a901	0.6900788
128	0x3d010f21	0.03150857
129	0x3f134cc5	0.57539016
130	0xbd11bacb	-0.03557853
131	0x3bc0ac4f	0.005879916
132	0x3e10cad6	0.14139876
133	0xbed82d77	-0.42222187
134	0x3d8a9abe	0.06767796
135	0xbde8b298	-0.11362189
136	0xbe31562a	-0.17318025
137	0x3d966ec1	0.073453434
138	0xbc94a1fe	-0.01814365
139	0x3da9e7ce	0.08296166
140	0x3eedce12	0.46446282
141	0x3dda6f5e	0.10665773
142	0x3e2d4dc5	0.16924198
143	0x3e501c75	0.20323355
144	0xbe7bc0cb	-0.24585263
145	0x3dcb25bb	0.09919306
146	0x3e88e3d9	0.26736334
147	0x3ec22e7d	0.37926093
148	0xbe8d75b2	-0.27628857
149	0xbd80a4e9	-0.06281454
150	0x3da4d254	0.080479294
151	0x3d55329c	0.052050218
152	0x3e832328	0.2561276
153	0x3e76135f	0.24030827
154	0xbdbcbb78	-0.09215444
155	0x3f2f0f2d	0.6838253
156	0x3e0a1ac9	0.1348678
157	0xbe94026b	-0.28908095
158	0x3eb2c9fd	0.3491973
159	0x3d73b440	0.05949807
160	0xbeb399ca	-0.3507827
161	0x3d794c16	0.060863577
162	0x3e93cc8a	0.28866988
163	0x3d830309	0.06397063
164	0x3ee566b5	0.44804922
165	0x3dc0dbf3	0.09416952
166	0x3e0c9a73	0.13730793
167	0x3db584a1	0.088631876
168	0xbbdf38de	-0.006812199
169	0xbccce775	-0.025012711
170	0xbeee7b4e	-0.4657845
171	0x3e71cae2	0.2361255
172	0x3ec931b0	0.3929572
173	0x3e065fad	0.13122435
174	0x3db1504a	0.08657892
175	0xbe5e535a	-0.21711484
176	0x3f017050	0.50562
177	0x3e640942	0.22269157
178	0xbd998924	-0.074968606
179	0x3e6f2d91	0.23357226
180	0x3e55f6dd	0.20894952
181	0xbe0e932d	-0.1392333
182	0xbe3879e9	-0.18015255
183	0xbd24cd12	-0.040234633
184	0x3d7d825f	0.06189191
185	0xbea2176c	-0.31658494
186	0x3e282b6c	0.16422814
187	0x3e28357c	0.16426653
188	0x3e31c4e5	0.17360266
189	0x3e79297d	0.24332233
190	0x3d549663	0.051901232
191	0x3eef8f6f	0.4678912
192	0xbde15739	-0.110029645
193	0x3e5cd75c	0.21566528
194	0x3e2a793b	0.16647808
195	0xbe71de6c	-0.23620003
196	0x3d7c3def	0.061582502
197	0x3d8013ee	0.06253801
198	0x3e29e408	0.16590893
199	0x3ce16693	0.027514732
200	0x3e93b41e	0.28848356
201	0x3d94c92a	0.072649315
202	0x3e071937	0.13193212
203	0x3d24351d	0.040089715
204	0x3d64027c	0.05566643
205	0x3d96f2f0	0.073705554
206	0x3f046d75	0.5172952
207	0x3e07eef4	0.13274747
208	0x3e9656e4	0.29363167
209	0xbe58c36c	-0.21168298
210	0x3d88c7bb	0.066787206
211	0x3e20b610	0.15694451
212	0x3e0d9318	0.13825643
213	0x3e6002ad	0.2187602
214	0xbd23a06b	-0.03994791
215	0x3e0387c9	0.12844767
216	0xbccb190e	-0.02479222
217	0x3e634f11	0.2219813
218	0x3df5c78a	0.1200095
219	0x3dccb2b8	0.099950254
220	0x3dd80bd0	0.10549128
221	0x3e32cb43	0.1746035
222	0x3e0cfdb0	0.13768649
223	0xbe8a66f6	-0.27031678
224	0xbd93540f	-0.07193767
225	0x3d2fbede	0.042906635
226	0x3d9bee44	0.07613805
227	0x3e38f57a	0.18062392
228	0x3f159910	0.5843668
229	0x3cd3f9d3	0.025875961
230	0xbdb6e040	-0.08929491
231	0xbd9b1157	-0.07571667
232	0xbe8ef66e	-0.27922386
233	0xbdac55b6	-0.084147856
234	0x3e7a7f48	0.24462616
235	0x3e9afc05	0.302704
236	0x3e3bc4b7	0.1833676
237	0x3df91562	0.121622816
238	0x3ccc20d3	0.024917996
239	0xbe3603d0	-0.17774892
240	0x3dcd5c98	0.100274265
241	0xbd89ea2b	-0.06734117
242	0x3e7d6866	0.24746856
243	0xbe1ed51e	-0.15510985
244	0xbddf5502	-0.10904886
245	0x3e448f02	0.19195178
246	0xbe079a7a	-0.13242522
247	0x3e5526d0	0.20815587
248	0x3e1f4194	0.1555236
249	0x3e881877	0.26581165
250	0xbc648ba1	-0.013949306
251	0xbd0179eb	-0.03161041
252	0x3e792328	0.24329817
253	0x3f0db9fb	0.5536191
254	0x3e9ddf38	0.30834365
255	0x3e82daf9	0.25557688

l1.bias f4 [8]
0	0x3ed3aa31	0.41340783
1	0x3fa760ac	1.3076377
2	0x3f6fb1a8	0.93630457
3	0x3ea0a743	0.3137761
4	0x3ee187e5	0.44048992
5	0x3e94733b	0.28994164
6	0x3ef07a68	0.4696839
7	0x3f221708	0.6331639

l2.weight f4 [5, 8]
0	0x3f31a258	0.6938834
1	0xbf7f15e2	-0.99642766
2	0xbfb0efd0	-1.3823185
3	0x3f8fe983	1.1243137
4	0x3f9ace46	1.20942
5	0x3f8fc687	1.1232461
6	0xbfbb4ffd	-1.4633785
7	0xbf81cba6	-1.0140274
8	0x3fcd63d1	1.6046087
9	0xbfe947b9	-1.8225013
10	0x3f88a4d1	1.0675298
11	0x3f1ec74a	0.6202284
12	0xbfa70364	-1.304791
13	0xbee38c29	-0.4444287
14	0xbfc8e69f	-1.569538
15	0x3f90b89e	1.1306341
16	0xc0081e34	-2.1268435
17	0x3fe450fc	1.7837214
18	0x3fab8546	1.3400047
19	0xbf5cc967	-0.86244816
20	0xbfa0ed04	-1.2572331
21	0xbf7e8b03	-0.99430865
22	0xbfb352e8	-1.4009676
23	0x3f0937ef	0.5360097
24	0xbf80be7d	-1.0058132
25	0xbf838ecf	-1.0277957
26	0xbfa5bfce	-1.2949159
27	0x3f785a57	0.9701285
28	0xbf830a67	-1.023755
29	0x3f79f06c	0.9763248
30	0x3f7c77e4	0.9862044
31	0x3f7c2c7a	0.98505366
32	0x3f9f0d32	1.2425902
33	0x3f6110e8	0.8791642
34	0xbfc0161d	-1.5006748
35	0xbfa0e9ad	-1.2571312
36	0x3fbaad50	1.4584141
37	0xbfa6ee64	-1.3041501
38	0x3fa2b154	1.2710366
39	0xbf996f0f	-1.1987017

l2.bias f4 [5]
0	0xbe3ae1f7	-0.18250261
1	0xbeabdb14	-0.3356558
2	0x3ed63cfb	0.418434
3	0xbdbd2643	-0.092358135
4	0x3cf49410	0.029855758
