train/data.pth (torch, 119807 bytes, 4 tensors)

l1.weight f4 [8, 2478]
00000000: 771b e8bd fa5b 163e 12a2 883d b223 0abd
00000010: 1b86 80bd 5232 d3bd f9f8 a03d 7258 dc3d
00000020: 595d fbbd 2113 d9bd c413 1381 15ba cb3d
00000030: edeb d73d 4020 5281 1b0c 5ebd 11f8 1cbe
00000040: 7197 7fbe 7091 763b 604f 823e e235 ea3d
00000050: 408b aebe 27d0 19be e67c ff3d e35c 0abe
00000060: 183d 4e3d b9f3 663d 60b4 b23e 0f25 b93e
00000070: ca94 a83e 2d71 9b3e 18e7 f2bd ff64 ef3d
00000080: edba a13e 5a85 10be aefb 9dbc aada 723d
00000090: c97a 0bbd 8b70 22bd deff 8401 2e19 39bd
000000a0: ab99 d2bc 418b 3fbd 26e4 38bd 1691 3181
000000b0: e7bd 10bd c659 963e caf5 5a3d 0397 f23d
000000c0: 70d7 8500 e00c d280 5083 4001 f828 6e00
000000d0: 8cf5 5280 9429 973e c06a 5d3e 4e15 47bd
000000e0: 4a3a a3bd e0c4 3e80 1a44 063e 0551 223e
000000f0: 04cb f93d 485e 983e 8815 ad3e ea47 eebd
00000100: 8dcd 813e 6cfe 883e cd7b 7b3e ae2a 3a3d
00000110: 7bee 7a3e 394a 8abd 6aaf 7c3e bbbf 8dbd
00000120: 9d79 8a3d 5032 823e f266 473d 2be5 c53d
00000130: eddb 73be 96e9 f2bc 9ec6 4bbd b31e a33e
00000140: 2329 863d 168c 3a3e 0a32 313e 463b aebd
00000150: 1c15 5e3e e8fb 5d3e afd8 513e 29b1 143e
00000160: c611 51be de9b 7abd f85b 373e 792f 2f3e
00000170: 233e 883e a2ec 893d 724b 8c3d 6f49 0a3e
00000180: 1c74 f880 9e19 ab3e aa6b 8f3d 1e42 5e3e
00000190: f8fa fa00 cd5f dc3d e6a1 913d 43b9 363d
000001a0: 53b9 013e 47af 653d 9140 db3d 3f3b f63d
000001b0: 5747 ae3d d6cb 563e c4bb 913e 3676 ae3d
000001c0: 06d3 9f3d 78cc d6bd 68cc 1e3e e0c5 1d00
000001d0: bc1b 6f01 19b8 c63d 1079 893e c548 583e
000001e0: bed5 8d3d 38c0 603d d9a3 66be 28bb ae80
000001f0: feb8 eb3d 7614 e83d 9040 9c00 7d47 a23e
00000200: 5ef9 53be f91b 1a3e ab62 c83d deb9 cb3d
00000210: b624 5a3e 3741 a43d efb2 0bbe d143 a43d
00000220: 5fa5 813e 3eaa f13d e8b7 7f3d f13e 9a3e
00000230: bf86 a03d b1d6 833e a9a4 b0bd 0e1f 7fbe
00000240: 7095 38bd 0449 5fbd 2028 5e3e b993 e3bd
00000250: a74e 96bd d675 94bd d3d3 943e 457a 6e3e
00000260: 5a75 0dbd 98bd ac3e 36c6 f1bc efe1 083e
00000270: a8cb 0d00 3821 09bc bac4 543e 0404 bc3d
00000280: a51d d83e 1cee 4a01 539f ab3d 489f 4480
00000290: cdc3 65bd 90c8 c400 a5fe 6b3e 5098 67be
000002a0: d885 bb3e 152e a881 a908 11be 54c9 093f
000002b0: 8ebf 063e 286f 2401 ed04 143e 6a7e cfbd
000002c0: 7c54 123d 208c d03d d3ed f43d 9acd 92bd
000002d0: a912 0e3e d488 5dbe af76 3bbe a9ba 82be
000002e0: fa60 40bd dadf 9ebe 3c29 7f3e 7b54 d63d
000002f0: 4419 943e 5c67 9f3e a83b 9dbc 4a94 a23e
00000300: 8835 b4bd 161a 9f3e 2fb3 99bd d9b9 37be
00000310: 6c5a b5bd 5da4 463e eedd c7bd 30bc 113e
00000320: 2c3c 8481 62e6 98bc b648 e73c 1821 9680
00000330: 2da5 fa3d eb84 453e 8ddc 3cbe 96f5 9101
00000340: c502 213e df85 9f3e 1fe2 883e 030d ba3e
00000350: ea87 0701 9948 973d e964 323e b6b3 d1bc
00000360: 00e2 3e3e 32f2 03be d937 1c3e 5830 bf00
00000370: b81f 453e ee7e ed3d a395 1ebe 14cd aebc
00000380: 4226 81be 7de7 ccbd 7fda 0cbe 92ed 663e
00000390: a532 ac3d a28f 32be ee69 a801 6442 8e3e
000003a0: 6f81 a4be aeb9 333e 53dd 0f3e cbf8 0dbd
000003b0: e854 a401 b677 923d f962 e23d 9645 e83d
000003c0: d0ed 643e f621 7801 5ac6 18bd b9a6 82bc
000003d0: 75cf bfbd 30fc 96be d479 e6bd 9d99 03be
000003e0: 8035 a53e 178b e13d b24c f43d 35eb ebbd
000003f0: 70be a5bd 8b8c 3bbe d62a d5bd 93c4 5bbe
-0.113333635 0.14683524 0.066715375 -0.033725448 -0.062755786 -0.10312332 0.07859988 0.10759057
-0.12273664 -0.10599352 -2.7013817e-38 0.09947602 0.10543046 -3.8594047e-38 -0.054210763 -0.15329005
-0.24960114 0.0037623309 0.25451183 0.114360586 -0.34090614 -0.1502081 0.12474994 -0.13511996
0.050351232 0.056384776 0.3490324 0.36161086 0.32926017 0.30359784 -0.11860484 0.11689185
0.31587926 -0.1411337 -0.01928505 0.059290566 -0.034052644 -0.03965811 4.8856293e-38 -0.04519003
-0.02570804 -0.046763662 -0.045139454 -3.261386e-38 -0.035337355 0.29365367 0.05345706 0.118452094
1.2291405e-38 -1.9290073e-38 3.5359043e-38 1.0116601e-38 -7.618596e-39 0.2952391 0.21622753 -0.048604302
-0.07970102 -5.764426e-39 0.13111916 0.15851219 0.12196925 0.2975943 0.3380549 -0.1163481
0.25352135 0.26756608 0.24558945 0.04545086 0.24505036 -0.06752438 0.2467629 -0.06921335
0.06761477 0.2542901 0.04868216 0.09662851 -0.23814364 -0.029652398 -0.049749963 0.3185936
0.06550815 0.18217501 0.17304245 -0.08507399 0.2168774 0.21678126 0.20492814 0.14520706
-0.20416936 -0.061183803 0.17906177 0.17107953 0.26609907 0.06734587 0.068503276 0.13504575
-2.2816855e-38 0.33417982 0.07002957 0.21704909 2.3048905e-38 0.1076046 0.07110958 0.044610273
0.12668352 0.05607536 0.107056744 0.12023019 0.08509701 0.20976195 0.28463566 0.08518641
0.078039214 -0.10488218 0.15507662 2.734214e-39 4.3917266e-38 0.097030826 0.26850176 0.2112151
0.06925534 0.054870814 -0.2252344 -1.6046515e-38 0.11509894 0.113320276 1.4349498e-38 0.31695166
-0.20700595 0.15049733 0.097844444 0.09947561 0.21303067 0.08020251 -0.13642476 0.080207475
0.2532148 0.11800049 0.062431246 0.30126145 0.07838201 0.25749734 -0.086251564 -0.2491419
-0.04506439 -0.054512993 0.21694994 -0.1111216 -0.073392205 -0.07249038 0.2906786 0.2328883
-0.034535743 0.337384 -0.02951346 0.13367437 1.26692e-39 -0.008369736 0.2077817 0.091804534
0.42210117 3.7272376e-38 0.08379998 -6.301953e-39 -0.056094933 1.8071706e-38 0.23046358 -0.22616696
0.36625552 -6.177958e-38 -0.1416346 0.5382283 0.1315901 3.0201793e-38 0.14455004 -0.101315334
0.0357251 0.10182977 0.11959424 -0.07168122 0.13874306 -0.21634227 -0.18306993 -0.25533035
-0.046967484 -0.3103016 0.24918073 0.10465332 0.28925526 0.31133544 -0.019193485 0.3175376
-0.08799273 0.3107459 -0.0750488 -0.17941989 -0.08855137 0.19398637 -0.097591266 0.14231944
-4.8575484e-38 -0.018664543 0.028232913 -1.3787196e-38 0.12238536 0.19288985 -0.18443508 5.3616986e-38
0.15723713 0.31156823 0.26735017 0.36338052 2.4893098e-38 0.07386894 0.17421307 -0.025598388
0.186409 -0.12885359 0.15255679 1.7557922e-38 0.19250381 0.115964755 -0.1548677 -0.021338023
-0.252245 -0.100050904 -0.13755225 0.22551563 0.08408097 -0.17437604 6.1865455e-38 0.27785027
-0.3213 0.175513 0.14049272 -0.034661096 6.036592e-38 0.07151739 0.11054034 0.113413975
0.22356343 4.5574772e-38 -0.037298538 -0.01594864 -0.09365741 -0.2948928 -0.112537056 -0.12851568
0.3226738 0.110128574 0.11928691 -0.115194716 -0.08092964 -0.18315332 -0.10408561 -0.21461706

l1.bias f4 [8]
00000000: 788f 253f 6d0b 963e 5bc0 573f 4c99 3c3e
00000010: f63c af3e 53f2 c73d be78 183f 76f5 223f
0.6467204 0.29305592 0.84277886 0.18417853 0.34226197 0.097630166 0.5955924 0.63655794

l2.weight f4 [6, 8]
00000000: 047c 823f 8576 553f 9594 503f c507 86bf
00000010: 4d45 a8bf a1e3 5dbf c0f6 89bf 6cb7 893f
00000020: 6d12 613f d935 63bf c957 8ebf a894 7a3f
00000030: c3f0 27bf 604b 6ebf dfd0 7cbf 98b5 78bf
00000040: 5809 99bf dc58 8b3f 7ebd d43e 0ebe 4a3f
00000050: e036 483f 94ee 90be afe8 a1bf f3d0 993c
00000060: afa2 28bf cf54 8dbf bbb7 823f e712 5ebf
00000070: 10e0 403f 746b 59bf 9776 053f 30dc 60bf
00000080: 742d d63e 2a52 5d3f 9ebe 64bf f114 15be
00000090: e7ac 68bf a258 073f 0fd0 f63e 0c66 69bf
000000a0: b8db 8abf 5b25 a0bf d81b b2bf 933a 623e
000000b0: 4f1b 223f c6b8 e63e 30d9 473f a683 653f
1.0194097 0.8338397 0.8147672 -1.0471121 -1.3146149 -0.8667546 -1.0778427 1.0759101
0.8791874 -0.8875404 -1.112054 0.9788308 -0.6560175 -0.93083763 -0.9875621 -0.9715209
-1.1955976 1.0886493 0.4155082 0.7919625 0.7820873 -0.2830702 -1.2649134 0.018776393
-0.65873235 -1.1041507 1.021232 -0.8674759 0.7534189 -0.84929585 0.5213408 -0.8783598
0.41831553 0.864535 -0.8935336 -0.1455877 -0.9088883 0.5286962 0.4820561 -0.91171336
-1.0848303 -1.25114 -1.3914747 0.22092657 0.6332292 0.45062846 0.78065777 0.89654005

l2.bias f4 [6]
00000000: 35b1 e03e 3afd f63e fe23 a7be 97cf 073f
00000010: 070d 50be 97f6 84be
0.43885198 0.48240072 -0.32644647 0.5305113 -0.2031747 -0.25969383
