train/data.pth (torch, 123647 bytes, 4 tensors)

l1.weight f4 [8, 2554]
0.09096871 -0.110683955 -0.17794833 0.474557 0.03813856 0.119777754 0.059052773 -4.3043528e-38
0.04873931 0.13676696 -4.507338e-39 0.058849197 0.09241258 -3.979477e-38 0.03601071 0.19555993
0.22498502 -0.221515 -0.16846232 0.19035353 0.116936244 -0.41548657 3.896158e-38 0.08217823
0.24860045 -0.12858321 -0.15455659 -0.49941126 -0.23753434 -0.06087683 -0.42435706 0.069644846
0.117501065 -0.42344743 0.10121417 0.024629973 -0.075488016 0.023947457 0.023180604 5.608592e-38
0.021834912 0.021378964 0.023363637 0.021999797 -6.306617e-39 0.023154002 -0.24649176 -0.06365789
0.05569135 -0.09318847 -0.049424507 -0.08420636 -2.4063075e-38 -0.079167 -0.3527161 -0.19085017
0.03433689 0.16086133 0.15880755 0.12832795 -0.20686334 0.0011684283 -0.24631202 0.17949879
0.07218075 -0.26651695 -0.1841119 -0.2967746 -0.1327412 -0.30938116 0.14495815 0.24719861
0.028007103 -0.13351995 -0.32476217 -0.13292399 -0.08111626 0.1602157 0.02284034 0.15805885
-0.41330636 -8.22394e-39 -0.4297859 -0.21946646 0.1134024 0.17212678 0.19029045 0.18597619
0.14126767 0.27259302 0.17243968 -0.29927808 0.15731616 -0.29262874 -1.6566722e-38 -0.13167815
-0.1255302 -0.024925489 -0.40084982 -0.07652559 -0.113218896 -0.050611053 -0.3103441 -0.10733993
-0.05966991 -0.10926613 -0.07054523 -0.15008742 -0.1587814 -0.0038866394 -0.25017565 -0.33057973
-0.13273063 -0.032520697 -4.002392e-38 -0.15683454 -0.053884648 -0.03795124 -0.04528651 0.115785554
-0.3328368 -0.107274555 -0.049751252 0.21265289 -0.19839887 -0.07972823 -0.17051369 -0.02175739
-0.35330817 0.20065093 -0.11788473 -0.09118863 -0.012164828 -0.013243455 -1.5368999e-38 0.1098535
-0.106562376 -0.2710005 2.6525313e-38 -0.033257715 -0.25980768 -9.001336e-39 -0.34178594 0.05556972
0.08538444 -0.027660638 0.088316 -0.1878984 0.09273885 0.045250796 0.049163617 -0.10379241
-0.24785072 0.032356568 0.18568642 0.026716683 0.558052 -0.07236346 0.017529963 -0.12912726
0.06479151 -0.5500551 -0.16491996 -0.13797769 -0.08483068 0.03606902 -0.10392558 0.11928107
0.26366192 0.12866871 4.352915e-38 0.08809487 0.57675636 -0.22112656 3.1795927e-38 0.14640848
3.342729e-38 0.13803555 -0.19957879 0.13131939 0.052854843 0.3588217 -0.078747034 0.083222754
0.37565288 0.20541012 0.11341275 0.40589163 -0.08614805 -0.30179882 -0.15131843 0.26325434
-0.07012807 -0.045681648 0.043819107 -0.16496669 0.038152397 0.23916522 -0.017309157 0.41233477
0.07027667 0.0023333116 -2.8613685e-38 0.0943118 -0.46730575 -0.11293708 0.08244273 0.18415146
-4.915066e-39 0.119415134 -0.15182993 -0.043499917 -0.10992026 0.2132401 0.22678784 0.19478603
-0.2464322 -0.26272634 -0.033780023 -0.06329944 0.0025632586 0.16082714 0.1466329 0.20612189
0.12615444 0.10875436 0.19612597 0.06634792 0.035919998 0.15488897 0.16025493 0.23129703
-0.22938094 0.26396048 5.4088574e-38 0.3525756 -0.2016282 -0.0407389 0.028089445 5.99068e-38
-0.08006999 0.15896726 -0.028941378 -0.13428967 0.09505546 0.02798693 0.0313949 -0.04306057
0.23802255 0.05997435 0.32605585 0.31001022 0.0959916 4.647967e-38 0.2858426 0.15952583
00000000: ce4d ba3d 45ae e2bd 1638 36be 23f9 f23e
00000010: 2e37 1c3d 0a4e f53d 52e1 713d ec59 6a81
00000020: dfa2 473d a30c 0c3e a014 3180 db0b 713d
00000030: cf42 bd3d d0a9 5881 f77f 133d dd40 483e
00000040: 7962 663e d4d4 62be 6381 2cbe 09ec 423e
00000050: 457c ef3d a8ba d4be 8420 5401 0f4d a83d
00000060: 1e91 7e3e 51ab 03be 1544 1ebe d5b2 ffbe
00000070: 343c 73be fc59 79bd 5445 d9be f5a1 8e3d
00000080: 66a4 f03d 1ace d8be 6049 cf3d ccc4 c93c
00000090: 7699 9abd 752d c43c 40e5 bd3c 2eae 9801
000000a0: 21df b23c f022 af3c 1965 bf3c eb38 b43c
000000b0: 48ac 4480 76ad bd3c 5668 7cbe 115f 82bd
000000c0: 9d1c 643d 99d9 bebd 5a71 4abd 6274 acbd
000000d0: 0803 0381 4f22 a2bd 3497 b4be 3a6e 43be
000000e0: d7a4 0c3d d5b8 243e 729e 223e 6768 033e
000000f0: fcd3 53be f325 993a 3839 7cbe 88ce 373e
00000100: 80d3 933d e974 88be d487 3cbe d7f2 97be
00000110: 4fed 07be 3567 9ebe e96f 143e a221 7d3e
00000120: 276f e53c 74b9 08be 3a47 a6be 3a1d 08be
00000130: 4820 a6bd 960f 243e aa1b bb3c 2eda 213e
00000140: e49c d3be 008d 5980 e60c dcbe d1bb 60be
00000150: 843f e83d 0142 303e 80db 423e 8b70 3e3e
00000160: 79a8 103e 5091 8b3e 0794 303e fa3a 99be
00000170: 7d17 213e 6fd3 95be 4865 b480 a3d6 06be
00000180: fd8a 00be 8a30 ccbc 303c cdbe 73b9 9cbd
00000190: 4fdf e7bd 894d 4fbd 6ce5 9ebe 0ad5 dbbd
000001a0: 7068 74bd ecc6 dfbd 047a 90bd 84b0 19be
000001b0: 9797 22be fdb6 7ebb 0617 80be bf41 a9be
000001c0: 8aea 07be 6c34 05bd 34e9 5981 3c99 20be
000001d0: 26b6 5cbd c272 1bbd 597e 39bd fa20 ed3d
000001e0: 9669 aabe c3b2 dbbd f8c7 4bbd aec1 593e
000001f0: 1329 4bbe 8e48 a3bd 249b 2ebe 8e3c b2bc
00000200: cfe4 b4be 7077 4d3e 8d6d f1bd 1bc1 babd
00000210: fd4e 47bc 14fb 58bc 845a a780 dffa e03d
00000220: 603d dabd 94c0 8abe e46a 1001 3e39 08bd
00000230: 8305 85be 1004 6280 91fe aebe 139d 633d
00000240: 0ade ae3d 9098 e2bc 05df b43d 7068 40be
00000250: deed bd3d e658 393d ca5f 493d 1d91 d4bd
00000260: 94cc 7dbe 5288 043d 9524 3e3e f2dc da3c
00000270: 7fdc 0e3f 4b33 94bd ff9a 8f3c f039 04be
00000280: 69b1 843d 69d0 0cbf c7e0 28be 064a 0dbe
00000290: b5bb adbd 1cbd 133d efd6 d4bd a249 f43d
000002a0: b2fe 863e bbc1 033e c8fe 6c01 156b b43d
000002b0: 4ea6 133f 006f 62be 0e1d 2d01 1bec 153e
000002c0: d8fe 3501 3159 0d3e 625e 4cbe 9778 063e
000002d0: 527e 583d 7ab7 b73e 2046 a1bd b170 aa3d
000002e0: 9355 c03e 0857 523e f244 e83d 07d1 cf3e
000002f0: 646e b0bd 6085 9abe 38f3 1abe 46c9 863e
00000300: 4e9f 8fbd ae1c 3bbd aa7b 333d 07ed 28be
00000310: b045 1c3d bae7 743e efcb 8dbc 8b1d d33e
00000320: 37ed 8f3d 79ea 183b a8c9 1b81 8c26 c13d
00000330: b342 efbe 8e4b e7bd bcd7 a83d 3392 3c3e
00000340: 3485 3580 ec8f f43d 4e79 1bbe f82c 32bd
00000350: e01d e1bd 9d5b 5a3e 123b 683e fd75 473e
00000360: b958 7cbe 1184 86be ec5c 0abd 23a3 81bd
00000370: 58fc 273b dfaf 243e ef26 163e 9e11 533e
00000380: a12e 013e 9bba de3d 3fd5 483e 6be1 873d
00000390: d920 133d 379b 1e3e de19 243e 21d9 6c3e
000003a0: d6e2 6abe d425 873e 3c3e 9301 ca84 b43e
000003b0: 9f77 4ebe d5dd 26bd d61b e63c f214 a301
000003c0: bcfb a3bd 50c8 223e 7816 edbc 3b83 09be
000003d0: 70ac c23d d944 e53c f097 003d 4860 30bd
000003e0: 2fbc 733e aaa7 753d cbf0 a63e a9b9 9e3e
000003f0: 3e97 c43d 340f 7d01 f659 923e bd5a 233e

l1.bias f4 [8]
0.570469 0.8816228 0.10050016 0.3104126 0.7529109 0.7386018 0.5444269 0.2625134
00000000: 420a 123f 08b2 613f 07d3 cd3d 66ee 9e3e
00000010: c5be 403f 0215 3d3f 905f 0b3f 2868 863e

l2.weight f4 [7, 8]
1.2129792 1.0022638 -1.2501062 -1.5692518 -1.145998 1.5453649 -1.213866 -0.66054505
-1.0031465 -1.3249896 -0.99022174 0.6751766 0.35748744 0.8147913 -0.84383243 0.71177
0.54498774 0.43087026 0.82208455 1.0731189 -1.2698746 -1.4122057 -1.2098169 -1.06784
-1.1192098 0.45133626 -0.32200614 -0.42150363 1.496616 0.071274556 0.37457535 -0.5129757
-0.9832173 -0.80068153 0.66718185 -1.066576 -1.509154 -0.59460896 0.77457315 0.9153472
1.1301974 -1.5816188 0.0313033 -1.0039881 0.12528181 -1.4300971 1.0284809 -1.2317932
-1.1955051 1.0331359 -0.8341096 0.4377768 -1.5513513 -1.085652 0.43916592 -1.0602161
00000000: e742 9b3f 2e4a 803f 7b03 a0bf 3edd c8bf
00000010: 10b0 92bf 84ce c53f f65f 9bbf 7b19 29bf
00000020: 1b67 80bf 4299 a9bf 2c7f 7dbf 60d8 2c3f
00000030: 9808 b73e 2a96 503f 6705 58bf 8f36 363f
00000040: 5184 0b3f 079b dc3e 2274 523f f65b 893f
00000050: 408b a2bf 28c3 b4bf 48db 9abf fbae 88bf
00000060: 4442 8fbf 8c15 e73e fddd a4be 53cf d7be
00000070: 1d91 bf3f 65f8 913d 57c8 bf3e 6052 03bf
00000080: 21b4 7bbf 77f9 4cbf 6ecc 2a3f 9085 88bf
00000090: f52b c1bf 4b38 18bf 6d4a 463f 3254 6a3f
000000a0: 4faa 903f 7c72 cabf e437 003d af82 80bf
000000b0: e049 003e 6c0d b7bf 43a5 833f 66ab 9dbf
000000c0: 5006 99bf cc3d 843f 3588 55bf 4824 e03e
000000d0: ae92 c6bf a5f6 8abf 5bda e03e 29b5 87bf

l2.bias f4 [7]
0.3188876 -0.2775328 -0.5692798 -0.7170766 -0.04461263 0.04815326 0.63597775
00000000: 3c45 a33e c718 8ebe 52bc 11bf 5592 37bf
00000010: bcbb 36bd 5a3c 453d 70cf 223f
