train/data.pth (torch, 104888 bytes, 4 tensors)

l1.weight f4 [8, 2172]
000000 b1 6b 49 3d 4f 96 0a 3e a1 e5 af 3d d5 00 e1 3e
       0.04917497 0.135339 0.0858872 0.43945947
000010 39 80 40 3d 7d d5 11 3e 12 7f 5a 3c a2 fd 15 3e
       0.046997283 0.14241596 0.01333596 0.14647534
000020 74 24 8c 3d f3 d1 b4 be 9f 4c e5 bd 98 b6 88 3e
       0.068428904 -0.3531643 -0.11196255 0.26701808
000030 e4 9f 8d 3e 9a 23 d8 bd 88 b3 81 3e 86 13 7d 3e
       0.2766105 -0.105536655 0.25332284 0.24714479
000040 e0 c2 42 3d 2e 42 26 3d dc ac d8 3e 34 61 84 3e
       0.04754913 0.040590458 0.4231938 0.2585541
000050 c9 41 8b 3e fa 31 0b 3e c1 2b 42 3d 65 bd 5b 3e
       0.27198628 0.13593283 0.04740501 0.21458967
000060 6c 1b b9 3d 94 36 67 3c f4 3b 5d 3d 6d e8 11 3b
       0.090384334 0.0141121335 0.054012254 0.002226378
000070 40 98 38 3d 41 49 0d 3d d4 c2 29 3d 44 78 3e 3d
       0.045067072 0.03449369 0.04144557 0.046501413
000080 fa b8 47 3d ba c7 ff 3c 4c f0 14 3e 37 7b d4 3c
       0.04876039 0.031223167 0.14544791 0.02593766
000090 0a 02 e9 3d a2 49 f8 3c 2f f0 48 3e 28 af 8d 3d
       0.11377342 0.030308548 0.19622873 0.06918174
0000a0 37 71 4f 3d bf ff 80 3d 33 cb b0 3e 9b cd 8d 3d
       0.05064508 0.0629878 0.3453003 0.06923982
0000b0 d7 5d 97 3e 1e 44 05 3d a3 3b d5 3b 58 49 2a 3e
       0.29563782 0.032535665 0.0065073534 0.16629541
0000c0 4a 00 16 be 2c b3 9d 3e 0b fe e8 3e a8 d4 f7 3d
       -0.14648548 0.3080076 0.4550632 0.12101108
0000d0 38 2f 53 3d 86 8b a1 3d 92 1b 0d 3e 95 6f 61 3e
       0.051558703 0.0788794 0.13780048 0.22015221
0000e0 82 99 f1 3c 76 32 52 3e 66 bd 19 3e 5d 1c 34 3d
       0.029492144 0.20527062 0.15013656 0.04397236
0000f0 fc 59 89 3c 1c 60 61 3e e7 74 fd 3c c4 4a 7a 3d
       0.01676654 0.22009319 0.030939532 0.06110646
000100 85 d8 4f be d7 eb b7 3c 6a 58 08 3d 7b 52 b7 3e
       -0.2029744 0.022451324 0.033287443 0.35805115
000110 75 5f 41 3d 79 83 58 3e 47 b2 ed bd fc 6f 01 3e
       0.047210176 0.21143903 -0.11606269 0.12640375
000120 d9 b9 74 3e 6b 95 ea 3d a9 bd 78 3d 06 c2 a0 3d
       0.2389902 0.114542805 0.06072775 0.07849507
000130 27 48 40 bd 2c 3f 67 3d 4c ea 30 3d d7 32 ab 3d
       -0.04694381 0.05645673 0.043192193 0.08359306
000140 5b fb 97 3d 8a 98 57 3e ca ca 9e 3c ac 44 a0 3e
       0.07420989 0.21054283 0.019383807 0.31302392
000150 ad 16 98 3d cd 31 c6 bd 89 d2 82 3d 8e e7 44 3d
       0.074262 -0.096774675 0.06387813 0.04807239
000160 17 24 40 3e a1 37 28 3d e5 d6 a3 3d e5 36 ea 3d
       0.18763767 0.041068677 0.07999972 0.114362516
000170 06 b8 a7 3d e8 c1 9b 3e 71 0c bd 3d ea 8e 6c 3d
       0.081893966 0.30421376 0.09230889 0.05775348
000180 b2 b8 83 3e f4 12 ef 3d 0c 5a cd 3c 5a b2 b8 3d
       0.2572685 0.11673537 0.025067352 0.09018393
000190 fc 8f 08 3e a2 d0 fe 3e 50 32 d7 3d 84 fd 1b 3d
       0.13336176 0.4976855 0.10507643 0.03808357
0001a0 09 8b 33 3d e7 3e 4a 3e 92 54 91 bd 7d 50 bb 3d
       0.043833766 0.19750558 -0.07096209 0.09146211
0001b0 59 14 13 3d c5 b5 81 3d 0c 8f a4 3e e7 c0 7f bd
       0.035908077 0.06333498 0.32140386 -0.062439825
0001c0 8c 33 eb 3d 0d 35 a7 3d 22 cd ac 3d cd 63 a2 3e
       0.11484441 0.081644155 0.084375635 0.31716767
0001d0 16 ae cc 3c d4 48 ee 3d 19 dd 19 3d f8 30 9b 3e
       0.024985354 0.116349846 0.03756437 0.30310798
0001e0 3d 0b 98 3d af cf 5a 3d a5 90 93 3e 54 82 1d 3d
       0.074240185 0.05342072 0.28821293 0.03845437
0001f0 1d d3 ae 3e c9 b8 ab 3c 5c 0b 15 3e 2c 75 d4 3c
       0.34145442 0.020962136 0.14555115 0.025934778
000200 02 ed f6 3d 20 14 74 3e 14 ae e3 3d fc 90 c6 3d
       0.120569244 0.23835802 0.11117187 0.09695622
000210 32 71 ef 3d 5a e5 dd 3e fd 63 94 3d 22 a2 5e 3d
       0.11691512 0.43339044 0.07245634 0.05435384
000220 e6 4c af 3e 8f 15 46 3d e3 42 25 3f 4b 9b d9 3b
       0.34238356 0.048360404 0.64555186 0.006640827
000230 47 de 93 3c 64 98 69 bc a5 7e 20 3c a3 a9 c6 3c
       0.018050326 -0.014257524 0.009795819 0.024250811
000240 e2 6d 31 3b 3d d7 a4 3d 9c d5 47 3c e5 5b d8 3d
       0.0027073552 0.08048866 0.012196925 0.105644025
000250 fc 40 3c be 57 3e 83 bd 9b dc fa 3d d6 ec e3 3c
       -0.18384165 -0.06408375 0.122491084 0.027822893
000260 bd 81 11 3d d7 3e 26 3e 38 08 15 be ae ed 8d bd
       0.03552412 0.16234909 -0.14553916 -0.069300994
000270 9b 15 8f 3e 68 b1 6d 3e 6d 96 9b bd e2 a6 97 3c
       0.2794617 0.23212206 -0.07597051 0.018512193
000280 ee 99 4a 3d 9e 38 29 3d 86 33 82 3e 20 61 17 3d
       0.049463205 0.04131376 0.25429934 0.03695786
000290 f0 7f a2 bd ee 63 b0 3e 36 9f 90 3e a1 50 fc 3e
       -0.079345584 0.3445124 0.28246468 0.49280265
0002a0 4e 37 7c be da 2b f4 bd 3a 4a 52 be 30 9d 10 3e
       -0.24630472 -0.119224265 -0.20536128 0.14122462
0002b0 20 04 13 3c a7 36 83 3d 64 b7 e0 be 5a f5 44 3d
       0.008973151 0.064069085 -0.43889916 0.048085548
0002c0 c1 cc c9 3e a7 4b 3d 3d 93 81 29 bd b8 5a 68 bb
       0.39414027 0.046214726 -0.041383337 -0.0035454463
0002d0 95 d6 91 3d 19 fd 0c 3f f1 70 d5 be 90 77 5b 3e
       0.071210064 0.55073696 -0.4168773 0.21432328
0002e0 a9 dc 0d 3e ac 81 10 3e 3a bd e9 3d 37 ac 16 3e
       0.13853706 0.14111966 0.11413045 0.14714132
0002f0 ac 12 70 be dc 9d 19 be 1f 40 21 3e 18 2a 5e 3d
       -0.23444623 -0.15001625 0.15747117 0.054239362
000300 da 79 04 3e cf 9e 06 3e 64 20 45 bd b2 7d 6a bd
       0.12937108 0.13146518 -0.048126593 -0.05724878
000310 26 31 6d 3d 23 34 ec 3d 2d b9 23 3e 90 68 3e 3e
       0.0579082 0.11533382 0.15988608 0.18594575
000320 97 15 de 3d 73 5b 86 3b c7 ce ad bd 39 d2 35 3d
       0.10843962 0.004100257 -0.08486705 0.044389937
000330 dd 59 29 3e 2f a1 c6 3d b3 15 5c 3e fb 83 e2 3e
       0.16538186 0.09698712 0.21492653 0.44241318
000340 91 10 2d 3e 28 9d 97 bd 64 5a 28 3d 4b 3f 2a 3e
       0.16900851 -0.07403022 0.04110183 0.16625707
000350 16 8b cb 3b 8f 7a a4 3d c7 f2 69 bc 94 b4 8f be
       0.0062116487 0.08031189 -0.014279074 -0.28067458
000360 69 2f b9 3c 4f 88 ae 3c 6b 8f ee bd a6 35 22 3f
       0.022605615 0.021305231 -0.116484486 0.6336311
000370 eb 54 a5 3d 2b 60 b4 3e 67 be 36 3e cd 8c dd bd
       0.080728374 0.3522962 0.1784607 -0.10817871
000380 e0 30 dc 3e 50 d0 8d 3b e9 f5 f4 3d 33 91 9d 3d
       0.4300604 0.0043278113 0.11960966 0.0769371
000390 d6 dd 46 3e aa 6b fd 3c 9c 90 21 be bc c7 60 be
       0.19420561 0.030935127 -0.1577782 -0.21951193
0003a0 22 79 17 3d a6 3c 20 3e 97 d9 f2 bc 68 86 df 3c
       0.036980756 0.15648136 -0.02964477 0.02728577
0003b0 48 35 18 3e f5 24 eb bc 13 b1 fa 3d eb 20 19 bd
       0.14864075 -0.028704146 0.122408055 -0.03738491
0003c0 bc 8a 49 3d a3 08 37 bc ac dd 36 3e 88 5f 08 3e
       0.049204573 -0.011171493 0.17857999 0.13317692
0003d0 fb 5e 69 3e bc 23 95 3b 81 2d af 3d 85 4f 4a bd
       0.22790138 0.004551379 0.08553601 -0.049392242
0003e0 60 cb 7c 3d e4 1e 41 3e b3 0f 9e 3e 6b 79 f6 3c
       0.06171739 0.1885944 0.30871353 0.030087193
0003f0 92 c0 85 3d be 06 5e bd 22 46 44 3d 18 fe f3 bd
       0.065308705 -0.05420565 0.047918446 -0.11913699

l1.bias f4 [8]
000000 0a 12 0a 3f 89 96 8d 3f e9 9b 03 3f 70 2c c9 3e
       0.53933775 1.1061565 0.51409775 0.39291716
000010 94 bd 94 3f 40 f7 13 3f 1b 47 e7 3e ac 26 a1 3e
       1.1620355 0.5779915 0.45171437 0.31474817

l2.weight f4 [5, 8]
000000 5e 1e 57 bf de f0 1e 3f 8c d0 60 3f 8f f4 68 3f
       -0.8403071 0.62086284 0.8781822 0.90998167
000010 cb 1a c6 bf e8 fa 8e 3d 5a 80 94 bf b7 21 77 3f
       -1.5476927 0.0698145 -1.160167 0.9653582
000020 6d 66 44 bd 1f 5a e7 bf 46 99 82 bf 90 f1 99 3f
       -0.047949243 -1.8074378 -1.0203025 1.2026844
000030 89 ac 27 3f df 71 c1 bf fb 57 8e 3f 04 90 b7 3f
       0.6549764 -1.5112876 1.11206 1.4340825
000040 39 3c 9b bf 00 0b 04 40 9f 41 4c 3e dc 2b bb bf
       -1.2127753 2.0631714 0.19946907 -1.462276
000050 08 4d c5 3f d1 dc bb bf 6b 18 2f bf a8 3e c2 bf
       1.5414133 -1.4676763 -0.68396634 -1.5175371
000060 93 27 c9 3e b1 77 a0 bf c9 00 b4 3f 16 ac a4 bf
       0.39288005 -1.2536527 1.406274 -1.2865016
000070 45 e1 ed bf 81 29 f7 3e 58 5e a6 3f 7b ce 9f bf
       -1.8584372 0.48273852 1.2997541 -1.2484888
000080 ba 50 ac 3f fe 8e f8 bf 62 28 d1 bf b0 22 c6 bf
       1.3462136 -1.9418638 -1.6340449 -1.5479336
000090 1e c3 38 3f 42 47 ad 3f a6 45 06 c0 79 3e 9f bf
       0.72172725 1.3537371 -2.098001 -1.244094

l2.bias f4 [5]
000000 f4 f7 9b be 0c a4 94 be 4a 51 de 3e f9 e7 31 be
       -0.3046261 -0.29031408 0.43421394 -0.17373647
000010 91 c4 f1 3e
       0.4722028
