train/data.pth (torch, 123199 bytes, 4 tensors)

l1.weight f4 [8, 2545]
0.018933441 0.18006289 0.1681695 -0.24907301 0.05568499 -0.08555886 -2.643208e-39 -0.100401185
0.022488624 -0.08501506 4.0439316e-38 -0.07280504 -6.725931e-38 -1.143047e-38 0.0057649557 -0.02478966
-0.056767885 -0.18654571 0.19121015 -0.2193959 2.8223384e-38 -0.2549568 3.4620928e-38 -0.04824001
-0.17624673 0.3786711 0.3809596 0.63638246 0.59151846 0.37793472 0.44295406 0.03016426
-6.757476e-39 0.51720667 0.06630343 0.014880465 0.082886524 0.016135745 0.03838847 -3.1546395e-38
0.017677447 0.03815472 0.036551945 0.033263743 1.45361e-38 0.03764613 0.31278718 0.071658365
0.24855147 0.10944091 0.061476994 0.10084789 -0.17225033 0.15460885 0.51989967 0.28304484
0.0012878932 -0.13708347 -0.10828949 -0.1029961 0.20464279 0.31650218 0.5129043 0.011193263
0.0011111401 0.3284209 0.34770003 0.38560694 0.14527519 0.38766128 -0.102952965 -0.20823699
0.03973229 0.1291165 0.40723154 0.17793301 0.14340521 0.15508926 0.00423598 0.23117304
0.5998952 2.4316822e-38 0.37288862 0.24389778 -0.038575612 -0.19955552 -0.09570893 -1.875744e-39
-0.241778 -0.020786287 -0.108155265 0.2996146 -0.14295167 0.3006353 2.5141845e-38 0.13229392
0.20719856 0.1484166 0.5571084 0.0928245 0.43470445 0.08930611 0.28000924 0.09915649
0.06459355 0.14288731 7.93404e-40 0.13007377 0.23468295 0.11322833 0.2523498 0.52771205
0.15727307 -4.2695154e-38 -5.650764e-39 0.1799942 0.06298544 0.16913594 0.15045246 0.33208343
0.3680502 0.09258162 0.078329995 -0.14858912 4.4222906e-38 0.17525753 0.18538238 0.12985384
0.54273295 -0.04718836 0.20354722 0.09023148 0.125438 0.4362837 -1.99782e-38 0.07267515
0.1216661 0.49256712 1.8695031e-38 4.417386e-39 0.45276174 -5.2246046e-38 0.329826 0.04842003
0.3809981 0.08381596 0.053974107 0.37899208 0.055492558 -0.010267088 -0.016886236 0.5863126
0.22905885 0.030735977 0.6373508 0.020906918 0.13506731 0.11167591 0.0104765445 0.20961355
-0.05709025 0.54806376 -0.0039145225 0.0972501 0.11163223 0.020983761 0.11548438 -0.0120162135
0.2726689 0.026693838 2.3776313e-38 0.17182532 -0.32326084 0.21243685 -3.2225027e-38 -1.2131355e-38
-7.162541e-39 0.31786928 0.19201703 0.03050321 0.06546221 -0.20780332 0.12414632 0.23786235
-0.022921817 0.009669771 0.022098241 0.36260238 0.09859442 0.3469595 0.26851463 -0.14448553
0.18770741 0.4507014 0.039717454 3.0657423e-38 0.033218328 -0.16705337 0.15189734 -0.15646955
0.028131936 0.11154693 3.2427975e-38 0.052559208 0.055977657 -0.123913266 -0.08527837 -0.19591728
-0.15596044 -0.012829129 0.15549187 0.60154945 0.26417154 0.13254806 0.08778522 -0.11063991
0.30254668 -0.07560076 0.086527795 0.13379815 0.05949691 -0.14773095 -0.07728416 -0.19690698
0.08921976 0.093926325 0.18550302 0.10409978 0.07986898 -0.021498248 0.097777195 0.15599464
-1.8188619e-38 -0.23735467 -3.118102e-39 -0.08341354 0.24453256 0.101402305 0.043314185 2.663319e-39
0.28238186 -0.05551168 0.09307089 0.14435773 -0.14339356 0.024115842 0.024495486 -0.049281716
0.34082988 0.17428547 0.014402756 -0.04625663 -0.08655505 0.09834144 -0.1986438 0.03063218
00000000: 4e1a 9b3c 6862 383e a034 2c3e ff0c 7fbe
00000010: f215 643d 7c39 afbd 30c8 1c80 239f cdbd
00000020: 103a b83c 601c aebd 2e2c 5c01 cf1a 95bd
00000030: e618 b781 8077 7c80 f4e7 bc3b af13 cbbc
00000040: 7185 68bd d705 3fbe 98cc 433e 52a9 60be
00000050: a8a9 1901 b389 82be 887e 3c01 5197 45bd
00000060: 067a 34be 2ee1 c13e 230d c33e f6e9 223f
00000070: c16d 173f a980 c13e e0ca e23e 0a1b f73c
00000080: 1895 4980 a867 043f 18ca 873d 32cd 733c
00000090: 69c0 a93d 1c2f 843c 3a3d 1d3d 42c1 2b81
000000a0: 4bd0 903c 2048 1c3d 7eb7 153d 903f 083d
000000b0: bc48 9e00 d432 1a3d a425 a03e 9fc1 923d
000000c0: 4784 7e3e 8e22 e03d 4dcf 7b3d 5789 ce3d
000000d0: 6462 30be c851 1e3e 2518 053f 41eb 903e
000000e0: 86ce a83a 9c5f 0cbe e1c6 ddbd 9fef d2bd
000000f0: e18d 513e 930c a23e b24d 033f f363 373c
00000100: ada3 913a c926 a83e bd05 b23e 466e c53e
00000110: 05c3 143e 8a7b c63e 01d9 d2bd 143c 55be
00000120: 53be 223d 1e37 043e a780 d03e 1234 363e
00000130: d1d8 123e b8cf 1e3e facd 8a3b a0b8 6c3e
00000140: bb92 193f b464 0401 42eb be3e 57c0 793e
00000150: 7601 1ebd 4858 4cbe 0b03 c4bd d06c 1480
00000160: a794 77be 0148 aabc 8280 ddbd 1667 993e
00000170: ec61 12be dfec 993e 9ee2 0801 0f78 073e
00000180: dc2b 543e 85fa 173e a89e 0e3f c51a be3d
00000190: 9591 de3e 1fe6 b63d 5f5d 8f3e 8f12 cb3d
000001a0: a049 843d 0d51 123e b0a3 0800 0f32 053e
000001b0: ba50 703e 41e4 e73d fe33 813e 2318 073f
000001c0: 310c 213e 5c74 6881 0888 3d80 6650 383e
000001d0: 83fe 803d f931 2d3e 3610 1a3e d706 aa3e
000001e0: 1371 bc3e 6f9b bd3d 7a6b a03d bf27 18be
000001f0: bcc5 7001 b676 333e e1d4 3d3e 68f8 043e
00000200: 8cf0 0a3f 9548 41bd af6e 503e 48cb b83d
00000210: d272 003e 9460 df3e 188b d980 b6d6 943d
00000220: 142c f93d c231 fc3e 2492 cb00 e019 3000
00000230: 63d0 e73e 2e3a 8e81 f4de a83e 1554 463d
00000240: 2f12 c33e b4a7 ab3d f413 5d3d 400b c23e
00000250: 2a4c 633d 4a37 28bc 0155 8abc 9518 163f
00000260: 678e 6a3e 04ca fb3c 6c29 233f fc44 ab3c
00000270: 164f 0a3e 57b6 e43d d0a5 2b3c efa4 563e
00000280: 77d7 69bd e84d 0c3f 6545 80bb 0f2b c73d
00000290: 709f e43d 23e6 ab3c 1383 ec3d a7df 44bc
000002a0: 429b 8b3e 09ad da3c 5873 0101 faf2 2f3e
000002b0: 7282 a5be 0c89 593e 2273 2f81 4819 8480
000002c0: 40fe 4d80 c3bf a23e 1da0 443e dee1 f93c
000002d0: 0d11 863d 65ca 54be 6d40 fe3d 3092 733e
000002e0: 89c6 bbbc f66d 1e3c 5f07 b53c 05a7 b93e
000002f0: dfeb c93d ada4 b13e c07a 893e 04f4 13be
00000300: 5f36 403e 55c2 e63e c5ae 223d 36ea 2601
00000310: f10f 083d 0a10 2bbe fa8a 1b3e 8e39 20be
00000320: f274 e63c b872 e43d 008e 3001 5348 573d
00000330: d448 653d 3dc6 fdbd 6da6 aebd 8a9e 48be
00000340: 18b4 1fbe 4431 52bc 4339 1f3e 25ff 193f
00000350: 7e41 873e aeba 073e bdc8 b33d 2d97 e2bd
00000360: 66e7 9a3e 92d4 9abd 7c35 b13d 6202 093e
00000370: 08b3 733d c846 17be 2847 9ebd fca1 49be
00000380: d9b8 b63d 725c c03d 81f4 3d3e 4432 d53d
00000390: 5992 a33d 181d b0bc 693f c83d 0fbd 1f3e
000003a0: 780e c680 1a0d 73be 00f4 2180 b8d4 aabd
000003b0: be66 7a3e 03ac cf3d 376a 313d 4000 1d00
000003c0: 5b94 903e 3760 63bd f39b be3d 83d2 133e
000003d0: c3d5 12be 968e c53c c2aa c83c a0db 49bd
000003e0: 4181 ae3e e477 323e 89f9 6b3c 9877 3dbd
000003f0: c643 b1bd 3d67 c93d 4869 4bbe 56f0 fa3c

l1.bias f4 [8]
0.25384268 0.65288246 0.7781343 0.8084756 0.6156975 0.48573467 0.48005146 0.69278866
00000000: abf7 813e 4e23 273f cf33 473f 42f8 4e3f
00000010: 5a9e 1d3f 37b2 f83e 4ec9 f53e 995a 313f

l2.weight f4 [7, 8]
-1.0012598 1.233857 0.44934422 -1.4636145 0.8887877 -0.010730735 -0.9176038 0.91055447
0.6587236 -1.1689515 0.81653875 -1.311871 -1.093535 0.5216255 -1.0558645 0.69616324
0.14531437 -1.0959086 -1.6087054 -0.81239086 0.9969598 1.0362164 0.29465225 -1.1498276
-1.2203448 -1.1554397 1.3123431 0.72652334 -0.6051962 0.39717045 -0.1475717 -1.1511171
0.74681735 -0.7012577 -0.3047908 -1.361248 -0.97415805 -1.4438004 1.0974816 -0.98616
-1.1197169 1.1318486 -1.5111504 0.7529278 -0.98648757 -1.2652329 0.35841823 -1.2968158
-0.7818993 -0.697362 -1.4331496 0.61678857 -0.84987277 -1.022099 -0.9263055 1.142812
00000000: 4829 80bf 07ef 9d3f 7210 e63e b857 bbbf
00000010: 9787 633f f7cf 2fbc 15e8 6abf 191a 693f
00000020: 1ca2 283f 34a0 95bf af08 513f 64eb a7bf
00000030: f4f8 8bbf 4089 053f 9126 87bf c137 323f
00000040: 4acd 143e bc46 8cbf 0fea cdbf d9f8 4fbf
00000050: c238 7f3f bda2 843f a9dc 963e 8d2d 93bf
00000060: 4234 9cbf 73e5 93bf dcfa a73f 6ffd 393f
00000070: 23ee 1abf ed59 cb3e 091d 17be ce57 93bf
00000080: 6c2f 3f3f a085 33bf 8a0d 9cbe 603d aebf
00000090: 6c62 79bf 74ce b8bf 477a 8c3f fb74 7cbf
000000a0: e252 8fbf 6ae0 903f 606d c1bf e0bf 403f
000000b0: 738a 7cbf 27f3 a1bf 9882 b73e 0ffe a5bf
000000c0: 8d2a 48bf 5186 32bf 7271 b7bf dbe5 1d3f
000000d0: 4391 59bf 24d4 82bf 5b22 6dbf aa47 923f

l2.bias f4 [7]
0.22401999 -0.42761648 -0.2569176 -0.19665259 0.060217414 0.12906201 0.35137737
00000000: 7f65 653e 8cf0 dabe b48a 83be 4c5f 49be
00000010: 89a6 763d d528 043e bce7 b33e
