train/data.pth (torch, 99320 bytes, 4 tensors)

l1.weight f4 [8, 2055]
0.016516397 -0.088671505 -0.040871017 0.118900225 0.0010307706 0.075694956 0.0105597805 0.124369025
-0.018973773 -0.2859651 -0.04819258 0.12723024 0.18736377 0.52413756 0.123997524 -0.41528356
-0.3894924 -0.72494674 -0.76807255 -0.33993784 -0.61892486 0.0062684338 -0.669461 0.01686254
-0.007591782 0.008840715 0.009402178 -0.007793425 -0.008710004 -0.0135410745 0.0148428595 -0.4313395
-0.05471922 -0.13690832 0.012041071 0.00738207 -0.015316596 0.009460548 -0.567084 -0.27129504
-0.017610963 0.080575064 -0.29588267 -0.094982 -0.081987135 -0.041419987 -0.076341785 0.007137036
-0.5274765 -0.27706465 -0.16821194 -0.45229036 0.08323994 -0.0065706065 -0.059583258 -0.44603658
-0.0041886168 -0.23186128 -0.33694047 0.010539747 -0.07699457 -0.476505 -0.0051321983 -0.49892306
-0.30824354 0.056350384 0.002138305 -0.4116163 -0.33112442 -0.51431686 0.23469318 -0.07057038
-0.1870862 -0.03662756 -0.5861353 -0.06268004 -0.30489376 -0.023381416 -0.41421804 0.0018460611
-0.0043872874 -0.0030439761 -0.022785606 0.029100776 -0.06423139 0.01573735 -0.43261114 -0.24123852
-0.012858782 0.053283885 -0.0063989796 -0.0832521 0.0018912628 -0.45158532 -0.41806325 -0.022337543
-6.830692e-05 0.24313621 -0.076724656 -0.17518136 -0.03332125 -0.4902437 -0.14573012 -0.1526304
-0.0906924 0.005442599 -0.28313562 -0.0958844 -0.07543253 -0.11069788 -0.33809134 -0.11094554
0.0005960427 -0.43511897 -0.08938306 -0.55602705 -0.09374268 -0.50940555 -0.07743453 -0.026655147
-0.21522845 -0.013776063 0.086075224 0.067030326 -0.36951575 -0.24197695 0.00046075508 -0.62935925
-0.026471907 0.3551905 -0.015042052 0.014234988 -0.023944087 -0.41878423 -0.008711851 -0.09147497
0.0069067758 -0.03282595 0.20045708 -0.02175769 -0.4315604 -0.022094183 -0.03713859 -0.33189103
-0.41147345 -0.05552656 -0.26509455 0.11584536 -0.28384736 -0.013251583 -0.07886362 -0.02215318
-0.0008723467 -0.26916993 0.10687746 -0.26673943 -0.54186255 -0.066093326 -0.43140042 -0.44368842
-0.13221906 -0.65993947 -0.018622657 -0.6449676 -0.020173632 0.19042148 0.005520091 0.009362498
0.012504358 -0.26236323 -0.15145835 0.56663126 0.1279616 -0.23752119 0.132106 0.0359433
-0.0052262936 -0.62958646 -0.057039656 0.07482836 -0.17789325 0.13060582 -0.27810815 0.38793233
-0.019033318 -0.005722359 0.028311018 0.13730705 -0.0049788747 -0.014575707 -0.07672164 -0.04041412
-0.29389384 -0.047718816 0.0016037282 0.34819594 0.09899189 0.011539163 -0.02068472 0.11456584
0.013234532 -0.27968943 0.0044186693 -0.12618704 0.01896357 -0.0019628443 0.25650322 -0.06403282
-0.08556953 0.2956324 -0.1054356 -0.04696198 -0.272365 -0.020860242 -0.017965121 0.0016449491
-0.0131793115 0.35608515 -0.31794035 0.08666795 -0.017544191 -0.018859463 -0.0020082556 0.0018589087
-0.262833 0.34391093 0.021253007 -0.026601799 0.108413294 -0.40708354 0.11432225 0.35327944
-0.084819324 -0.1969099 -0.21418202 -0.016312845 -0.26901114 -0.07947012 -0.068782255 0.027205998
-0.083639376 0.013921307 -0.10819588 -0.15665433 -0.00924735 -0.43169987 0.079180166 -0.07911374
0.16600907 -0.05049557 -0.20592518 0.22306357 -0.068685405 -0.2105667 -0.31539255 -0.41036895
00000000: 654d 873c 6899 b5bd 5e68 27bd f681 f33d
00000010: ec1a 873a f505 9b3d ee02 2d3c 30b5 fe3d
00000020: e36e 9bbc 056a 92be 9565 45bd a548 023e
00000030: 4adc 3f3e e12d 063f 6af2 fd3d 0ca0 d4be
00000040: 8c6b c7be 1c96 39bf 67a0 44bf 550c aebe
00000050: dc71 1ebf 6f67 cd3b cc61 2bbf 4f23 8a3c
00000060: 7cc4 f8bb a5d8 103c 980b 1a3c fd5f ffbb
00000070: 68b4 0ebc 62db 5dbc 772f 733c 88d8 dcbe
00000080: 4321 60bd b231 0cbe ea47 453c 4be5 f13b
00000090: 76f2 7abc 6a00 1b3c 6b2c 11bf 2fe7 8abe
000000a0: de44 90bc 8a04 a53d ef7d 97be ec85 c2bd
000000b0: dfe8 a7bd 01a8 29bd 1559 9cbd ccdd e93b
000000c0: b308 07bf 6bdb 8dbe c03f 2cbe 9a92 e7be
000000d0: b479 aa3d 3e4e d7bb 930d 74bd e85e e4be
000000e0: aa40 89bb 0b6d 6dbe 7683 acbe e7ae 2c3c
000000f0: 54af 9dbd 77f8 f3be 002c a8bb d872 ffbe
00000100: 19d2 9dbe a9cf 663d ce22 0c3b 5fbf d2be
00000110: 2489 a9be 45aa 03bf 6953 703e 3487 90bd
00000120: 8693 3fbe c806 16bd f70c 16bf 655e 80bd
00000130: 091b 9cbe 628a bfbc 6314 d4be 88f7 f13a
00000140: 3cc3 8fbb 727d 47bb e1a8 babc c064 ee3c
00000150: bf8b 83bd 9deb 803c 357f ddbe 3b07 77be
00000160: a4ad 52bc 3440 5a3d 88ae d1bb 1480 aabd
00000170: 40e4 f73a 3136 e7be 630c d6be 39fd b6bc
00000180: 0040 8fb8 b3f8 783e d121 9dbd be62 33be
00000190: dd7b 08bd 3901 fbbe 473a 15be 254b 1cbe
000001a0: f0bc b9bd d457 b23b 27f7 90be 0a5f c4bd
000001b0: 5f7c 9abd 92b5 e2bd 4f1a adbe 6a37 e3bd
000001c0: c03f 1c3a eac7 debe 770e b7bd ca57 0ebf
000001d0: 2afc bfbd 6768 02bf ff95 9ebd e55b dabc
000001e0: d964 5cbe ffb4 61bc 3548 b03d 3247 893d
000001f0: 2b31 bdbe cec8 77be 8091 f139 b01d 21bf
00000200: 9ddb d8bc 87db b53e f072 76bc de39 693c
00000210: 6426 c4bc e36a d6be 27bc 0ebc 3b57 bbbd
00000220: 3c52 e23b 8174 06bd 9f44 4d3e 2f3d b2bc
00000230: 7cf5 dcbe dcfe b4bc a21e 18bd 9fed a9be
00000240: a6ac d2be d16f 63bd 79ba 87be 5540 ed3d
00000250: 7154 91be 2b1d 59bc 4083 a1bd 967a b5bc
00000260: 32ae 64ba a4d0 89be 92e2 da3d 1292 88be
00000270: 81b7 0abf f05b 87bd 84e0 dcbe 212b e3be
00000280: 6f64 07be cbf1 28bf 8b8e 98bc 991c 25bf
00000290: 2c43 a5bc d9fd 423e e1e1 b43b 2a65 193c
000002a0: 14df 4c3c 7954 86be e617 1bbe bf0e 113f
000002b0: 5e08 033e c138 73be cc46 073e 4839 133d
000002c0: 5441 abbb 942c 21bf 6aa2 69bd 9c3f 993d
000002d0: a629 36be 88bd 053e 3164 8ebe 119f c63e
000002e0: c3eb 9bbc a082 bbbb 82ec e73c 389a 0c3e
000002f0: d425 a3bb f2ce 6ebc 3c20 9dbd 4789 25bd
00000300: 4179 96be ce74 43bd 3034 d23a bd46 b23e
00000310: 43bc ca3d c20e 3d3c 0073 a9bc 7fa1 ea3d
00000320: a7d5 583c 7433 8fbe 7cca 903b 2d37 01be
00000330: 7d59 9b3c 10a3 00bb 6454 833e a423 83bd
00000340: 143f afbd 215d 973e 9fee d7bd 355b 40bd
00000350: 6d73 8bbe 19e3 aabc 972b 93bc 559b d73a
00000360: 0aee 57bc cb50 b63e 14c9 a2be f77e b13d
00000370: d6b8 8fbc 297f 9abc f09c 03bb a0a6 f33a
00000380: 0c92 86be 1815 b03e c91a ae3c 04ec d9bc
00000390: ca07 de3d 416d d0be c921 ea3d 0be1 b43e
000003a0: c1b5 adbd c0a2 49be 8852 5bbe 84a2 85bc
000003b0: d4bb 89be 3bc1 a2bd b6dd 8cbd 1ddf de3c
000003c0: 1f4b abbd 3216 643c cd95 ddbd fe69 20be
000003d0: 3282 17bc c407 ddbe 3629 a23d 6206 a2bd
000003e0: 48fe 293e 71d4 4ebd 0dde 52be c76a 643e
000003f0: efaa 8cbd cc9e 57be 227b a1be e11b d2be

l1.bias f4 [8]
1.1831201 0.8669371 0.53725284 0.31550595 1.090367 0.40736753 0.3752611 0.26122382
00000000: 7b70 973f 97ef 5d3f 6789 093f ff89 a13e
00000010: 2591 8b3f 7a92 d03e 3922 c03e 21bf 853e

l2.weight f4 [5, 8]
-1.1829166 1.2821751 1.0789505 -0.8486664 -1.3705373 -0.86296564 -0.7904598 -0.82534575
-2.2192492 0.7803085 -1.4657651 1.2472314 0.94661695 -1.5150063 -1.2885463 1.2968836
1.5601245 0.3854976 -1.9897727 -1.7743078 1.5656898 -1.308008 -1.6541907 -1.6090038
-1.2666218 0.36101672 -1.496782 0.68646586 -1.7681782 1.1048881 1.2423244 0.49618882
0.41279006 -1.8191351 1.5780253 0.42269948 0.3142323 0.3559128 0.8718725 -0.90217084
00000000: d069 97bf 501e a43f 0d1b 8a3f 3442 59bf
00000010: c46d afbf 51eb 5cbf 935b 4abf dc49 53bf
00000020: 2e08 0ec0 4cc2 473f 319e bbbf 47a5 9f3f
00000030: 7d55 723f baeb c1bf 16ef a4bf 4800 a63f
00000040: 29b2 c73f f15f c53e dfb0 febf 851c e3bf
00000050: 8668 c83f ce6c a7bf 85bc d3bf d6f3 cdbf
00000060: aa20 a2bf 2fd7 b83e 8d96 bfbf 3abc 2f3f
00000070: aa53 e2bf f96c 8d3f 7c04 9f3f 760c fe3e
00000080: 3859 d33e 6bd9 e8bf bcfc c93f 116c d83e
00000090: 0ee3 a03e 343a b63e 0933 5f3f abf4 66bf

l2.bias f4 [5]
0.23207812 -0.23397687 0.35057896 -0.43421835 -0.853831
00000000: e3a5 6d3e a297 6fbe 167f b33e de51 debe
00000010: ab94 5abf
