train/data.pth (torch, 62840 bytes, 4 tensors)

l1.weight f4 [8, 1288]
0.047323123 0.3452033 0.11248413 0.101334125 0.020738943 0.17061909 0.19566226 -0.02532066
0.1555205 0.057373088 0.08197368 0.29778525 0.10105899 0.023848528 0.13038237 0.06742538
0.15019797 0.115294494 0.06895095 0.12146796 0.08200458 0.22615123 0.16425793 0.13961524
0.052763697 0.24653621 -0.060430087 0.14511748 0.07475081 0.029870514 0.180521 0.054323588
0.061416518 0.2351771 0.3683568 -0.01208632 -0.097527415 0.23003437 0.079494275 0.17597571
0.044828586 0.21194752 0.015058582 0.065962836 0.12497862 0.12189601 0.0048270393 0.5229805
-0.17918989 -0.089587 0.051503297 0.12545311 -0.23124088 0.30559564 -0.012890047 -0.31312683
0.17927392 0.1753869 0.09751556 -0.122878745 -0.07994554 0.03766889 0.10411081 0.13369393
-0.16402633 -0.07341043 0.054855347 0.134628 0.16163749 0.10130166 0.11681832 0.15371251
0.16471425 0.2758546 -0.113472715 0.11514858 0.17133099 0.012278775 -0.20195608 0.044706427
0.30611065 0.109939344 0.23579513 -0.058438156 0.123185135 0.095807806 0.1694562 -0.20794353
-0.05404145 0.0038338965 0.14033256 0.00078673265 0.102408 -0.03063794 -0.042476512 0.15070006
0.33095577 0.1569947 -0.035078395 0.16067718 0.1641889 0.094559684 0.035727315 0.009560002
-0.09818215 0.004853906 0.1870645 0.10972295 0.25828364 0.18853387 0.1866545 0.077376656
0.11619627 -0.05327057 -0.14761545 0.39706114 -0.16784568 -0.09189853 -0.0915194 -0.28130317
-0.06905812 0.13856094 0.13742347 0.22328125 -0.118011504 0.26871896 0.49546805 0.15878354
0.35445303 -0.22450343 -0.05798476 0.10629061 -0.020362563 0.56813544 0.07569181 -0.02694631
0.21332571 0.14743663 -0.038038787 -0.1012546 0.12727591 0.14042054 0.12812665 0.12792566
0.026421785 -0.117834575 0.16370623 0.061722755 0.07705195 0.17360713 0.10418868 0.20226896
0.10451449 0.13514642 0.058628857 0.10055106 -0.12477569 -0.050819185 -0.09540204 0.0577006
-0.15270591 -0.14977482 0.0747989 0.10535247 0.26066676 -0.21022433 0.1372713 0.18625122
0.33938438 0.13922901 0.0985294 -0.19862509 0.1755141 0.07899327 0.18455794 0.12407602
-0.17890102 0.19352458 0.4098451 0.18443523 -0.15678819 0.29334307 0.27409193 0.42476997
0.10183878 -0.17088318 -0.07527377 0.0658031 0.30172232 0.15332626 -0.20725341 -0.14100124
-0.13313079 0.1654126 -0.11782826 0.11801736 0.17861442 0.15508159 0.14756636 0.20340738
0.26785973 0.04888223 0.22890337 0.16749433 0.24883911 0.2121388 0.15063395 0.11019181
0.07599866 0.17194776 0.12800187 0.36262986 0.3315284 0.38417447 -0.05566768 -0.20343736
-0.254238 0.1738476 0.079824515 -0.21882725 0.2164711 -0.16828834 -0.08024365 -0.30472088
0.14400901 0.21581176 0.18578579 -0.051135965 0.11824459 0.18574217 -0.008811584 0.18692666
-0.05564009 0.15050945 0.07897602 -0.059982345 0.28143594 0.28081807 0.10153585 0.0038589134
0.43326154 0.43553993 0.39332855 0.20358962 0.11306617 -0.054255553 -0.16818812 0.22482383
0.1249567 0.26136157 0.23013689 0.24309967 -0.16601646 -0.02908151 -0.100937694 -0.16699593
00000000: e4d5 413d 7dbe b03e 145e e63d 4488 cf3d
00000010: b7e4 a93c c5b6 2e3e b05b 483e 466d cfbc
00000020: c440 1f3e 0b00 6b3d d1e1 a73d 4f77 983e
00000030: 04f8 ce3d fd5d c33c f582 053e 5116 8a3d
00000040: 7fcd 193e 851f ec3d 2836 8d3d 32c4 f83d
00000050: 04f2 a73d 3094 673e 3b33 283e 4cf7 0e3e
00000060: bf1e 583d fd73 7c3e 8a85 77bd ad99 143e
00000070: f416 993d 02b3 f43c 7fda 383e 6982 5e3d
00000080: e38f 7b3d 44d2 703e 4399 bc3e b305 46bc
00000090: 74bc c7bd 218e 6b3e e5cd a23d fa32 343e
000000a0: 2e9e 373d c508 593e 45b8 763c 8617 873d
000000b0: caf4 ff3d 9ea4 f93d 242c 9e3b 0de2 053f
000000c0: 8e7d 37be 6479 b7bd 1ff5 523d c876 003e
000000d0: 69ca 6cbe 0877 9c3e c730 53bc 2952 a0be
000000e0: 9593 373e a098 333e 3db6 c73d daa7 fbbd
000000f0: 7dba a3bd b24a 1a3d 0c38 d53d 10e7 083e
00000100: 85f6 27be 3558 96bd 00b0 603d ecdb 093e
00000110: 4c84 253e 3f77 cf3d 713e ef3d d066 1d3e
00000120: daaa 283e d03c 8d3e 6264 e8bd 05d3 eb3d
00000130: 6471 2f3e ea2c 493c 93cd 4ebe 161e 373d
00000140: 89ba 9c3e e127 e13d 4774 713e d95c 6fbd
00000150: 7d48 fc3d e236 c43d ed85 2d3e 26ef 54be
00000160: 915a 5dbd 1c42 7b3b 57b3 0f3e bc3c 4e3a
00000170: 49bb d13d 6bfc fabc dafb 2dbd 1e51 1a3e
00000180: 0973 a93e 38c3 203e 5dae 0fbd 8f88 243e
00000190: 2321 283e 82a8 c13d ce56 123d 8ea1 1c3c
000001a0: b913 c9bd 840d 9f3b d68d 3f3e 6db6 e03d
000001b0: c13d 843e 060f 413e 5b22 3f3e a777 9e3d
000001c0: 4ff8 ed3d 3e32 5abd 8128 17be 994b cb3e
000001d0: bddf 2bbe 4c35 bcbd 866e bbbd f806 90be
000001e0: 586e 8dbd ebe2 0d3e bdb8 0c3e d7a3 643e
000001f0: 04b0 f1bd 8895 893e fdad fd3e 2798 223e
00000200: de7a b53e 3ae4 65be 6d81 6dbd e4ae d93d
00000210: 64cf a6bc 5371 113f 4f04 9b3d 82be dcbc
00000220: 0e72 5a3e a1f9 163e 8fce 1bbd 925e cfbd
00000230: 9e54 023e 67ca 0f3e a233 033e f2fe 023e
00000240: 8072 d83c 4153 f1bd 9ba2 273e 00d1 7c3d
00000250: 6acd 9d3d 11c6 313e e060 d53d 981f 4f3e
00000260: b10b d63d d363 0a3e d024 703d b7ed cd3d
00000270: 668a ffbd c727 50bd 2562 c3bd 7757 6c3d
00000280: f05e 1cbe 925e 19be 2a30 993d 09c3 d73d
00000290: 1d76 853e 0c45 57be d990 0c3e a4b8 3e3e
000002a0: cac3 ad3e 0d92 0e3e c8c9 c93d 6064 4bbe
000002b0: f8b9 333e 39c7 a13d c2fc 3c3e 921b fe3d
000002c0: d431 37be 4f2b 463e 38d7 d13e 97dc 3c3e
000002d0: 158d 20be 1031 963e c755 8c3e 737b d93e
000002e0: da90 d03d 00fc 2ebe 2229 9abd c7c3 863d
000002f0: 597b 9a3e 8f01 1d3e 3d3a 54be a162 10be
00000300: 7053 08be ec61 293e f14f f1bd 16b3 f13d
00000310: b3e6 363e b5cd 1e3e a31b 173e 064a 503e
00000320: e924 893e bc38 483d a565 6a3e a283 2b3e
00000330: aecf 7e3e ea3a 593e c93f 1a3e 3eac e13d
00000340: 2fa5 9b3d 1313 303e ec12 033e 9faa b93e
00000350: 17be a93e 84b2 c43e cb03 64bd e251 50be
00000360: 7c2b 82be 1b05 323e 097b a33d 4014 60be
00000370: 9aaa 5d3e c753 2cbe c856 a4bd 6004 9cbe
00000380: 1977 133e c2fd 5c3e a13e 3e3e f273 51bd
00000390: 382a f23d 3233 3e3e 765e 10bc b469 3f3e
000003a0: dde6 63bd 261f 1a3e 2ebe a13d 0cb0 75bd
000003b0: 5f18 903e 63c7 8f3e 07f2 cf3d d3e5 7c3b
000003c0: 75d4 dd3e 17ff de3e 5c62 c93e cc79 503e
000003d0: 3c8f e73d 123b 5ebd 8239 2cbe 3838 663e
000003e0: 4ce9 ff3d 2fd1 853e 01a9 6b3e 1fef 783e
000003f0: 3800 2abe 593c eebc 6cb8 cebd fb00 2bbe

l1.bias f4 [8]
0.3092077 0.2601589 0.5068291 0.38421544 1.0192068 0.94116735 0.44257146 0.30760008
00000000: 7950 9e3e 8c33 853e 8dbf 013f e3b7 c43e
00000010: 5e75 823f 58f0 703f ba98 e23e c27d 9d3e

l2.weight f4 [4, 8]
-0.91970885 -0.97289073 1.011971 0.98850214 -1.1316043 -0.99916947 0.92986256 -0.3560159
0.578487 0.9366718 -0.8834993 1.095804 -1.3752183 0.51409537 -1.453888 1.2227471
-1.226722 -1.4502927 -0.2535628 -0.6654819 1.3365046 1.4038652 -0.97348046 -0.6363458
1.0677316 0.81676966 -0.9750237 -0.96464825 0.42839533 -1.5560895 1.0147972 -0.70826787
00000000: 0a72 6bbf 5e0f 79bf 4488 813f 7a0e 7d3f
00000010: 69d8 90bf 92c9 7fbf 790b 6e3f b747 b6be
00000020: b917 143f b9c9 6f3f 032d 62bf 4e43 8c3f
00000030: 2707 b0bf c19b 033f 0119 babf fa82 9c3f
00000040: 3a05 9dbf 31a3 b9bf fcd2 81be 065d 2abf
00000050: 9512 ab3f dbb1 b33f 0436 79bf 8fe7 22bf
00000060: 6eab 883f d117 513f 279b 79bf 30f3 76bf
00000070: a256 db3e f12d c7bf e0e4 813f 0b51 35bf

l2.bias f4 [4]
-0.08366841 -0.47048733 0.19924787 -0.21604192
00000000: 585a abbd b7e3 f0be a207 4c3e 183a 5dbe
