train/data.pth (torch, 114744 bytes, 4 tensors)

l1.weight f4 [8, 2377]
0	0x3e4e4f64	0.20147473
1	0xbe73b10d	-0.23798008
2	0xbe513217	-0.20429264
3	0x3f07c3e5	0.53033286
4	0x3d9ced57	0.076624565
5	0x3de7d1eb	0.113193356
6	0xbd9d7aa3	-0.07689407
7	0x3c91741b	0.017755559
8	0x3e1f22ce	0.1554062
9	0x3e1a20ae	0.15051529
10	0x3dbf9b8a	0.093558386
11	0xbe166ab9	-0.14689149
12	0x3c17465a	0.009233082
13	0x3ea92e57	0.33043167
14	0x3d45b7fa	0.048271157
15	0x3e6b9756	0.23006949
16	0x3f377594	0.71663785
17	0xbe2b3a97	-0.16721569
18	0xbeca0782	-0.39458853
19	0xbe1e6d85	-0.15471466
20	0x3eaa4859	0.33258322
21	0xbe53cbbd	-0.20683189
22	0x3e3aed5a	0.18254605
23	0xbd0fcb66	-0.035106085
24	0xbd277f0c	-0.040892646
25	0xbe3369ec	-0.17520875
26	0xbeb1db31	-0.34737542
27	0x3b3111b8	0.0027018618
28	0xbe7d051a	-0.24708977
29	0x3e1873ea	0.14887968
30	0xbe215bf5	-0.15757735
31	0xbeac1d09	-0.33615902
32	0x3e50ba5c	0.2038359
33	0x3d4936cb	0.04912452
34	0xbc59c02f	-0.013290449
35	0x3d2c3981	0.042047027
36	0x3d8f156f	0.0698651
37	0x3d8f64d6	0.07001655
38	0x3d09f6b0	0.033682525
39	0x3d088c1c	0.033336744
40	0x3d9d1302	0.07669641
41	0x3d82e72f	0.06391751
42	0x3e47d59e	0.19515082
43	0x3daf25b2	0.08552112
44	0xbec710e2	-0.38880068
45	0xbd89842c	-0.06714663
46	0xbdd2e083	-0.102967285
47	0xbe15466d	-0.14577647
48	0xbc960c3b	-0.018316379
49	0xbe1dbdf6	-0.15404496
50	0x3ed9b61b	0.42521748
51	0xbe25508b	-0.16144006
52	0x3d92d56e	0.07169615
53	0xbecd27da	-0.40069467
54	0x3d85fbf0	0.06542194
55	0x3e6f16cd	0.23348542
56	0xbd89d670	-0.06730354
57	0xbe7be851	-0.2460034
58	0xbd634bd9	-0.055492256
59	0x3d9e7936	0.07737963
60	0xbeee7ce2	-0.46579653
61	0x3e0d9e77	0.13829981
62	0x3e153d98	0.14574277
63	0xbe803462	-0.25039965
64	0xbe867d53	-0.2626749
65	0xbdcee95e	-0.10103105
66	0xbe88a707	-0.26689932
67	0x3e16bbb5	0.14720042
68	0xbde1ea2e	-0.11030994
69	0x3d72e070	0.05929607
70	0xbc321b89	-0.010870823
71	0xbe6f7e79	-0.23388089
72	0xbdcf8478	-0.10132688
73	0xbdb19732	-0.08671416
74	0x3e9cf84c	0.30658185
75	0x3cb29ad5	0.021802345
76	0x3dc12469	0.09430773
77	0x3cb4ae58	0.02205579
78	0xbe37578c	-0.1790449
79	0xbded7679	-0.115948625
80	0xbe74ff60	-0.23925543
81	0x3de3a337	0.11115115
82	0xbe53469b	-0.20632403
83	0xbec4a0f9	-0.38404062
84	0xbd8079c8	-0.06273228
85	0xbdf3b48d	-0.11899672
86	0x3ebb928d	0.36635247
87	0xbc36eb21	-0.011164458
88	0xbdf5c2e4	-0.12000063
89	0xbe083d01	-0.13304521
90	0xbeaeb0b3	-0.34119186
91	0xbca27582	-0.019831423
92	0x3c0f7e3a	0.008758122
93	0x3bd83422	0.0065980116
94	0xbd9155da	-0.07096453
95	0xbebc8b69	-0.36825112
96	0xbd95c416	-0.07312791
97	0xbd7f6710	-0.062354147
98	0xbd0d5086	-0.03450062
99	0xbec1dd20	-0.37864017
100	0xbdc56ea0	-0.09640241
101	0xbcdd1256	-0.026986282
102	0xbd9b4a33	-0.07582512
103	0xbb46e5a9	-0.003034929
104	0xbe3c10eb	-0.18365829
105	0xbe20711c	-0.15668148
106	0x3f17ab4b	0.5924575
107	0xbd0fca8c	-0.035105273
108	0xbde1abb7	-0.1101908
109	0xbda22de7	-0.079189114
110	0x3e60b90d	0.21945591
111	0xbe48d92b	-0.19614093
112	0xbcee13a7	-0.029062105
113	0xbdca1e3a	-0.098690465
114	0xbda4002e	-0.08007847
115	0x3e9d6d2c	0.30747354
116	0xbe8dbe70	-0.27684355
117	0xbdd74fb7	-0.10513251
118	0xbe3ed178	-0.18634593
119	0x3eee7faa	0.46581775
120	0xbd11bbb4	-0.0355794
121	0xbd3a89b8	-0.045541495
122	0xbdb52af8	-0.08846086
123	0xbdab74a3	-0.08371856
124	0xbe442878	-0.19156063
125	0x3e9d6dad	0.30747738
126	0xbe7e800a	-0.2485353
127	0xbd92aac7	-0.071614794
128	0xbd031531	-0.03200263
129	0x3cb04a0e	0.021519687
130	0xbd6125e0	-0.05496776
131	0x3e0ea84c	0.13931388
132	0xbdbda93e	-0.09260796
133	0xbe20d701	-0.15707017
134	0xbdd5a76d	-0.104323246
135	0xbd8fe0c2	-0.07025291
136	0xbe44e432	-0.19227675
137	0xbd515d3e	-0.051114313
138	0xbe45f0a1	-0.19330074
139	0x3da2bb04	0.07945827
140	0x3f5f9dc2	0.87350094
141	0x3de2eb4e	0.11080037
142	0x3e9696e5	0.29411998
143	0xbe09d83e	-0.13461396
144	0x3e998cd8	0.29990268
145	0x3db4da63	0.088307165
146	0x3dc7ea65	0.09761504
147	0xbde74213	-0.112918995
148	0xbec60445	-0.38675132
149	0x3cc7ab4f	0.024373678
150	0x3f94cdba	1.1625283
151	0x3cf47e6e	0.029845443
152	0xbdb37bd8	-0.08763856
153	0xbd75bc35	-0.05999394
154	0x3c6ae25c	0.014336195
155	0x3e8339a3	0.2562991
156	0xbc8553d6	-0.016275328
157	0xbeb3c396	-0.35110158
158	0x3e17e82e	0.14834663
159	0xbe215af3	-0.1575735
160	0xbe1acf64	-0.15118176
161	0x3d8f709a	0.07003899
162	0xbe616112	-0.22009686
163	0xbcf8f266	-0.030389022
164	0x3eb6291d	0.35578242
165	0xbe525555	-0.20540364
166	0x3dd389ff	0.10329055
167	0x3e26664b	0.16249959
168	0xbf676207	-0.9038395
169	0xbe28e56d	-0.16493769
170	0x3d5280bd	0.051392306
171	0xbe2e0912	-0.16995648
172	0x3ea59939	0.32343462
173	0x3ec9262a	0.3928693
174	0xbe2da255	-0.16956456
175	0xbe03aebe	-0.12859628
176	0x3dce63ae	0.10077606
177	0xbd7f01db	-0.06225763
178	0x3d286b6a	0.041118063
179	0x3e7e6b58	0.24845636
180	0x3ee6ebb9	0.45101717
181	0x3e9c5808	0.30535913
182	0x3f208ea6	0.62717664
183	0x3e8665a6	0.26249427
184	0xbe98dffb	-0.29858384
185	0x3ee1b6ba	0.44084722
186	0xbe0c3190	-0.13690782
187	0x3dcb1f97	0.09918135
188	0xbe20614d	-0.15662117
189	0x3d85fea2	0.06542708
190	0x3f262dcf	0.6491365
191	0x3db0f30e	0.08640109
192	0x3ec0fb14	0.37691557
193	0xbeb68804	-0.35650647
194	0x3e3c5e9c	0.18395466
195	0x3dc6c4d4	0.09705511
196	0x3c9bbf1d	0.019012028
197	0x3ee51b10	0.4474721
198	0xbe7e7f51	-0.24853255
199	0x3e990a54	0.29890692
200	0xbdf18956	-0.11793773
201	0xbe2abfc4	-0.16674715
202	0x3e715992	0.23569325
203	0x3d9a30b8	0.075288236
204	0xbe87d9c4	-0.2653333
205	0x3f6d636e	0.9272984
206	0x3ea0bbc7	0.31393263
207	0xbf0a6f66	-0.5407623
208	0x3e6dda7d	0.23227878
209	0xbd879657	-0.06620472
210	0xbe5e0ee2	-0.21685365
211	0xbd3c4ac4	-0.04596974
212	0x3daa4ced	0.08315454
213	0x3ebd1b76	0.36935014
214	0xbe3c4ac3	-0.18387894
215	0x3e1506c4	0.14553362
216	0xbd68aa72	-0.056803174
217	0xbc93b2fd	-0.018029684
218	0x3e10ef2a	0.14153734
219	0x3dce6b9d	0.10079119
220	0x3ea93185	0.33045593
221	0x3dfdb6b1	0.12388361
222	0x3e34b837	0.17648397
223	0xbe3a00e8	-0.18164408
224	0xbe0deb2d	-0.13859244
225	0xbd46efd5	-0.048568565
226	0x3e54bac6	0.20774373
227	0xbede5688	-0.43425393
228	0x3ecf0ae6	0.40438002
229	0xbe1ab607	-0.151085
230	0x3da60094	0.08105579
231	0x3d076d34	0.03306313
232	0x3e972153	0.29517612
233	0xbd710577	-0.058843102
234	0xbce780f4	-0.028259732
235	0x3d6e3279	0.058153603
236	0x3e92fce7	0.28708574
237	0xbe06238b	-0.13099496
238	0x3d6c7777	0.057731118
239	0x3d215417	0.039386835
240	0x3d39eca8	0.04539171
241	0x3f2e974a	0.681996
242	0x3e329c13	0.1744235
243	0x3ea8f877	0.33002064
244	0xbf53a1e2	-0.8266889
245	0xbc483b3e	-0.012221156
246	0x3db06e00	0.08614731
247	0x3ecf1015	0.40441957
248	0x3d9c8337	0.07642215
249	0x3ed4f720	0.4159479
250	0x3e123431	0.14277722
251	0x3ebdb6b7	0.37053463
252	0xbd6d860e	-0.057989173
253	0x3e3096f8	0.1724509
254	0xbe268c66	-0.16264495
255	0x3eacedd9	0.33775213

l1.bias f4 [8]
0	0x3e53c703	0.20681386
1	0x3f0a9496	0.54132974
2	0x3f44a551	0.7681475
3	0x3f65069e	0.8946322
4	0x3f9deb7d	1.233749
5	0x3ef86c88	0.48520303
6	0x3f2bd59c	0.6712282
7	0x3f95ed61	1.1713067

l2.weight f4 [6, 8]
0	0xc005677d	-2.0844414
1	0x3f95d136	1.1704471
2	0xbfd385e1	-1.6525232
3	0xbf8bb81d	-1.0915562
4	0x3fec5c9f	1.8465766
5	0xbff72292	-1.9307425
6	0xbf6c65f7	-0.92343086
7	0x4000897c	2.0083914
8	0x3fb65d24	1.4247174
9	0xbfb3350e	-1.4000566
10	0x3f918285	1.1367956
11	0xbfc62ddb	-1.5482744
12	0xbfbabbb2	-1.458853
13	0xbf94df57	-1.1630658
14	0xbf832a1a	-1.0247223
15	0x3f8502e4	1.0391507
16	0x3fa63fd0	1.2988224
17	0x3fa25803	1.2683109
18	0xc0012024	-2.0175867
19	0x3faf2a19	1.3684722
20	0xc00303b6	-2.0471015
21	0xbfffd21c	-1.9985995
22	0x3f92a02d	1.1455132
23	0xbf97d4ce	-1.1861818
24	0xbff7045c	-1.9298205
25	0xc002325e	-2.0343242
26	0x3ff0a398	1.8799925
27	0x3ff6754b	1.9254545
28	0xbf57a9e9	-0.8424364
29	0x3eac89b4	0.3369881
30	0x3f9d859b	1.2306398
31	0xbf50db88	-0.8158498
32	0xbfa4997c	-1.285934
33	0x3fa9e8ee	1.327421
34	0x3f925980	1.1433563
35	0xbfc33280	-1.5249786
36	0xbffa5038	-1.9555731
37	0x3fcbc7fd	1.5920407
38	0xbfda83c2	-1.7071459
39	0x3e070f43	0.13189416
40	0x3fc8c6ac	1.568563
41	0xbf82e726	-1.0226791
42	0xbff75fee	-1.932615
43	0xc00eb981	-2.2300723
44	0x3fa0ae18	1.2553129
45	0x3fdfd62b	1.7487234
46	0x3f5323d5	0.8247655
47	0xbff16bad	-1.8860985

l2.bias f4 [6]
0	0x3f1b07a9	0.60558563
1	0xbe90bb5a	-0.28267938
2	0xbeaffd74	-0.34373057
3	0x3ef47b58	0.47750354
4	0xbeea758f	-0.45792815
5	0xbeeec22c	-0.46632516
