train/data.pth (torch, 27583 bytes, 4 tensors)

l1.weight f4 [16, 384]
00000000: d4d6 a83d 72ef f23d 8d50 1b3e 9914 24be
00000010: 905d 6a3e 182e 413e c398 06bd 9af5 0bbf
00000020: 1e37 5c3e ffaa 75be 8985 183e 8c77 c6bd
00000030: 6dcd 08bd 108c d13e 661f ea3d 7b07 9ebc
00000040: cfc8 44be 264e 433e 98da 803d 780a a1be
00000050: 8a98 a4bd 9897 e2be 61d8 223e 74da f53d
00000060: 58eb 94be da43 5abe eea4 513e 49eb e93e
00000070: 8fa7 a73e 1a13 43be 18db 9f3e aea5 b03d
00000080: 8fc7 253e d08d 0a3e 40e9 d7be fa01 58be
00000090: 82e0 b3be 954c 353f 3389 9abd 96d4 d8be
000000a0: 5b83 08bd ddf7 92bd 7628 823e 8384 0f3f
000000b0: adb6 5abe 314f 4cbc 79d5 103e a72c 2fbd
000000c0: ec19 b83e 32cd 1c3e b367 fc3d 09fc d9bd
000000d0: ebee babd c6b6 0bbf d769 71be ea49 de3e
000000e0: 8f6c 5a3e cbb0 a63d 3dd0 f43d c52a 463c
000000f0: 5b50 49be e043 813e c242 323f 9e23 f13e
00000100: 979e ab3e 89e4 1abd 6926 fd3e 25f6 793e
00000110: 5c80 40be f7ba 0a3f 9b25 e33e 38ce 98be
00000120: 4dff 713e 673a f93d 9a2c cbbe bf6b 05bd
00000130: cc29 05bf ec50 2f3e 7a90 9b3d 3393 2dbe
00000140: 4117 7bbe 1755 e8bd 7911 4bbd 8e2c f13d
00000150: 29b9 ea3e 4dd8 443e 082a bbbe f076 1abf
00000160: 3cf0 98be 78d5 a8be de7c 85bb 9132 62be
00000170: feef a73d aedc 283e 9e63 95be d5b0 56be
00000180: f60a 1e3e edf3 22bf 7fa7 a73d 1638 f93e
00000190: 99fb ca3d a1cf 7ebe 8541 f8bd c930 19bf
000001a0: 2189 9d3d 0814 c0be d45f 503d e388 fabe
000001b0: af11 d8bd 8c1d b4bd d999 c9bb 0cd4 0c3d
000001c0: f83a b9be f352 94be 0f78 b03e 4ae3 8b3d
000001d0: 1b71 0c3f c714 7cbe 9ef8 853e bcef 28bf
000001e0: 537f fa3e 4178 91be 9703 b0be 5a66 ae3e
000001f0: b018 f13e 8ef2 42be f5f0 ab3e 52b5 5f8f
00000200: 21bf 95bb ff76 ad3e d7ac 1abf 7f13 42bd
00000210: 79e6 563e fa7a e83e 5ef3 ed3d 23ba e0b9
00000220: 753c dfbe 3ecd 9ebe 1f89 0c3f da82 b8be
00000230: 34a1 5cbd 69d5 993b 9a9d 84be 7570 97bd
00000240: 41f6 c03d 3c5b a73e dfa9 e73d ecab 593d
00000250: 96b9 40bf d4f3 a63e 28a2 8c3e 9b38 00bf
00000260: bc9f c3be 2cdc e63e 03bf c63e 268b e53d
00000270: 0773 12bf d703 2bbd 5164 403e bbd1 0a3e
00000280: 4cb3 bbbd 52d2 7abe 0458 a73e a857 363d
00000290: 1260 803e 0fe6 a3be 5c62 e53d 0ef5 dd3e
000002a0: 392d 01bc 70ec 743e 6b59 81be 18c9 9b3e
000002b0: 44fe eb3e 1d0d 163f d18d f63e 7fb4 373e
000002c0: 433a 01be 2e26 4a3e dd73 443e 5d3d dc3d
000002d0: ebbc a5be 4023 98be 1316 b6be 21d5 163e
000002e0: 38f4 86bd 970a 01be 6c68 263f 7ff5 98be
000002f0: f326 70bd 5109 bdbe a0b2 e6bd 4864 5c3e
00000300: 0ebb 073f 3d0e 8bbe 1879 0e3e 1975 913e
00000310: 43c9 c4be 7a23 50bb 8b29 02be acf6 333c
00000320: 3b54 cb3d 40c2 453d 3629 c2be eb85 91be
00000330: a624 383d 4d43 023e 58ee ca3d 6b6a cbbe
00000340: 3fcd efbe cc1f aabe 4a5e 243d 0f37 923c
00000350: 6dfc 013f 3095 03bf aa79 023f d2fa 2e3e
00000360: bbd7 8dbe 3881 ba3d 90ce d9be c9de 2f3e
00000370: 8779 763e 489a a3bd 5d43 b4be 90e5 0d8c
00000380: a9a4 c7be facc 4a3d 743b d9be 71ba d0be
00000390: b362 333d 2304 64be 31c9 e73e 9c82 d1bc
000003a0: 45e4 6e3e 5e92 c43e 2756 23be 564c 593e
000003b0: 6fb1 4f3e 4c92 21be 688a d93e 2bdb 57bd
000003c0: c6a0 603e fbab f73e 6815 cbbe fd9b 9d3e
000003d0: 1f46 63be 253c b2be 4e7d aebd c7e4 983d
000003e0: 1e8e 6cbe a4bb 303f de6a 2e3e b1c6 003f
000003f0: 0e01 51be 14de bdbe ddd2 34be 23d5 3bbe
0.082441 0.11862077 0.15167446 -0.16023482 0.22887254 0.1886524 -0.03286053 -0.54671633
0.215054 -0.23991011 0.1489469 -0.096907705 -0.033399034 0.40927172 0.1143177 -0.019290676
-0.19217227 0.1907278 0.062916934 -0.314533 -0.08036907 -0.44256282 0.15902855 0.12004557
-0.29085803 -0.21314946 0.20473072 0.4568732 0.32745025 -0.19050255 0.31221843 0.08625351
0.16189407 0.1353066 -0.42170143 -0.21094504 -0.35132223 0.7081998 -0.075457 -0.4234969
-0.033328395 -0.071761824 0.25421494 0.5606157 -0.21358748 -0.012470053 0.14143933 -0.042767193
0.35957277 0.15312651 0.123244666 -0.10643775 -0.09127601 -0.54575765 -0.23575531 0.43415767
0.21330474 0.08139189 0.11953781 0.012095158 -0.1965956 0.25247097 0.69633114 0.47097486
0.33519432 -0.037815604 0.49443367 0.24410303 -0.18798965 0.54191536 0.44364628 -0.29844832
0.23632546 0.121693425 -0.39682466 -0.032573458 -0.520169 0.17120713 0.07595916 -0.16950683
-0.2452059 -0.113443546 -0.04957721 0.11776076 0.4584439 0.19223137 -0.36555505 -0.60337734
-0.29870784 -0.32975364 -0.004073723 -0.22089602 0.08200072 0.16490433 -0.29177564 -0.20965894
0.15433869 -0.6365345 0.08186244 0.48675603 0.0991127 -0.24883892 -0.12121872 -0.59840065
0.07692171 -0.37515283 0.05087264 -0.4893256 -0.10550248 -0.08794698 -0.0061523733 0.03438191
-0.36177802 -0.28969535 0.34466597 0.06830461 0.54860085 -0.24617301 0.26166242 -0.65990806
0.48925266 -0.2841206 -0.3437774 0.34062463 0.47089148 -0.1903784 0.33582273 -1.102967e-29
-0.0045699035 0.3387985 -0.6041998 -0.047381874 0.20986356 0.45406324 0.11618684 -0.00042863292
-0.43600813 -0.31015962 0.5489673 -0.36037332 -0.053864673 0.00469463 -0.2590149 -0.07394496
0.09421969 0.32686794 0.11311697 0.053142473 -0.7528318 0.326079 0.27467465 -0.50086373
-0.38207805 0.45089853 0.38817605 0.11208181 -0.5720677 -0.04175171 0.18788268 0.13556568
-0.091650575 -0.24494293 0.32684338 0.04451719 0.25073296 -0.32011458 0.11200401 0.43351024
-0.007884317 0.23918319 -0.25263533 0.3042686 0.46092427 0.5861376 0.48155072 0.17939948
-0.12619881 0.19741127 0.19184823 0.107538916 -0.32370695 -0.29714394 -0.35563716 0.1472974
-0.0658955 -0.12601696 0.65003085 -0.298748 -0.058630895 -0.3692117 -0.11264539 0.2152263
0.530198 -0.271593 0.13913381 0.2840965 -0.384348 -0.0031759427 -0.1271116 0.010984104
0.09928175 0.048280954 -0.37922066 -0.28422484 0.044956826 0.12720986 0.09908742 -0.39729628
-0.46836278 -0.33227384 0.040128984 0.01784852 0.50775796 -0.5139952 0.50966895 0.17087868
-0.27703652 0.09106678 -0.42540407 0.1717483 0.24069797 -0.07988411 -0.35207644 -1.0931326e-31
-0.38992813 0.049511887 -0.42428172 -0.40767244 0.0437953 -0.22267203 0.45270684 -0.025574975
0.23329265 0.3839292 -0.15950833 0.21220526 0.2028253 -0.15778464 0.42488408 -0.05269925
0.2193633 0.48373398 -0.3966477 0.30783072 -0.22194718 -0.34811512 -0.08519994 0.07465511
-0.23101088 0.69036317 0.17032954 0.5030318 -0.20410559 -0.37083495 -0.17658563 -0.18343024

l1.bias f4 [16]
00000000: 5057 813d 4535 8e3e f847 f83d e14f 613e
00000010: 1303 cc3e ff55 1b3f 3855 103f cbb0 883e
00000020: d9e1 873e 5a24 953e ad6c 123f 1d1b d83e
00000030: 829c f53e 6720 b43e 8792 9c3e 1f53 d23e
0.06315482 0.27775016 0.12123102 0.22003128 0.39846095 0.60678095 0.56380033 0.26697382
0.26539496 0.29129297 0.57197076 0.42208186 0.47970968 0.3518097 0.30580541 0.4107904

l2.weight f4 [7, 16]
00000000: e3f1 773f 4f5d 373f c7cf 3fbf b9f4 7c3f
00000010: 422a 1fbf 604b 53bf b5db be3e d064 6dbf
00000020: 0f73 d13c 42d4 433f 20fc 3fbf 4e80 76bf
00000030: ec43 6bbf 299a 853e c9eb b33e 0f60 ed3b
00000040: 2aa8 093f 0873 85bf 907a 7a3f e11d a0be
00000050: 936b b43e 4bf4 6f3e de9d 86bf 6b58 4abf
00000060: 72e4 59bf b5d5 61bf 0cf5 1b3f e762 7ebf
00000070: 08ec e53e cb0c 25bf e235 1e3f 291c 8abf
00000080: b93a 49be b85c fa3e c0c0 89bf 670d 2abf
00000090: a58d 573f 8e0f 863f 1dc3 673f dc76 41bf
000000a0: b933 5f3d c7d1 41bf fea2 cf3d 2a8e a3bd
000000b0: a194 2b3f 78bb 42bf ae7f 203f 1a40 33bf
000000c0: 678a 71bf 26e3 92bd bc13 14bf c954 2dbf
000000d0: 944f 97bf 7385 81bf 58d9 91bf 2da7 073f
000000e0: 7589 893f 9c2e 6a3e eb27 623f 888c 62bf
000000f0: 6a00 de3d b59a 2fbf 0945 ad3d 84f4 2bbf
00000100: b2db fbbe 6236 51bf 1755 2bbf 00ca 633f
00000110: a39f aebe 7ac5 583f fe8a 35bf f8a2 643f
00000120: 59e5 2abf bf4a 7abf 5d76 30bf 8647 3b3f
00000130: 313c 51bf 1d70 fa3e 299a 06bf 5d87 8fbf
00000140: 816c 7dbf c549 5cbf d496 5abf b605 3fbf
00000150: a7eb 8abf 25e9 c53d 1f0d 133f 2560 47bf
00000160: 7c16 8fbf 8596 1d3f cb57 5e3f 8f3b 4a3f
00000170: e599 743f 7f2b 3d3f 0011 36bf 4590 223f
00000180: 0e00 1ebf adfc 153f 4164 503f 96b0 82bf
00000190: a2de 433e b325 55bf f602 233f 24ae d33e
000001a0: cbf9 873e c41b 6cbf 9b44 86bf 130a 91bd
000001b0: 36ab 70bf 79fe 5abf c9c8 90bf 147c 683f
0.96853465 0.7162675 -0.7492642 0.9881092 -0.62173855 -0.8253689 0.37276998 -0.9273195
0.02556756 0.76495755 -0.7499409 -0.9628953 -0.91900516 0.26094177 0.35140827 0.007244117
0.53772223 -1.042573 0.97843266 -0.31272796 0.35238323 0.23433034 -1.0516927 -0.79041165
-0.85114205 -0.88216716 0.60920787 -0.99369663 0.4490664 -0.64472646 0.6180097 -1.0789844
-0.19651307 0.48898864 -1.0761948 -0.664267 0.8420051 1.0473497 0.90532094 -0.7557199
0.054492686 -0.7571072 0.1013851 -0.079861 0.67023665 -0.76067305 0.62694824 -0.70019686
-0.9435181 -0.071722314 -0.5784261 -0.67707497 -1.182116 -1.011885 -1.1394453 0.52989465
1.0745074 0.22869343 0.8834216 -0.88495684 0.10839923 -0.6859544 0.08460433 -0.67169976
-0.49191052 -0.81723607 -0.6692671 0.889801 -0.34106168 0.84676325 -0.7091521 0.8931117
-0.66756207 -0.97770303 -0.6893061 0.7315601 -0.8173247 0.4891366 -0.5257898 -1.1213185
-0.9899369 -0.86050063 -0.85386395 -0.7461809 -1.0853165 0.096636094 0.57441896 -0.7788108
-1.1178737 0.615578 0.8685271 0.7899713 0.95547324 0.73894495 -0.7111969 0.6350139
-0.61718833 0.5858868 0.81402975 -1.021014 0.19127896 -0.8326065 0.63676393 0.41343796
0.26557764 -0.92229867 -1.0489687 -0.07082 -0.9401125 -0.85544544 -1.1311275 0.9081433

l2.bias f4 [7]
00000000: 85bd 903c 233b b5be fa2d b83d 1bb7 803d
00000010: 1dbb c23e 485a 02bd fd44 a7bc
0.017668495 -0.3539668 0.08993144 0.062849246 0.3803338 -0.03182438 -0.020418638
