train/data.pth (torch, 100536 bytes, 4 tensors)

l1.weight f4 [8, 2081]
0.0125259375 -0.05103745 -0.04623303 0.23724504 -0.00325848 0.09023397 0.014473179 0.104834385
-0.0080540525 -0.13932337 -0.04267925 0.13494645 0.2018711 0.16859578 0.13745618 0.13255464
-0.362497 -0.35651383 -0.6965865 -0.61778665 -0.3428034 -0.5484594 -0.015890738 -0.6345873
-0.00095164526 -0.01029545 -0.010232077 -0.0026183953 -0.017730955 -0.00958406 0.0003006281 0.001973695
-0.37986553 0.007271651 -0.23974107 -0.03041423 -0.01177441 -0.022603286 -0.016889635 -0.36721832
-0.2869542 -0.03680221 0.11800197 -0.2947121 -0.10527334 -0.104301736 -0.02564247 0.15677819
0.015243428 -0.4809815 -0.25695726 -0.115369216 -0.3922046 0.064429164 -0.0008454807 -0.09196669
-0.34360906 0.009702234 -0.2542687 -0.21601063 -0.011837335 -0.050283417 -0.3174808 -0.0094628045
-0.4826555 -0.30758637 0.07311606 0.031137945 -0.34059498 -0.17724915 -0.55524826 -0.019522112
-0.06688651 -0.09080799 -0.0064186435 -0.6332162 -0.029360445 -0.22444978 -0.020869974 -0.3749538
-4.651883e-05 0.008442618 -0.014012873 -0.012355546 -0.088591546 -0.062286958 -0.0118038 -0.45543653
-0.15675491 0.0015560109 -0.106032744 -0.017511908 -0.048035506 0.0101892 -0.12669149 -0.37980056
0.005390191 0.0117439795 0.20161799 -0.05822428 -0.13539617 -0.01746173 -0.4964612 -0.06992738
-0.12203876 -0.05413092 -0.014987736 -0.23593011 -0.04760891 -0.102908775 -0.09624138 -0.26920614
-0.08771453 -0.018274134 -0.40643078 -0.047451045 -0.63151264 -0.060186047 -0.26179847 -0.0071171117
0.0040867818 -0.12297142 -0.017653743 0.08788102 0.063699536 -0.1882088 -0.26031774 -0.015141751
-0.47411385 -0.009008369 0.33974248 -0.024800614 -0.017857146 -0.004347213 -0.38788152 -0.016974306
-0.07565602 -0.030597625 -0.004282873 -0.0026590861 0.018676972 -0.3082693 0.0040454566 -0.056905583
-0.17050117 -0.39452314 -0.05016705 -0.14031605 0.14825545 -0.12905185 -0.020726293 -0.04088493
-0.009664745 0.107123375 -0.0120744705 -0.13998456 0.13261886 0.15240319 -0.35997906 -0.058768507
-0.40957803 -0.28529254 -0.27906272 -0.56623936 -0.010012248 -0.76738703 -0.014812281 0.21676496
-0.004493039 -0.019626848 -0.015400602 -0.17380078 0.2669796 0.08555795 0.116303965 -0.054162547
0.11995506 0.09645311 -0.013802761 -0.30702874 -0.038587537 -0.06636102 -0.104955986 0.14151852
-0.26135936 0.14371319 0.007942421 -0.0067740325 -0.122055605 0.12124959 0.012071753 -0.02172408
-0.033105094 -0.04085828 -0.12827747 0.012921475 0.00013005888 0.30611464 0.016420944 0.008156957
0.017752113 0.1504913 -0.016084325 -0.1714098 0.017965036 -0.11176513 -0.020776704 -0.0054137222
0.17314664 0.07485944 -0.0591205 0.2048181 -0.10819796 -0.009708818 -0.2713689 -0.06738683
-0.032535333 -0.0107644675 0.00314519 0.2246592 -0.19009906 0.094197005 -0.0138282245 -0.011456001
-0.020235816 -0.0017295424 -0.20929453 0.18728076 0.009992642 -0.021866139 0.14032745 -0.23128302
0.1128478 0.22305597 -0.039284304 -0.21783996 -0.14472537 -0.011656154 -0.02361376 -0.06601022
-0.04996401 0.034134783 -0.20309092 0.009792864 0.13866657 -0.19738741 -0.083565526 -0.026585398
-0.38246527 0.098498486 -0.06036381 0.11643706 -0.11753891 -0.20247643 0.0713194 -0.06996821
00000000: 9739 4d3c a50c 51bd d85e 3dbd 5df0 723e
00000010: 398c 55bb 96cc b83d ea20 6d3c 69b3 d63d
00000020: 25f5 03bc c9aa 0ebe 70d0 2ebd 672f 0a3e
00000030: 4cb7 4e3e 5fa4 2c3e 50c1 0c3e 67bc 073e
00000040: 3599 b9be fb88 b6be 7e53 32bf 4427 1ebf
00000050: ed83 afbe d667 0cbf 4b2d 82bc 5074 22bf
00000060: d577 79ba 3fae 28bc 71a4 27bc 6299 2bbb
00000070: 8240 91bc 7606 1dbc 9f9d 9d39 1b59 013b
00000080: bc7d c2be 0847 ee3b af7e 75be 4327 f9bc
00000090: 74e9 40bc 872a b9bc 225c 8abc 0a04 bcbe
000000a0: a9eb 92be eabd 16bd 04ab f13d 81e4 96be
000000b0: 8d99 d7bd 269c d5bd 2810 d2bc 768a 203e
000000c0: 92bf 793c 3543 f6be e78f 83be b246 ecbd
000000d0: 0bcf c8be 70f3 833d 40a3 5dba 0859 bcbd
000000e0: 87ed afbe 1ef6 1e3c 822f 82be e431 5dbe
000000f0: 62f1 41bc fcf5 4dbd d88c a2be e109 1bbc
00000100: 9f1e f7be f67b 9dbe dfbd 953d 0115 ff3c
00000110: 7762 aebe cd80 35be c024 0ebf d6ec 9fbc
00000120: cbfb 88bd 8af9 b9bd 7c53 d2bb 751a 22bf
00000130: 5185 f0bc 2ad6 65be 82f7 aabc f2f9 bfbe
00000140: 371d 43b8 e852 0a3c 4096 65bc ea6e 4abc
00000150: 7c6f b5bd 9c20 7fbd ba64 41bc fa2e e9be
00000160: 5c84 20be 10f3 cb3a b227 d9bd 2275 8fbc
00000170: e1c0 44bd 9af0 263c 6abb 01be 3875 c2be
00000180: 33a0 b03b d269 403c f274 4e3e 957c 6ebd
00000190: 4ba5 0abe e70b 8fbc 2a30 febe 1636 8fbd
000001a0: 75ef f9bd 62b8 5dbd 1f8f 75bc aa97 71be
000001b0: 8f01 43bd d6c1 d2bd 331a c5bd 63d5 89be
000001c0: ada3 b3bd a3b3 95bc b217 d0be 075c 42bd
000001d0: d0aa 21bf a585 76bd 730a 86be a936 e9bb
000001e0: 69ea 853b 71d8 fbbd 959e 90bc f7fa b33d
000001f0: e774 823d cfb9 40be 5e48 85be 1b15 78bc
00000200: 0dbf f2be d797 13bc baf2 ad3e a82a cbbc
00000210: 2649 92bc 1173 8ebb 6898 c6be b30d 8bbc
00000220: 8bf1 9abd dfa7 fabc 5857 8cbb 1044 2ebb
00000230: 7300 993c 79d5 9dbe c08f 843b d415 69bd
00000240: dc97 2ebe f0fe c9be f77b 4dbd 03af 0fbe
00000250: 47d0 173e 2b26 04be 30ca a9bc f576 27bd
00000260: e158 1ebc 8063 db3d 00d4 45bc 1d58 0fbe
00000270: 3dcd 073e 950f 1c3e 2d4f b8be 3fb7 70bd
00000280: 36b4 d1be dd11 92be 4fe1 8ebe 10f5 10bf
00000290: 690a 24bc 7a73 44bf 36af 72bc a2f7 5d3e
000002a0: 583a 93bb 7cc8 a0bc ce52 7cbc d5f8 31be
000002b0: 8db1 883e 0239 af3d c630 ee3d 8cd9 5dbd
000002c0: 00ab f53d 3589 c53d fa24 62bc df32 9dbe
000002d0: f70d 1ebd 49e8 87bd 2af3 d6bd 3bea 103e
000002e0: e5d0 85be 8d29 133e ee20 023c b4f8 ddbb
000002f0: 4af8 f9bd b451 f83d 9ac8 453c b3f6 b1bc
00000300: 3599 07bd 035b 27bd 2b5b 03be 98b4 533c
00000310: 6a60 0839 0fbb 9c3e 3785 863c c2a4 053c
00000320: e16c 913c 641a 1a3e 46c3 83bc 0d86 2fbe
00000330: 692b 933c 1ee5 e4bd e833 aabc 9865 b1bb
00000340: 5a4d 313e e84f 993d 5628 72bd d6bb 513e
00000350: e496 ddbd bc11 1fbc ddf0 8abe 1b02 8abd
00000360: c543 05bd 735d 30bc 881f 4e3b 100d 663e
00000370: 54a9 42be 5cea c03d c78f 62bc f3b1 3bbc
00000380: 95c5 a5bc d0b1 e2ba 4e51 56be 87c6 3f3e
00000390: 2eb8 233c 9e20 b3bc 00b2 0f3e 75d5 6cbe
000003a0: bf1c e73d c968 643e 94e8 20bd 7011 5fbe
000003b0: e332 14be 74f9 3ebc a571 c1bc 5e30 87bd
000003c0: 10a7 4cbd ead0 0b3d 11f7 4fbe 4072 203c
000003d0: 9cfe 0d3e ed1f 4abe 6724 abbd 9fc9 d9bc
000003e0: 7dd2 c3be 93b9 c93d 0b40 77bd 8e76 ee3d
000003f0: 3db8 f0bd fb55 4fbe e80f 923d 7e4b 8fbd

l1.bias f4 [8]
0.8527505 0.6537707 1.011658 0.57654065 0.838767 0.50545496 0.40239847 1.0575198
00000000: db4d 5a3f 845d 273f 027e 813f 2b98 133f
00000010: 6fb9 563f 7f65 013f 2c07 ce3e cf5c 873f

l2.weight f4 [5, 8]
-1.4122051 -0.88170844 -0.2352479 -0.87031525 -1.4787291 1.4288511 -1.1058031 1.1744614
-1.0962992 1.544266 1.2383959 -1.437901 -1.3627037 -1.1368282 -1.3134451 -1.6781851
1.0630146 -1.1218017 -0.16325346 0.07719742 1.5911793 -2.3560243 -1.5761214 1.3325992
-1.3852351 0.8922992 -1.4976251 1.1992978 -1.5467283 -1.369443 0.87452495 0.08591435
1.1262517 -1.2283094 -1.2768519 0.048306216 0.8604468 1.798161 1.2188466 -2.2336614
00000000: 23c3 b4bf a5b7 61bf d3e4 70be fbcc 5ebf
00000010: ff46 bdbf 98e4 b63f f58a 8dbf c054 963f
00000020: 8853 8cbf 82aa c53f c283 9e3f 240d b8bf
00000030: 136d aebf 9683 91bf f81e a8bf c5ce d6bf
00000040: dd10 883f 3397 8fbf ea2b 27be ae19 9e3d
00000050: c3ab cb3f 1ac9 16c0 59be c9bf 9c92 aa3f
00000060: 624f b1bf b86d 643f 2eb2 bfbf 9782 993f
00000070: 31fb c5bf e949 afbf dee0 5f3f ddf3 af3d
00000080: 0429 903f 3e39 9dbf e26f a3bf bddc 453d
00000090: 3e46 5c3f 242a e63f 2a03 9c3f 4ff4 0ec0

l2.bias f4 [5]
-0.4476027 0.7237083 0.14306474 0.12538677 -0.004084868
00000000: 2e2c e5be f244 393f 907f 123e 6465 003e
00000010: 5bda 85bb
