train/data.pth (torch, 27583 bytes, 4 tensors)

l1.weight f4 [16, 384]
000000 c7 9d f2 3d 99 67 c0 be a7 47 55 3d 7e 7f 95 bc
       0.118465 -0.3757904 0.052070286 -0.01824927
000010 2b 54 81 be a7 7e 8b bd 75 8c a2 3e 95 34 71 3e
       -0.25259528 -0.068112664 0.31747785 0.23555215
000020 50 08 7c 3e 8f 95 8d bd 72 46 40 be 6f 8a 0b 3d
       0.24612546 -0.06913292 -0.18776873 0.034067567
000030 30 63 6a be 24 3a d5 bb 1d 64 3a be 7b f7 68 bd
       -0.228894 -0.006507175 -0.18202253 -0.05687664
000040 45 93 80 be cc 61 84 b7 e7 cb 24 be ce 34 8a be
       -0.25112358 -1.5781166e-05 -0.16093408 -0.26993412
000050 37 db 92 bc 7d 20 e5 3d 53 aa a1 3e 8b 2b 7e 3e
       -0.017926795 0.11187837 0.3157526 0.24821298
000060 9e f4 6c be 5f c7 fd 3e 8a cb fa 3c 5f 92 05 3f
       -0.23140189 0.4956617 0.030614633 0.5217647
000070 89 b3 fc bd 3d 75 fd be a1 00 f5 3e 41 30 8d 3e
       -0.12338931 -0.49503508 0.47852042 0.27575877
000080 10 8d 0d 3f 69 f1 09 be 09 4c af 3e fa e9 1f 3f
       0.5529337 -0.13470997 0.34237698 0.62466395
000090 b0 f1 3e be 82 3b 89 bd 85 4a c0 3d 3f d7 d1 bd
       -0.18646884 -0.06700803 0.093892135 -0.10246133
0000a0 b8 45 30 3d 85 cb 0b 3d 7a ea 8f be a2 dd 11 3e
       0.04303524 0.03412964 -0.2810858 0.14244702
0000b0 56 9a 34 be 2d 14 b7 be b9 53 7e be db 69 21 be
       -0.17637 -0.3575758 -0.24836625 -0.15763037
0000c0 65 b6 d0 3e 1d 54 be 3e 9b 9f ec be 0f 9c 6a be
       0.40764156 0.37173548 -0.4621552 -0.22911094
0000d0 76 0a 22 be 36 a8 3c bf 1e 20 3a be 88 cd c4 3e
       -0.15824303 -0.7369417 -0.18176314 0.38438058
0000e0 1f ee 6a be d3 3f 8c bd 89 42 4e 3e 9f e4 2c be
       -0.22942398 -0.06848111 0.20142569 -0.16884087
0000f0 6a 28 2c bd 51 30 62 3e cc e5 57 bd c5 c5 6a be
       -0.04203073 0.22088744 -0.052709386 -0.22927006
000100 7a 17 be 3d 02 af 8b 3e 1f 6e 4a be 19 91 22 3f
       0.092818215 0.27281958 -0.1976857 0.6350265
000110 6b 89 c6 3d 1f c1 c0 3c 2c cc f1 be ff 56 d3 3e
       0.09694179 0.023529587 -0.47226083 0.4127731
000120 cc ff 4c be 21 4d 3d 3f 96 b5 7e be fb d7 dd 3d
       -0.20019454 0.73945814 -0.24873957 0.10832211
000130 70 09 ae be 1f a2 41 3d a8 37 4d 3d ca 07 05 bd
       -0.33991575 0.04727375 0.050101906 -0.03247813
000140 fe 87 b7 3e 36 71 3c be 3d 05 12 3e 94 07 8e 3e
       0.3584594 -0.18402562 0.14259811 0.27740157
000150 ae 77 0e 3e 0d 0d e4 3e 55 28 04 3f 4c cc 05 3e
       0.13912842 0.44541207 0.5162404 0.13066214
000160 9a 4a 59 3e cf 5f 8e be 0a 99 de be 8a 49 bf be
       0.21219864 -0.2780747 -0.43476135 -0.37360793
000170 76 17 d7 3e a8 0c 43 3c 3a 0b a6 3d 82 f8 91 bc
       0.42010087 0.011904873 0.0810761 -0.017818693
000180 00 77 5f 3d c2 53 4d be 7d 21 9c bd 6f 8b 2d 3f
       0.054556847 -0.20051482 -0.07623575 0.67790884
000190 3d a2 92 be e7 2b fe 3e 18 9e ae be 53 36 9e be
       -0.28639403 0.4964287 -0.3410499 -0.3090082
0001a0 41 78 0a 3d 6f d7 36 be d2 d1 4d bd 2e 29 4d 3e
       0.03380609 -0.17855619 -0.05024893 0.2003524
0001b0 d7 70 db 3d c2 03 a6 be 85 8a 9f 3e 3a 19 d4 be
       0.10714882 -0.32424742 0.3116037 -0.41425496
0001c0 a1 58 f9 be b4 98 b2 bd 46 3f 05 3f c4 65 98 be
       -0.4870043 -0.08720532 0.5204967 -0.2976514
0001d0 90 0a fd bc 99 8a ca 3e 01 a8 ff 3e 7d 04 e6 bd
       -0.030888826 0.39558867 0.49932864 -0.11231325
0001e0 ce 83 b0 3e c0 9e ad be 78 ba 36 bf 42 d8 7e 3e
       0.3447556 -0.3391018 -0.7137828 0.24887183
0001f0 97 42 01 bf bf 2b 9d be 78 b7 f3 3e 35 4f bf 0e
       -0.50492233 -0.30697438 0.47600913 4.716141e-30
000200 a8 02 03 3f 7a a2 e3 bd 4a b3 47 3d 4f e5 d4 3e
       0.5117593 -0.11114974 0.048754968 0.415812
000210 c6 e3 c0 3e 4d bc 79 be 1e 91 6f be d0 48 93 be
       0.37673777 -0.24388237 -0.23395202 -0.2876649
000220 75 14 14 bf b5 c5 2b bd 4d 33 9d 3e 11 d1 15 be
       -0.57843715 -0.041936595 0.30703202 -0.14630534
000230 f9 48 74 3d 73 9d 2e be 9f 72 9c 3b 3e 7a 1a bd
       0.059639905 -0.1705225 0.004774406 -0.037714235
000240 e4 3e c4 3d ae 18 aa 3e 23 fb 93 3d 5e fe e8 be
       0.09582308 0.33221954 0.07225635 -0.45506567
000250 14 3a bd 3d cc 0b a1 be 91 7f 31 3e c3 eb 35 3e
       0.09239593 -0.31454313 0.17333819 0.17765717
000260 82 e6 3d 3e 16 a3 87 3e 48 d5 b5 3e 5a 44 0a bf
       0.18544963 0.26491612 0.35514283 -0.54010546
000270 50 ad e8 3c fd d9 21 bf c8 c7 e6 3e a2 45 d0 be
       0.028402954 -0.6322325 0.45074296 -0.40678126
000280 ca ab 0e 3e bf de 13 bf c7 48 38 bd 5a bc 01 be
       0.1393272 -0.5776176 -0.04499128 -0.12669507
000290 c1 f2 dd be 6c 1d 0e bd cc 2a d7 bd f2 b0 48 be
       -0.4334927 -0.034696028 -0.1050621 -0.1959875
0002a0 c4 39 77 be c2 65 13 be 00 63 04 bf 02 b2 57 be
       -0.2414313 -0.14394286 -0.5171356 -0.21063998
0002b0 09 e2 cf 3e e0 c4 92 3d 2f f7 20 3e 27 95 76 3e
       0.4060214 0.07166457 0.15719293 0.24080335
0002c0 e9 a9 0f 3f 05 6d 99 bc ca cd 0f bd ea d6 26 be
       0.5611864 -0.018728742 -0.035108365 -0.1629292
0002d0 93 0e e1 be e4 1a 19 be 56 f7 8a be 94 33 d6 be
       -0.43956432 -0.14951664 -0.27141827 -0.41836226
0002e0 c3 9e 5e be 23 07 cc be c1 9c 82 3c 14 8e b2 be
       -0.2174025 -0.39849195 0.015943887 -0.34874022
0002f0 6e 06 a4 3e 72 34 83 bd ad 5b f0 be 14 49 fc bd
       0.32036155 -0.064064875 -0.46944943 -0.12318626
000300 55 c2 2d be d7 92 4b be 23 64 eb 3d 17 3e 6c be
       -0.16968663 -0.19880234 0.11493709 -0.2307056
000310 66 5a f1 3e 53 3e 28 be 65 6d 2e bf 61 92 b7 3d
       0.4713928 -0.16430025 -0.6813567 0.089634664
000320 9a 7f f4 3d 37 9e b5 be c8 91 02 bf 3f 76 b7 3e
       0.119384006 -0.3547227 -0.51003695 0.35832402
000330 4e 49 14 be e5 b9 4f be 76 6c 3e be d5 62 c3 be
       -0.14481089 -0.20285757 -0.18596062 -0.3816134
000340 4c ef b3 3e 3f 56 cc be c7 a9 14 be db 1e 8f be
       0.35143507 -0.3990955 -0.1451789 -0.27953228
000350 8a 40 d9 3e 3b b7 a6 be b8 e0 23 3e 5a 7d 4d be
       0.42432052 -0.3256167 0.16003692 -0.20067349
000360 f4 e8 bf bd cd 10 b8 3e 87 ae 14 bf 15 25 12 3e
       -0.09370604 0.35950318 -0.5807881 0.14271958
000370 27 c1 79 3e 37 37 a9 bd 3c c3 09 be 33 fe b2 8e
       0.24390088 -0.082624845 -0.13453382 -4.4125173e-30
000380 fa 03 99 3e b3 3d 26 be cd 3d 3e be dd fa 94 be
       0.29885846 -0.16234474 -0.18578263 -0.29097643
000390 26 a2 3a 3e a0 eb b9 3d 41 66 fb bd e7 7a be be
       0.18225917 0.09078145 -0.12275363 -0.37203142
0003a0 5b 6f 91 bd 1a f4 09 3f a0 9c 60 be 6a 88 58 3e
       -0.071013175 0.53888094 -0.21934748 0.21145788
0003b0 bc f5 02 3f 6a 8d 39 bd e7 d7 f2 3e 57 0f 85 be
       0.5115621 -0.04530088 0.47430345 -0.25988266
0003c0 b0 1b 46 3f bf 70 e2 3e 22 26 17 bf 61 97 92 3e
       0.77386 0.44226643 -0.5904256 0.28631118
0003d0 0e c2 d9 be dc b5 07 be b5 b1 20 3e 80 88 5d 3e
       -0.42530864 -0.13252968 0.1569279 0.21634102
0003e0 cf 36 23 3d c8 a9 5c bd cd d8 92 3e a0 7c 2d 3e
       0.03984719 -0.053872854 0.2868103 0.16942072
0003f0 67 69 02 3f 0b de 9f be 25 8d b0 3d 58 db ab 3d
       0.5094208 -0.31224093 0.08620671 0.08391446

l1.bias f4 [16]
000000 51 02 b8 3e 60 fd f6 3e 05 4d 1a 3f 37 55 15 3f
       0.35939267 0.48240185 0.6027377 0.5833315
000010 4b 17 e7 3e f4 6f de 3e 2b 23 28 3e 41 50 00 3f
       0.4513496 0.43444788 0.16419666 0.5012246
000020 c0 58 23 3e 39 28 bb 3e f3 70 93 3e 96 a3 cc 3d
       0.15951824 0.36554125 0.2879711 0.09992139
000030 1d e1 5e 3e 37 53 92 3e 0d 2f a9 3e dd c9 52 3e
       0.21765561 0.28579113 0.3304371 0.20584817

l2.weight f4 [7, 16]
000000 7c 58 a6 be 76 00 e7 3e fd cd 18 bf 7d c9 a5 bf
       -0.32489383 0.4511754 -0.59689313 -1.2952114
000010 01 c9 3b 3e c4 46 ce 3d 91 23 38 3f 94 3f 86 bf
       0.18338396 0.10072091 0.7192927 -1.0488153
000020 4b ea 95 3f 84 03 a7 3e e2 88 7f bf 42 d7 32 3f
       1.1712126 0.3261987 -0.9981824 0.6985971
000030 e3 68 31 3f 6c 87 40 3f 21 69 64 be 42 a8 84 3e
       0.6930067 0.7520664 -0.22305728 0.2590962
000040 8e 65 88 3e 23 3f 93 bf fd 85 4e 3f b6 ab 6e bf
       0.2663998 -1.1503643 0.806732 -0.9323076
000050 95 3b 5d 3f 2b 46 74 bf 0b 16 74 bf 7f bf 9c bf
       0.8641904 -0.9541957 -0.95346135 -1.224594
000060 48 5c 3c bf 9a ae 92 bf 95 a5 fa be d2 fb 3d bf
       -0.7357831 -1.1459534 -0.48954454 -0.7421237
000070 cc ce 31 bf c0 b5 9a bf 72 0e 3d bf f7 92 65 3f
       -0.6945617 -1.2086716 -0.73850167 0.89677376
000080 d4 ff 11 3f dc c4 90 3e f7 3f ed 3e 0f 38 1d 3f
       0.5703099 0.28275192 0.46337864 0.61413664
000090 81 e7 a3 be 2e 82 62 3f 80 4b d0 be 63 12 bc be
       -0.3201256 0.8847989 -0.40682602 -0.36732778
0000a0 f3 40 b7 bf 59 01 90 3f e8 7e 87 bf 74 f7 5c bf
       -1.4316696 1.1250411 -1.0585604 -0.86315084
0000b0 39 9a 6c bf 2d da f3 3d c4 0c 25 bf ca 81 91 be
       -0.92422825 0.11906848 -0.64472604 -0.28419334
0000c0 c9 f0 47 3c 71 21 86 be a7 16 9b 3e c4 1d 15 bf
       0.012203404 -0.2619739 0.3029072 -0.58248544
0000d0 cc 18 93 bf 46 ca 80 bf cb 18 a2 3f a3 da 80 3f
       -1.1491942 -1.0061729 1.2663816 1.0066723
0000e0 9b 07 51 3e f7 71 a8 bf df 1c c4 bd b3 89 19 bf
       0.20413058 -1.3159779 -0.09575819 -0.5997574
0000f0 dc 87 a6 bf 17 ac 2c bf 19 f2 ae be 0e 30 2a bf
       -1.3010211 -0.6745009 -0.3416908 -0.66479576
000100 46 47 93 bf 2c 57 c3 be 6e 2e 4c bf 65 99 0d 3f
       -1.1506126 -0.38152444 -0.79758346 0.55312186
000110 80 56 89 bf 59 86 27 3f 5f ee 8c bf c6 cf 69 be
       -1.0729523 0.65439373 -1.1010245 -0.22833166
000120 62 9a 2e bf 13 b9 c7 3d 34 f6 2f 3f 22 68 4d 3f
       -0.6820432 0.09752097 0.6873505 0.8023702
000130 3f 4c f8 3e a8 0e aa bf a0 b0 18 3f a3 3b 2a 3f
       0.4849567 -1.3285723 0.5964451 0.6649725
000140 74 50 5d bf 59 a8 46 3f 65 9d 65 3e 37 b5 1c 3f
       -0.86450887 0.7760063 0.22423322 0.6121401
000150 68 40 4a 3f 2e 19 44 bf b1 ec 5c bf 7b 53 d9 3e
       0.79004526 -0.7660092 -0.8629866 0.42446503
000160 23 6d 2c 3f 62 68 80 bf 48 2c 76 3d 48 de 9a bf
       0.6735403 -1.0031855 0.060100824 -1.2099085
000170 1c 8c 22 3f 32 4e 31 bf 1f 3c fb 3e bc 16 bc bf
       0.6349504 -0.6925994 0.49069306 -1.4694438
000180 54 5d 7e 3f 96 93 8f bf a2 48 6b bf 80 32 84 bf
       0.9936116 -1.1216915 -0.91907704 -1.0327911
000190 c0 b5 4c bf cd e2 99 bf af 1f 85 bf a3 6b 39 3f
       -0.7996483 -1.2022339 -1.0400294 0.72429866
0001a0 c0 af 1d bf 1e 77 17 be 13 a7 7d 3f e6 28 37 3f
       -0.615963 -0.14791533 0.9908306 0.7154678
0001b0 fe 9d e2 3b d9 af 0d 3f b8 c4 77 bf 08 ef 2a bf
       0.006915807 0.5534645 -0.96784544 -0.6677098

l2.bias f4 [7]
000000 6d 0d f6 bd 69 09 20 3d 06 54 86 3e 95 3e d5 bd
       -0.120142795 0.039071474 0.2623598 -0.10412327
000010 e2 a9 c6 bd 91 cd 0d 3e fc da ef bd
       -0.09700371 0.13847949 -0.1171169
