train/data.pth (torch, 83384 bytes, 4 tensors)

l1.weight f4 [8, 1724]
00000000: 77a6 cd3d c857 d33d 6360 8c3e 690f db3d
00000010: e51d 373e 69bf 80be ec8d 7e3e 544f 9d3e
00000020: 65e3 203f c70c 8b3e 094a 68bd e227 7fbd
00000030: 07fc 02be 67c0 9a3d 6b7f 4f3c 832d aabd
00000040: 087e 11be f4f4 543d a689 c13d b2e7 df3c
00000050: 6e4d e83d d0ae 8c3d 88e0 c23c d164 c03d
00000060: 3f68 923d 3ca7 2dbd 45cb 05be 1d7b 2abd
00000070: 1b53 1b3e 5202 6cbe a1fe 083e a09b b03e
00000080: d1aa 0a3d f9c8 b0bd 2b5a 853d cace 90bd
00000090: 2725 113e 6350 693b 342a 8abc 3463 483e
000000a0: 02ef 6cbc fb51 1ebd 1e80 d13c f388 1dbd
000000b0: 6d26 a6be 8322 09be 3bec 323e 7451 8b3d
000000c0: a315 22bd 606c 43be 0ff5 fe3d 117a 5b3d
000000d0: a61e 4abe 7057 6fbe 264b 2fbe f53d 5f3d
000000e0: 94e7 953c 0fa5 9d3d 2425 853d d21a d23c
000000f0: 46a3 1e3d 63d4 1f3d 3538 d33c f111 63be
00000100: 2af1 ae3d e9f8 3f3d ca18 7f3e 59ca a43c
00000110: 032e 073e 5939 653d b172 c13d 1319 633d
00000120: 1ced 963d d946 b33d 5a3a 323c 3063 083d
00000130: 56fa 1a3e cf41 bf3d 7b49 6bbd 7f0b aa3d
00000140: 9a04 4d3d 7b40 393e bd5a 9b3d 2198 0dbc
00000150: 79ee 523d deb9 a73d 4955 73be e4c9 863d
00000160: 9f23 a73d 91c5 c43d 6f9c 0f3e 2172 293d
00000170: 4e5a 08bd 812c 27bc cbc6 253e e18f 943d
00000180: 7bd4 7b3d da44 a93d 8d35 623d ba72 d9be
00000190: e501 cebd b3b0 7abe 5996 a43c 54d6 203d
000001a0: d4c8 613e 4638 b83d c073 ce3d 4dfd 613e
000001b0: 29bf 813d 2804 e9be 764e 113e 47b4 bf3c
000001c0: 80d5 dcbb 1e9b 35bc 2ecb e23b b51c 673d
000001d0: 1369 133d be6e a83b e1da bbbe 35e1 4cbe
000001e0: bfa6 cebd 2cf5 46be e54d e6bd 85c7 6fbe
000001f0: 134e 4dbe bde8 5e3e d081 853d b89a 89bd
00000200: fb77 51be fdcf 9fbd 8391 943d 9358 afbe
00000210: 16c7 30be 42df 0fbe 4d56 c1be 423f fbbc
00000220: 3fd2 1abe ce7f babe 5374 a33e 69d1 fe3a
00000230: f15e aebb 69c7 a13d c1d3 be3e 6f37 363e
00000240: 1168 b1be e60c 2a3e e280 eb3d bb7b 1b3e
00000250: aee5 b8be 76fe 08bd 5172 be3d 7971 05be
00000260: c4e1 063e 1b1d 0f3d e7cf a13e c550 bd3d
00000270: 9e07 64bb a042 383e 6025 96bc 561c 593c
00000280: 359c 18be 64bc 1cbe 0b3e b53d 2c3c b0bb
00000290: cb45 173f 6f86 473e a242 7e3c 1ccf 113e
000002a0: 3fdd 4fbe d406 6e3c e5c5 44be b249 193e
000002b0: ce2e 9fbe 0d53 e5bc acb1 ef3d 3779 113e
000002c0: 8bc9 aabd 38e4 adbd 7b5e e6bd 6c8f e0bc
000002d0: c800 063d 22fd b9bd e75f 723e 4abb 13be
000002e0: 2afb 0d3e d0b9 0e3b a896 d13b b38a 7ebc
000002f0: cf79 173e d5c8 7e3e 29ea 163e 6b7b 90be
00000300: f330 583e 962a 853e bab1 973d ec13 f33c
00000310: d3f9 673d 13f5 6a3c 011e 7abe 3133 983c
00000320: 5167 ddbd 55d1 89bd a6f7 243d 2af1 e53a
00000330: 01d8 4e3d 2203 2fbe 1559 6d3d b0ba a7bd
00000340: 98b5 333e 0c95 173d 475f 8f3e a62e 07bd
00000350: 8b82 58be de78 d43d 7db6 7bba 571f bdbd
00000360: 9090 3fbe c784 c1be 0e97 51be 5e0b 4abc
00000370: c7f4 433e 7239 9dbe 502d 583e 5830 913d
00000380: 4c8b 8c3e e429 30be 1cf3 9bbd a7b9 8a3e
00000390: 2295 ab3d cb54 e43d d801 c03d 8927 5dbe
000003a0: 321d c43e 6bb7 033e d724 6a3e e70c 143e
000003b0: 520c 00be ed96 213e e8c3 ffbe 0bec 95bc
000003c0: b13f 41bc 0263 a43d 8ad4 fabd b8fd 27be
000003d0: 7a54 9dbc 2d6a 423e 0a44 8c3d 4300 09bd
000003e0: af3e 3cbd faa3 523e 0c07 873e 7ac0 503c
000003f0: 8824 613e 1753 3d3d 6f69 033e df19 43be
0.10041516 0.10319477 0.27417287 0.10696299 0.17882498 -0.25146034 0.24858826 0.30724585
0.62846977 0.27158186 -0.05671123 -0.062293895 -0.12791453 0.07556229 0.012664656 -0.08309462
-0.14208233 0.051991418 0.094500825 0.02733216 0.113428935 0.0686928 0.023788705 0.09394229
0.071487896 -0.042395815 -0.13065822 -0.041621316 0.15168421 -0.2304776 0.13378383 0.34493732
0.03385431 -0.086320825 0.06511339 -0.07070692 0.14174329 0.0035600893 -0.016865827 0.19569093
-0.014461281 -0.0386524 0.025573786 -0.038460683 -0.32451192 -0.13392071 0.17472927 0.06802645
-0.039571416 -0.1908431 0.12449085 0.05358321 -0.19738254 -0.23373199 -0.1711851 0.054502446
0.018298902 0.07697498 0.06501225 0.025647555 0.03872993 0.039020907 0.025783638 -0.22174813
0.08542092 0.04686824 0.249118 0.020116018 0.13201146 0.055962894 0.09445704 0.055443835
0.07369444 0.087537475 0.01087817 0.033297718 0.15134558 0.09338724 -0.057443123 0.08302974
0.050053217 0.18091004 0.07585666 -0.008642227 0.051496956 0.08189748 -0.23763002 0.06581476
0.08161091 0.09607995 0.14024518 0.041368607 -0.033289246 -0.010203482 0.16189115 0.07254005
0.061481934 0.082650855 0.05522685 -0.42470342 -0.10058955 -0.24481468 0.020091223 0.0392669
0.22049266 0.08995108 0.10080671 0.22069283 0.06335289 -0.45510983 0.14190087 0.023401393
-0.0067393184 -0.011084346 0.0069211936 0.05642386 0.03598888 0.0051401546 -0.3669043 -0.20007785
-0.10090398 -0.19429463 -0.11245326 -0.23415954 -0.20049314 0.2176847 0.065189004 -0.067189634
-0.20455925 -0.078033425 0.07254317 -0.34247264 -0.17263445 -0.1405001 -0.37761155 -0.030669812
-0.15119265 -0.36425632 0.31924686 0.0019441071 -0.0053213765 0.078993626 0.3727093 0.17794584
-0.3464971 0.16606483 0.11499192 0.15183918 -0.36112732 -0.033445798 0.09299148 -0.13031568
0.1317206 0.034939867 0.3160393 0.09243921 -0.003479458 0.17994165 -0.018328369 0.013251385
-0.14903338 -0.1530624 0.088497244 -0.005378267 0.5909087 0.19484876 0.015518816 0.14239162
-0.20299242 0.014527995 -0.19216116 0.14969519 -0.31090397 -0.027993703 0.1170381 0.14206396
-0.083392225 -0.08490795 -0.112484895 -0.027412139 0.03271559 -0.090814844 0.23669396 -0.14426914
0.13865343 0.0021778233 0.0063961335 -0.015535998 0.1479256 0.24881299 0.14737763 -0.2821916
0.21112423 0.26009053 0.074069455 0.029672585 0.056634735 0.014340657 -0.24425508 0.018579097
-0.10810722 -0.0672938 0.04027524 0.0017543186 0.050498966 -0.17091039 0.057946283 -0.08189905
0.17549741 0.037007377 0.28002378 -0.03300347 -0.21143548 0.10374616 -0.0009602083 -0.09234493
-0.1870749 -0.37796614 -0.20467779 -0.012331812 0.19136344 -0.3070789 0.21111035 0.07089299
0.27450025 -0.1720348 -0.07614729 0.27094766 0.08378054 0.111489855 0.09375352 -0.21597113
0.38303524 0.12862937 0.22865616 0.14458047 -0.125047 0.1578023 -0.49954152 -0.01830103
-0.01179497 0.08026697 -0.1224757 -0.1640538 -0.01920532 0.18985815 0.06848915 -0.033447515
-0.045958217 0.20570365 0.26372564 0.0127412025 0.21986592 0.04622182 0.12833188 -0.19052838

l1.bias f4 [8]
00000000: d93f 683f f612 693f 9ff2 7d3e 4389 8f3e
00000010: c6a1 463f 3a80 203f bdb4 163f 92ab 863f
0.90722424 0.9104456 0.24799584 0.2803441 0.77590597 0.6269566 0.58869535 1.0521109

l2.weight f4 [5, 8]
00000000: a706 7ebf e039 c93f 4615 71bf c913 7ebf
00000010: c7d1 8fbf ffd5 8cbf 411a 7cbf 2437 97bf
00000020: 190f acbf 78c0 8fbf c226 b13f 08e1 983f
00000030: cea6 883f fee6 b73f b2f2 2dbf 8490 d1bf
00000040: 7ff4 063f 906a 39bf 0c4e a1bf c823 c2bf
00000050: 3a1f c13f b568 e43e 358d c8bf 1792 d73f
00000060: 9242 89be de95 e3be 0aab a13f 3a47 523f
00000070: f500 c6bf fa09 d5bf 92be 793d a4ea a13f
00000080: d091 c33f dc2c a9bf fd79 c3bf 10d9 90bf
00000090: 5416 91bf e8ad 80bf 5437 c03f 35a1 ecbf
-0.992289 1.5720787 -0.94173086 -0.9924894 -1.1235894 -1.1002806 -0.9847756 -1.1813703
-1.3442107 -1.1230612 1.3839953 1.1943674 1.0675905 1.4367368 -0.6794845 -1.6372228
0.5271682 -0.72428226 -1.2601943 -1.516717 1.5087655 0.44611135 -1.5668093 1.6841458
-0.26808602 -0.44450277 1.2630322 0.82139933 -1.5469042 -1.664367 0.060972758 1.2649732
1.5278873 -1.3216815 -1.5271603 -1.1316242 -1.1334939 -1.0053072 1.5016885 -1.8486696

l2.bias f4 [5]
00000000: 8866 f73e 05dc 343d e621 55be b0c9 75bf
00000010: d473 f33e
0.48320413 0.04415514 -0.20813712 -0.96010876 0.47549307
