train/data.pth (torch, 103992 bytes, 4 tensors)

l1.weight f4 [8, 2154]
00000000: a175 f6bd bcfa dc3d 6cc2 cf3d e514 74be
00000010: 45bb c83a a428 84bd 2fab 3ebd 4de7 8ebd
00000020: e5f8 27bd 5427 51be 71d1 97bd 452a 03bc
00000030: ec77 5ebd 550f 843e 7068 feba 5dad bfbd
00000040: 4662 4a3e 78e4 3b3e 0ca7 d33e 5e3e b93e
00000050: f033 963e 81f9 a53e a2d0 41bd 0e81 df3e
00000060: a1a4 cdbd e8da c0bb 2002 003d 0a5c 11bd
00000070: 0e05 aa3b 6d2a e4bc b562 7ebc 561e 78bc
00000080: fcf8 17bb 6e07 783a 69e4 07be 4eca 0fbd
00000090: e1f3 823e b2eb 543d 3d12 1f3e aad7 9e3d
000000a0: 585e 293d eee4 8f3d 2d34 6bbe 98cd 553d
000000b0: 5ef1 4e3e 4b18 6e3e eb12 6cbd df0e bb3b
000000c0: 31e6 513e e698 2b3e 6279 863e 9c6c 4d3e
000000d0: 937f afbd 45d2 5c3d 97bb a93e 880b 5d3e
000000e0: 1064 1d3d 62ba 8d3e c673 f0bd 8955 7abd
000000f0: b028 993d 70c1 993e 80df e63c 5678 043e
00000100: e445 1abe 7960 28bd 7dd3 7ebd 9c3e 883e
00000110: 29da d13c 038d 4d3e 961d 3c3e 109e 46be
00000120: 36e0 4cbe dedf 9db9 c213 503e 768f 80be
00000130: 5fe0 ba3e 9e97 8b3d 7e58 8a3d 6de6 f73d
00000140: 00f4 b43d 0824 c13e 169d dd3c 238f 393e
00000150: 1ad7 1c3d e0dc 983e c8d8 9e3d 51f8 083d
00000160: 9248 273e 70c8 633d 021e 2b3e 9080 233e
00000170: e289 633d 76ed 983e 8c4b 9d3d ccd9 563d
00000180: 401a 263e 9fb2 dd3c 76c1 a03d 90d0 0f3e
00000190: 43ae 053e d315 783e 4866 593d 0411 3e3d
000001a0: 8aa1 47be 64fd 043e cbfe c43d 7e79 013e
000001b0: b278 ae3d 7017 9c3e 991d 6fbe ebd1 fe3d
000001c0: 1dfc 4c3d e6d2 af3d 1d30 6b3e f914 b63d
000001d0: 576f 9cbd 7db4 c23d 7a71 853e 2079 a83d
000001e0: 0e4e 033d d9ef 903e 0c96 923d 8474 ab3e
000001f0: bfc7 81bd 8b76 cdbd ffcc 40bb 3594 8fbd
00000200: 34a7 693e 841a 34be a649 5ebd f8e9 80bd
00000210: 492d 913e 9696 873e 376a 783b 8e2a 843f
00000220: 87dc bfbc 9315 25bf a188 463d 5a4d ffbc
00000230: 5d71 cf3e 3d1e 843e bbc7 fdbc a47a 503d
00000240: 1ce1 493d 08ad 41bd 0aaf 1e3d 8e17 5a3e
00000250: 4b47 cebd 085e 28be cd85 8fbd 3692 debd
00000260: fe66 9d3c 38c4 8b3e 15c6 82bd 96b5 7bbe
00000270: 005c 80b9 0cce b53e 7d22 173e c64c 603c
00000280: 0312 b2bd 588a 25be 4261 9ebd dd31 05be
00000290: a6d6 91be 4782 933d ecae f4be 0afe db3e
000002a0: 5d60 8a3e 21ad 113f 46c6 043d 3368 a63e
000002b0: d589 60bd 312c 533f 727a 92bd 731f 21be
000002c0: 47b8 8cbd 3f3b e9bd ccb7 503e ccaf 583d
000002d0: 989b 5cbe 5121 dc3e 0e35 24be 7316 8bbe
000002e0: ddd0 ffbd 208f a6bb 179b 113e c97d 723f
000002f0: 071f f03e a62b 8a3e a7e4 16be ccbf a3bd
00000300: 3bd2 363e 2df1 623e 9ba1 a13e 2ee7 053d
00000310: 7546 253e e6e2 e6bd acf5 28be 5403 b4bd
00000320: 0304 30be 1ed7 8dbd 658c 71bd c48d 0bbd
00000330: 012f a03d 553d 58be ce71 54be 56db a63d
00000340: 0fe5 553e cb1a a0bc 1565 0cbe a120 b5bb
00000350: 99b2 23be 8dad 193e 95e4 e73e fd36 cbbc
00000360: f559 c5bc 8b53 c93c 2179 e1be 099a 1abd
00000370: 18a6 19be 32a9 ec3d d970 413e a978 9abe
00000380: 8162 93bd 924d d6bd 1ed1 c4bd fcf7 2ebe
00000390: df02 2e3d c7cf a73e 8cda 303d a009 003f
000003a0: 7dca a4bd 7ef0 4d3e 2337 66bd c815 debd
000003b0: 708e a93e 6a2b f93d 9b6a f03d 4b2a 2bbd
000003c0: 3252 72bc f08d 05be 6ec9 b8be 6c8a 42bd
000003d0: e818 7739 7848 513d 368b 603e 664d 523d
000003e0: e390 19be d69b 95be aea1 d1bd b02b b5bd
000003f0: 4997 4dbd 1b6f 2c3e b0e2 873e bf35 a2bc
-0.12034155 0.10790011 0.10144505 -0.23836096 0.00153146 -0.06453064 -0.046549972 -0.06977711
-0.04100885 -0.20425159 -0.07412995 -0.008005683 -0.054313585 0.25792947 -0.0019409787 -0.09359238
0.19764051 0.18348873 0.41338384 0.36180395 0.293365 0.3241692 -0.04731811 0.43653148
-0.10041166 -0.0058854707 0.031252027 -0.035488166 0.005188591 -0.027852261 -0.015526463 -0.015143951
-0.0023189178 0.00094615563 -0.13270725 -0.035105042 0.2557669 0.05198259 0.15534301 0.077559784
0.04134974 0.07026087 -0.22969122 0.052198023 0.20209262 0.23251455 -0.05763523 0.00570856
0.20497967 0.16757545 0.26264483 0.20060962 -0.08569255 0.053911466 0.33150932 0.2158643
0.038425505 0.2768126 -0.11740832 -0.06111673 0.07478464 0.30030394 0.028182745 0.1293653
-0.15065724 -0.04110763 -0.06221341 0.26610267 0.025616722 0.20073323 0.18370661 -0.19396234
-0.20007405 -0.00030112168 0.20320037 -0.25109452 0.36499307 0.06816028 0.0675516 0.12104497
0.08835602 0.37722802 0.027052443 0.18121009 0.038291074 0.29856014 0.077561915 0.033439938
0.16336277 0.055611074 0.16710666 0.15967011 0.055551417 0.29868668 0.07680425 0.0524538
0.16220951 0.027062712 0.078494 0.14044404 0.13054757 0.24227075 0.05307606 0.046402946
-0.19495216 0.12987286 0.096189104 0.12644002 0.085191146 0.3048663 -0.23351134 0.124423824
0.05004512 0.085851476 0.22967573 0.08890719 -0.07638424 0.09507082 0.26063138 0.08226228
0.03205686 0.2830799 0.071575254 0.33487332 -0.06336927 -0.10032376 -0.0029419062 -0.0701069
0.22817689 -0.1758824 -0.054269455 -0.06294626 0.28354862 0.26482075 0.0037905106 1.0325487
-0.023420585 -0.64486045 0.048470143 -0.031164814 0.40516177 0.2580432 -0.030979028 0.05089821
0.049286947 -0.047284156 0.03874115 0.21298048 -0.10072192 -0.1644212 -0.07007942 -0.10867731
0.01921415 0.2729814 -0.063854374 -0.24580988 -0.00024482608 0.35508764 0.1475925 0.013690179
-0.08694842 -0.16166055 -0.07733394 -0.13007303 -0.28484076 0.07202583 -0.47789705 0.42967254
0.27026644 0.569048 0.03241565 0.32501373 -0.054818947 0.82489306 -0.07152261 -0.15734653
-0.068710856 -0.113882534 0.20382613 0.052902028 -0.2154373 0.42994168 -0.16035864 -0.27165565
-0.124910094 -0.00508298 0.14219318 0.9472318 0.46898672 0.26986426 -0.14735661 -0.07995567
0.17853634 0.22162314 0.31568608 0.032691173 0.16140158 -0.11273746 -0.16499966 -0.08789697
-0.1718903 -0.06925796 -0.05897178 -0.034070745 0.07821465 -0.21117146 -0.20746538 0.08147304
0.2088816 -0.019544026 -0.13710435 -0.0055275713 -0.15986098 0.1500761 0.45291582 -0.024806494
-0.024090746 0.02457597 -0.44037727 -0.037744556 -0.15004766 0.11555709 0.18890704 -0.3017018
-0.071965225 -0.10464014 -0.096101984 -0.17086786 0.042483207 0.3277571 0.043177173 0.50014687
-0.08046434 0.20111272 -0.056204926 -0.10843998 0.33116484 0.12166484 0.117390834 -0.04178838
-0.014790105 -0.13042426 -0.3609118 -0.04749529 0.00023565034 0.051094502 0.21928105 0.051343344
-0.14996676 -0.29220456 -0.10235916 -0.08846223 -0.050193105 0.16839258 0.26540136 -0.019801019

l1.bias f4 [8]
00000000: 3adc 573f dd58 363f c61c 063f 3424 813f
00000010: e34f 893e ea51 743e c74d 8d3f 1415 0f3f
0.84320414 0.71229345 0.52387655 1.0089173 0.2681876 0.23859373 1.1039361 0.5589154

l2.weight f4 [5, 8]
00000000: c94c b53f fe5f a4bf b644 47bf f816 b1bf
00000010: 9dad 58bf 774b 6bbf 7661 87bf 2d56 4abe
00000020: 0a1d b0bf 8070 7a3f b994 91bf 90db 5a3e
00000030: c581 963f 24a9 a63f 3a51 d9bf d926 983f
00000040: 153f 84be add0 a33f add3 90bf 3bab a73f
00000050: c4e8 24bf 74b7 9fbf dfb0 a43f 4d2d dfbf
00000060: bf5d d0bd 5f11 9ebf 58e6 543f bc2f bcbf
00000070: 71b9 9f3f 35e4 9c3f f79a 033f c213 eabf
00000080: f878 e0bf c46f c6bf 8272 a43f 6bc1 c7bf
00000090: 11c3 dcbf 6d1a debf 1ca7 803f 6af4 c43f
1.4164058 -1.2841794 -0.7783922 -1.3835135 -0.8463991 -0.91912025 -1.0576618 -0.19759436
-1.3758862 0.9782791 -1.1373512 0.21372819 1.1758353 1.3020368 -1.6977913 1.1886855
-0.25829378 1.2798058 -1.1314598 1.309913 -0.6441767 -1.247786 1.2866477 -1.74357
-0.10174131 -1.2349051 0.83163977 -1.4702067 1.2478467 1.2257143 0.5140833 -1.828728
-1.7536917 -1.5502858 1.2847445 -1.5605901 -1.724703 -1.7351815 1.0050998 1.5387089

l2.bias f4 [5]
00000000: 8929 413f 1c12 93be 3156 d1bd af16 49bf
00000010: 8264 d83e
0.75454 -0.28724754 -0.10221518 -0.7855024 0.4226418
