train/data.pth (torch, 104184 bytes, 4 tensors)

l1.weight f4 [8, 2160]
0.1555715 -0.20114695 -0.18183602 0.4441955 0.06995934 0.13267586 0.09040278 0.08982083
0.078613736 0.2860094 0.03825971 0.17494906 0.1878483 -0.37452024 0.13252471 0.18040466
-0.097990505 -0.12335918 -0.28433022 -0.39756352 -0.27436388 -0.31910378 0.07629596 -0.38408834
0.12810747 0.050780755 -0.053652074 0.024683928 0.06578708 0.057387255 0.012556949 0.03709534
0.05934861 0.067191824 0.16321954 0.065093294 -0.2776074 -0.0661288 -0.03474237 -0.103393845
-0.10397193 -0.10045949 0.28525478 -0.10671155 -0.11300972 -0.30481696 0.041618478 0.10058333
-0.28063935 -0.040705636 -0.20092638 -0.22832075 0.1179517 0.0048620524 -0.36997712 -0.30562308
-0.11927864 -0.21404359 0.098376684 0.01805259 -0.03154205 -0.2877491 -0.01706204 -0.029928084
0.26901057 0.017474936 0.08048872 -0.30468622 -0.06244722 -0.1847903 -0.2424353 0.08838283
0.27872065 0.06758083 -0.12829119 0.26189765 -0.3959261 -0.07775753 -0.035884876 -0.09885999
-0.03875516 -0.4890717 -0.052522413 -0.05282129 -0.040098347 -0.3980786 -0.09534775 -0.03905585
-0.220333 -0.01861779 -0.2531536 -0.21122943 -0.025040792 -0.2360067 -0.066260464 -0.035902537
0.18815605 -0.27550998 -0.071145765 -0.032441333 -0.15744822 0.017038919 -0.26638353 -0.08470903
-0.014373392 0.27628398 -0.04137155 -0.016292308 -0.12501428 -0.018028256 -0.28083345 0.34331864
-0.20280935 -0.059841532 -0.04803474 0.0038190605 -0.091336675 0.104588844 -0.101636946 -0.29101154
-0.103936546 -0.030096741 -0.26026583 -0.07271109 -0.27428603 0.06845946 0.44685996 0.028955644
0.18802574 -0.2494408 0.18168549 0.11735806 0.086103976 -0.013641673 -0.36047667 0.04252535
0.5184086 0.05816697 0.30892116 -0.09891935 0.0064088274 -0.31290844 -0.38812578 0.029386997
-0.11719455 -0.1237464 0.04648152 -0.03041464 -0.27279097 0.3327126 0.18205774 0.052807894
0.14866512 0.15487552 -0.2931139 0.07734381 0.25067925 0.14028816 0.19526076 -0.21744336
-0.008058001 0.06845137 0.35685736 0.07440654 0.15331645 0.34069696 0.06412955 0.5359372
-0.2996537 -0.29331732 -0.07915875 0.036717214 -0.4272357 0.06509852 -0.38268986 0.064919636
0.3045943 0.10063759 0.11052059 -0.06982269 0.0005448393 0.2869213 -0.4716698 0.19704644
0.29839215 0.16807097 0.07648101 -0.19866958 0.18205921 -0.09330413 -0.07792932 0.17451213
0.15563549 -0.23401342 -0.116925985 -0.1808142 0.058104612 -0.26527664 0.14218053 0.15537353
0.091175675 0.25405508 0.113822855 0.039248977 0.2692921 -0.052144144 0.19088328 0.23736283
-0.20875044 -0.10371269 0.05050255 0.1954937 0.03942619 0.22849663 -0.11093276 -0.35252914
0.051102657 0.04387797 0.06471285 0.47423622 0.12136823 0.2912083 -0.12246861 -0.12348464
0.31748545 0.047065623 0.1166757 0.10243625 0.18817651 0.0044890014 -0.21067528 -0.087820955
-0.12705249 0.11465557 -0.049606837 0.0750757 0.13349694 -0.15800613 -0.19867884 -0.07595743
0.054266524 0.063991494 0.17110199 0.41883245 0.13979492 -0.08197889 -0.019870121 -0.2691298
-0.0584027 0.14840317 0.40142047 0.095106825 0.07567252 0.045341935 -0.14591846 -0.012792378
00000000: 234e 1f3e 77f9 4dbe 3933 3abe 986d e33e
00000010: d846 8f3d 2edc 073e 1825 b93d fcf3 b73d
00000020: 3d00 a13d d36f 923e 37b6 1c3d d925 333e
00000030: 4e5b 403e 1ec1 bfbe 8fb4 073e 00bc 383e
00000040: 3faf c8bd bda3 fcbd bb93 91be 728d cbbe
00000050: 6c79 8cbe 9261 a3be 0e41 9c3d 3aa7 c4be
00000060: 9b2e 033e 7bff 4f3d 47c2 5bbd f335 ca3c
00000070: 60bb 863d e60e 6b3d a9bb 4d3c 49f1 173d
00000080: 8717 733d de9b 893d 0623 273e a24f 853d
00000090: 8f22 8ebe 896e 87bd 044e 0ebd 27c0 d3bd
000000a0: 3cef d4bd b5bd cdbd ea0c 923e 968b dabd
000000b0: a471 e7bd f810 9cbe 2378 2a3d a2fe cd3d
000000c0: f6af 8fbe f4ba 26bd a5bf 4dbe eacc 69be
000000d0: a990 f13d da51 9f3b a46d bdbe a17a 9cbe
000000e0: 5c48 f4bd 3e2e 5bbe b779 c93d 06e3 933c
000000f0: 3d32 01bd da53 93be b1c5 8bbc be2b f5bc
00000100: c1bb 893e 9927 8f3c 45d7 a43d d5ff 9bbe
00000110: a8c8 7fbd ab39 3dbe f640 78be 0f02 b53d
00000120: 79b4 8e3e d167 8a3d c45e 03be 7317 863e
00000130: d3b6 cabe 573f 9fbd 05fc 12bd 1b77 cabd
00000140: bbbd 1ebd 9b67 fabe be21 57bd 235b 58bd
00000150: 2a3e 24bd f5d0 cbbe ae45 c3bd 07f9 1fbd
00000160: f99e 61be 5684 98bc 599d 81be 874c 58be
00000170: 5922 cdbc beab 71be 91b3 87bd 8a0e 13bd
00000180: fbab 403e a50f 8dbe dfb4 91bd 34e1 04bd
00000190: 1b3a 21be 3495 8b3c 6c63 88be ee7b adbd
000001a0: 607e 6bbc 1875 8d3e 3775 29bd 7277 85bc
000001b0: be03 00be feaf 93bc 67c9 8fbe 76c7 af3e
000001c0: 41ad 4fbe 651c 75bd 13c0 44bd 3449 7a3b
000001d0: b90e bbbd ad32 d63d 0827 d0bd 77ff 94be
000001e0: afdc d4bd 718d f6bc 9041 85be 8de9 94bd
000001f0: 386f 8cbe 7934 8c3d d4ca e43e 6334 ed3c
00000200: d289 403e 696d 7fbe c30b 3a3e 6c59 f03d
00000210: 4857 b03d 5381 5fbc 6690 b8be 102f 2e3d
00000220: 6db6 043f 7d40 6e3d ea2a 9e3e 3a96 cabd
00000230: 2401 d23b 8935 a0be 6cb8 c6be 00bd f03c
00000240: b203 f0bd c16e fdbd 6863 3e3d 2028 f9bc
00000250: 42ab 8bbe 4e59 aa3e 586d 3a3e 174d 583d
00000260: ab3b 183e b097 1e3e 0613 96be 6e66 9e3d
00000270: 0859 803e b3a7 0f3e 70f2 473e 79a9 5ebe
00000280: b505 04bc 3b30 8c3d 02b6 b63e 7562 983d
00000290: fdfe 1c3e d56f ae3e 5a56 833d 2e33 093f
000002a0: 366c 99be b02d 96be fc1d a2bd ca64 163d
000002b0: a3be dabe 5f52 853d edef c3be 96f4 843d
000002c0: c9f3 9b3e 151b ce3d 9e58 e23d 33ff 8ebd
000002d0: 8cd3 0e3a 59e7 923e b47e f1be 8bc6 493e
000002e0: dbc6 983e cc1a 2c3e 13a2 9c3d 0a70 4bbe
000002f0: bb6d 3a3e 3c16 bfbd 6899 9fbd 4fb3 323e
00000300: e95e 1f3e 37a1 6fbe e476 efbd 5c27 39be
00000310: 1aff 6d3d 57d2 87be c697 113e 3d1a 1f3e
00000320: 50ba ba3d 8213 823e f51b e93d 89c3 203d
00000330: a7e0 893e 1995 55bd e876 433e 3e0f 733e
00000340: adc2 55be 5267 d4bd c3db 4e3d 802f 483e
00000350: 5b7d 213d 05fb 693e b730 e3bd b37e b4be
00000360: 0551 513d 63b9 333d 2c88 843d 17cf f23e
00000370: e88f f83d 4119 953e d3d0 fabd 84e5 fcbd
00000380: 748d a23e e2c7 403d abf3 ee3d 19ca d13d
00000390: 58b1 403e 7918 933b 43bb 57be 79db b3bd
000003a0: 0c1a 02be 8ad0 ea3d 8a30 4bbd 4ac1 993d
000003b0: 6cb3 083e 5ccc 21be 7772 4bbe 928f 9bbd
000003c0: 9346 5e3d f90d 833d 5c35 2f3e 3571 d63e
000003d0: 6626 0f3e 8ce4 a7bd aac6 a2bc 62cb 89be
000003e0: ab37 6fbd 00f7 173e fc86 cd3e 5ec7 c23d
000003f0: 32fa 9a3d 77b8 393d a66b 15be 1f97 51bc

l1.bias f4 [8]
0.44837162 0.44158846 0.8043965 0.87644714 0.69182855 1.1273577 0.6626527 0.6386044
00000000: f790 e53e e217 e23e eeec 4d3f d75e 603f
00000010: ad1b 313f 424d 903f 9ba3 293f 947b 233f

l2.weight f4 [5, 8]
-1.066487 -0.14110921 0.64417976 0.6185101 0.86994094 -1.6380159 1.0454102 -0.8295821
1.023487 -1.5553641 -1.6625794 -1.7579991 -1.8298935 0.7168014 1.6224965 -0.8248549
-1.5431966 -1.4224591 1.7779865 1.6565161 -0.99896246 1.0516864 -1.3344247 -0.7897219
-1.4915155 1.0846065 -0.8172688 -1.0650735 -1.4152075 -1.1765634 -0.55422443 1.2960423
0.98141396 0.56568396 -1.741868 -1.3476909 1.7911073 0.46329632 -1.5891992 -0.80865365
00000000: a582 88bf ef7e 10be f7e8 243f ae56 1e3f
00000010: 73b4 5e3f 81aa d1bf 00d0 853f 7e5f 54bf
00000020: 9f01 833f 2c16 c7bf 67cf d4bf 1d06 e1bf
00000030: f339 eabf 4c80 373f f7ad cf3f b129 53bf
00000040: 7787 c5bf 2413 b6bf 1095 e33f b808 d43f
00000050: 01bc 7fbf a99d 863f 6ece aabf 372b 4abf
00000060: fbe9 bebf 63d4 8a3f 8738 51bf 5454 88bf
00000070: 8525 b5bf a199 96bf a7e1 0dbf b7e4 a53f
00000080: f23d 7b3f aad0 103f 88f5 debf 2381 acbf
00000090: 0143 e53f 2d35 ed3e e16a cbbf ed03 4fbf

l2.bias f4 [5]
-0.5468671 0.525613 0.47624403 0.70544714 -0.30499473
00000000: 7bff 0bbf 938e 063f 42d6 f33e 2f98 343f
00000010: 4528 9cbe
