train/data.pth (torch, 82552 bytes, 4 tensors)

l1.weight f4 [8, 1706]
-0.15935808 -0.27330178 0.46413445 0.08019706 0.092731915 0.34242687 0.17352873 0.23876289
-0.13647954 0.1839751 -0.34992182 -0.36210713 -0.24799436 -0.37097296 -0.35579905 -0.48674518
-0.53104734 -0.038456075 -0.3517177 -0.085996844 0.013501861 -0.13376486 -0.031155527 -0.13443583
-0.13099146 -0.087519735 -0.3542325 0.06894062 0.11563545 -0.31118044 -0.018480964 -0.35311678
-0.021016782 0.12262474 0.010342064 -0.39908516 -0.4468739 -0.1753618 -0.2201592 0.17635766
-0.040373098 -0.34000593 -0.054421112 -0.042923603 0.28224877 0.11822084 -0.43349522 -0.13968584
-0.20768432 -0.35611677 0.096874155 0.33120367 -0.24899702 0.34041202 -0.4380818 -0.17811191
-0.07219836 -0.057842124 -0.029076058 -0.52838564 -0.13600768 0.08167922 -0.035018213 -0.35510433
-0.15198787 -0.093559936 -0.41249767 -0.037348747 -0.29287514 -0.007377366 -0.41279694 -0.1322213
-0.051623724 -0.20833191 -0.042213507 -0.053776152 -0.0503927 -0.15008582 -0.4856734 -0.16940488
-0.021912934 -0.016252398 -0.08602724 -0.15714307 -0.027705286 -0.33947933 0.29943547 -0.30931827
-0.12076437 -0.05418607 -0.34909323 -0.15084271 0.12784845 -0.1640848 -0.31354314 -0.18852915
-0.033089083 -0.42440018 -0.11772147 0.08995571 0.46685183 -0.102109835 -0.025897248 -0.32249168
0.05261835 0.089020595 -0.046428837 -0.49596098 0.5500861 0.48973918 -0.115872316 -0.27708808
-0.56396216 -0.113309704 -0.14445503 -0.010184251 -0.17826791 0.37314543 0.14162277 0.18845153
-0.32900727 0.096217975 0.3240669 0.12732922 -0.31414235 -0.15896964 0.10028127 0.20298849
0.25586656 -0.18055421 0.55882114 -0.23121569 -0.40269214 -0.13727485 0.06566761 -0.43854195
-0.45523694 0.3754486 -0.037231307 -0.02256204 -0.2135894 -0.49122858 0.20505977 0.38127062
0.11639101 -0.24774855 0.09159648 -0.19909492 -0.1183053 0.1837144 0.1610032 -0.15694742
-0.17232612 -0.25721174 0.098190784 0.17170526 0.19431578 0.15467133 0.19993845 0.33795762
-0.10163518 0.2101473 0.3271882 -0.2779726 -0.13675025 0.19635038 0.25915202 -0.093440816
-0.25845885 0.062364917 0.436462 0.11541783 0.31437534 -0.2924864 -0.10890296 0.13570644
0.1276801 0.22954534 -0.022083897 -0.17910899 -0.0456634 -0.0092618605 0.12870856 -0.047896888
0.16914329 -0.11002149 -0.21783839 -0.04760463 0.1790758 0.51942456 0.15653771 -0.01523314
-0.12835422 -0.41704148 -0.10137912 0.2489193 0.32322928 0.09106513 0.10890886 0.062160056
-0.20511433 -0.014218409 0.34736452 0.21625333 -0.11415455 -0.0373006 0.21237086 -0.10277186
0.24358737 0.1315373 0.17023224 -0.022355955 -0.03550691 -0.24174607 0.47986117 -0.17613363
-0.01275748 -0.07133541 -0.31588095 -0.08077081 -0.048651345 0.20129536 0.2294291 -0.05624417
-0.16225205 0.36313072 0.62359244 -0.19276378 0.2674058 0.47437182 -0.14441621 -0.034310926
0.14345172 -0.03929048 0.604568 0.155005 -0.1245088 -0.13454962 0.32337692 0.29187727
-0.08930095 -0.07734323 -0.3323725 -0.20107494 -0.020996165 -0.05880475 0.25841808 0.15343742
0.17697467 0.07203124 -0.069960654 0.21579838 0.057829782 -0.08256238 -0.113952436 0.164105
00000000: c42e 23be 36ee 8bbe 08a3 ed3e 5b3e a43d
00000010: 3bea bd3d 9352 af3e 84b1 313e 427e 743e
00000020: 4bc1 0bbe f863 3c3e f428 b3be 1b66 b9be
00000030: 3cf2 7dbe 2bf0 bdbe 4b2b b6be aa36 f9be
00000040: b8f2 07bf 1e84 1dbd 5814 b4be 1d1f b0bd
00000050: e936 5d3c a8f9 08be e039 ffbc 8ca9 09be
00000060: a022 06be 8c3d b3bd f65d b5be bd30 8d3d
00000070: 47d2 ec3d 0b53 9fbe 6465 97bc b9cb b4be
00000080: 632b acbc ae22 fb3d c371 293c e454 ccbe
00000090: a8cc e4be 0b92 33be 6a71 61be 1a97 343e
000000a0: 435e 25bd 4215 aebe ace8 5ebd a9d0 2fbd
000000b0: e982 903e c51d f23d 16f3 ddbe ce09 0fbe
000000c0: 33ab 54be f054 b6be f565 c63d 8793 a93e
000000d0: 13f9 7ebe 7c4a ae3e 424c e0be f862 36be
000000e0: bcdc 93bd ddeb 6cbd ea30 eebc 4844 07bf
000000f0: 9945 0bbe 6f47 a73d 426f 0fbd 3cd0 b5be
00000100: b5a2 1bbe 5a9c bfbd e532 d3be 00fb 18bd
00000110: bbf3 95be d5bd f1bb 1f5a d3be 0565 07be
00000120: 6673 53bd f654 55be 12e8 2cbd 6244 5cbd
00000130: 9368 4ebd 19b0 19be 2faa f8be 7978 2dbe
00000140: c182 b3bc c023 85bc 0d2f b0bd 1dea 20be
00000150: 32f6 e2bc 3cd0 adbe 9b4f 993e f75e 9ebe
00000160: 4f53 f7bd 36f2 5dbd 59bc b2be 8376 1abe
00000170: b4ea 023e d905 28be ba88 a0be c90d 41be
00000180: 6b88 07bd fb4a d9be f417 f1bd b33a b83d
00000190: 3407 ef3e f61e d1bd 7726 d4bc a11d a5be
000001a0: 5786 573d 6e50 b63d 2a2c 3ebd 99ee fdbe
000001b0: 71d2 0c3f 18bf fa3e 774e edbd 7dde 8dbe
000001c0: d35f 10bf eb0e e8bd 05ec 13be d8db 26bc
000001d0: dd8b 36be eb0c bf3e 8f05 113e 70f9 403e
000001e0: a473 a8be ee0d c53d 19ec a53e 9762 023e
000001f0: 44d7 a0be f0c8 22be 4460 cd3d 37dc 4f3e
00000200: f100 833e 34e3 38be e70e 0f3f cec3 6cbe
00000210: aa2d cebe c791 0cbe bd7c 863d 9288 e0be
00000220: d114 e9be cd3a c03e db7f 18bd 07d4 b8bc
00000230: 2eb7 5abe 5082 fbbe 30fb 513e e735 c33e
00000240: 695e ee3d ccb1 7dbe ef96 bb3d 8adf 4bbe
00000250: 0d4a f2bd a11f 3c3e 06de 243e d3b6 20be
00000260: 4276 30be 42b1 83be 4018 c93d 81d3 2f3e
00000270: b7fa 463e 2962 1e3e aabc 4c3e c808 ad3e
00000280: 1b26 d0bd db30 573e 3685 a73e 6d52 8ebe
00000290: 4208 0cbe 1310 493e 93af 843e e65d bfbd
000002a0: b854 84be 5b72 7f3d f277 df3e 2f60 ec3d
000002b0: cef5 a03e c7c0 95be 8408 dfbd a1f6 0a3e
000002c0: 92be 023e ef0d 6b3e 4ae9 b4bc 5968 37be
000002d0: 8c09 3bbd 0fbf 17bc 2dcc 033e 872f 44bd
000002e0: e633 2d3e f252 e1bd 0711 5fbe 13fd 42bd
000002f0: a65f 373e 02f9 043f 6c4b 203e 6c94 79bc
00000300: 4a6f 03be 7686 d5be db9f cfbd b3e4 7e3e
00000310: 4f7e a53e 5b80 ba3d 9c0b df3d 8b9b 7e3d
00000320: 7e09 52be 54f4 68bc c3d9 b13e 8371 5d3e
00000330: dcc9 e9bd 84c8 18bd bf77 593e 0e7a d2bd
00000340: f86e 793e b7b1 063e 5c51 2e3e d623 b7bc
00000350: b26f 11bd 488c 77be 5db0 f53e 605c 34be
00000360: c004 51bc 4d18 92bd 26bb a1be 2b6b a5bd
00000370: a246 47bd 5f20 4e3e 76ef 6a3e 4960 66bd
00000380: 6725 26be 45ec b93e c1a3 1f3f de63 45be
00000390: 6ae9 883e dde0 f23e d8e1 13be 9d89 0cbd
000003a0: 02e5 123e 0eef 20bd f8c4 1a3f a1b9 1e3e
000003b0: 78fe febd 60c7 09be a991 a53e f070 953e
000003c0: 6be3 b6bd 2166 9ebd ba2c aabe 97e6 4dbe
000003d0: 2600 acbc 40dd 70bd 604f 843e b31e 1d3e
000003e0: d938 353e 1d85 933d 8847 8fbd 40fa 5c3e
000003f0: ecde 6c3d 7716 a9bd e55f e9bd 240b 283e

l1.bias f4 [8]
0.43283588 0.4220463 0.56491303 0.84544075 0.91617 1.2223371 0.32016164 0.21286242
00000000: aa9c dd3e 7416 d83e 249e 103f ce6e 583f
00000010: 1e8a 6a3f 8b75 9c3f 3aec a33e 9bf8 593e

l2.weight f4 [5, 8]
-1.0632473 -0.8646571 1.2517536 1.1977825 -1.3495919 -0.8952927 1.1039491 -1.1560621
1.2601997 -1.0800407 -1.0551007 0.36537513 0.8115285 -1.6364386 1.1233215 1.0239965
-2.0097322 -1.5074883 -0.24714576 0.1953742 1.6507095 1.3585457 -0.76666707 -1.4594295
-0.99372077 1.1207597 1.0961916 -1.1794053 0.32438937 -1.2513204 0.083093785 0.7900776
1.6043766 1.4601146 -0.893839 -1.6962106 -1.0124409 0.8920972 -1.1346433 -0.7750784
00000000: 7d18 88bf 2b5a 5dbf 7639 a03f f050 993f
00000010: 6dbf acbf e731 65bf 344e 8d3f d8f9 93bf
00000020: 394e a13f c63e 8abf 8a0d 87bf 7312 bb3e
00000030: 55c0 4f3f d276 d1bf 00c9 8f3f 5112 833f
00000040: 749f 00c0 60f5 c0bf c713 7dbe 2d10 483e
00000050: 734a d33f d3e4 ad3f 4b44 44bf 96ce babf
00000060: 7c64 7ebf 0e75 8f3f 0250 8c3f c1f6 96bf
00000070: 5d16 a63e 442b a0bf 132d aa3d 8742 4a3f
00000080: 365c cd3f 09e5 ba3f a2d2 64bf 6e1d d9bf
00000090: aa97 81bf 7b60 643f fe3b 91bf 8a6b 46bf

l2.bias f4 [5]
0.3107566 -0.2284438 0.5881533 -0.25032914 -0.39371097
00000000: 7d1b 9f3e 2ced 69be 3791 163f 242b 80be
00000010: 7c94 c9be
