train/data.pth (torch, 62840 bytes, 4 tensors)

l1.weight f4 [8, 1288]
00000000: 0061 523d 7685 9d3e 802f 863d e806 ac3d
00000010: 3d3a 563d 739a 2e3e 1a03 303e 0bb4 38be
00000020: f716 193e 532b 963d 3b37 a13d e669 8b3e
00000030: 0f1f 963d a232 c83c dd49 e43d e671 b33d
00000040: 3306 333e a46c 3c3e d1fa 833d 9658 5c3e
00000050: 1069 863d 875b 683e 4db8 533e 67d9 103e
00000060: 0c12 f83d 1bf5 843e 2f37 38bd 4e69 613e
00000070: aee5 f53d 0bb2 8e3d 5670 543e 11c3 1b3d
00000080: c49b 983d f8a4 9c3e f5a1 d73e 7ebe c1bc
00000090: 25c6 00be 04cf 903e cf6f cb3d 904d 7d3e
000000a0: 859b c53c 46ca 973e 05f4 343d 07f0 ac3d
000000b0: 23a5 343e d845 673e 4836 4bbc 91d5 093f
000000c0: fd9a 61be 5f69 8cbd bc72 283d 6e6e 213e
000000d0: 7d78 2ebe 9503 a33e 8530 5d3a 7687 9dbe
000000e0: 4f5a 193e ce02 733e cc37 973d ecb3 ccbd
000000f0: 4aa0 35bd e6ae 203d aadd fc3d db8b ec3d
00000100: b8fd 1abe 137b f9bd c825 1f3c 2427 fb3d
00000110: dc38 783e 0915 e33d f36f 413e 8a70 5c3e
00000120: 1a1a 593e 17bf 423e 53e4 b5bd b3ca e43d
00000130: c33d 3b3e b43b 89bc 8b43 83be eb7e e33d
00000140: 3963 b73e 2838 dc3d d56c 773e 3602 ccbd
00000150: daf8 0e3e 8e2d df3d db76 463e 9625 20be
00000160: f59c 4dbd 4442 54bd a784 c73d 3a5f 81bc
00000170: 8a31 2f3e def4 b5bc e3eb c3bd 3fb5 fd3d
00000180: 5b2e b53e 34b4 213e 271e bbbc 3777 423e
00000190: bf30 923e db16 c93d 05af 063e 842c 713d
000001a0: 08da f9bc 108a f43a 7d7f 5b3e 9d7a 263e
000001b0: bc35 863e 8ffb 0f3e d598 4c3e 9c0d 0e3e
000001c0: 5ef5 133e b715 86bc d33e d6bd 36ef e83e
000001d0: 6179 28be d2cf 04bd 9c60 37bb f257 80be
000001e0: db92 3bbd a367 d93d 8357 1c3e 0189 8c3e
000001f0: 629e b2bd 65d0 903e 2bc4 ff3e dacb 423e
00000200: 0757 cb3e 49ff 02be e6bd 66bd 7c5e 173e
00000210: e8ad 02bd 9111 0b3f b7f8 f93d e884 763b
00000220: df8e 933e bfb6 573e f00d 49bd d287 83bd
00000230: 074b 963d 64ad f13d 8f70 3d3e b95f a63d
00000240: 25de 353d d861 87bd 3aab 513e 60a7 793d
00000250: 89ba 193e c40e 2d3e 0eaa b83d 1045 4d3e
00000260: a912 c13d 774c 053e 475e c03d a8eb 353e
00000270: abe1 28be a40c 55bd 6f77 aabd d4e5 a33d
00000280: 909c 40be d7da 19be 1195 993d 826a f93d
00000290: ec97 a13e 1ad4 26be 8635 213e 01ed 843e
000002a0: b023 a53e 0fd0 eb3d c478 c73d 0083 34be
000002b0: 2253 f13d 454b 953d 102c 863e 02a7 043e
000002c0: 9da2 39be 4521 0a3e 8be4 b23e ceb7 103e
000002d0: 9b38 64be a045 7c3e 5ed1 173e adfb e63e
000002e0: 439a f63d 0b1d 3dbe 733d 6fbd 7f8c 0f3c
000002f0: 5cc3 c43d 1670 d83d 6807 58be c48a 26be
00000300: 54e2 fdbd 6218 223e 7b7f d6bd 846d 013e
00000310: 4534 343e 4438 203e b31c 053e d4fd 243e
00000320: 8551 a33e 7114 8c3d aa88 793e 72d7 493e
00000330: 47cb 843e 5a40 8e3e 8e93 183e 2739 0f3e
00000340: ab06 acbb 9b23 5d3e be00 083e 62ba b63e
00000350: a4b4 bd3e b513 e13e e1ae afbd eaa5 48be
00000360: a99b 8abe 2045 833e 4fde ed3d 9072 7abe
00000370: 611a 613e 5022 53be a09e 90bd c021 9abe
00000380: b8ef 3f3e e647 8e3e fb85 803e d2e7 9fbd
00000390: 3ad1 ca3d edeb 273e aae7 3d3b cb88 173e
000003a0: 4c56 5e3a 325a d83d 1f09 ae3d 640e efbc
000003b0: baa5 4f3e 0f4b 763e c179 083e 5cf0 253b
000003c0: d5fa cb3e 277b d73e 13c9 f03e 9e24 4d3d
000003d0: a226 163e 5489 71bd 54e2 31be ab17 9f3e
000003e0: df80 6b3e db79 693e 3859 823e 3bcf 943e
000003f0: 48d1 1fbe 12e8 f2bc 30d4 dcbd 6467 4dbe
0.051362038 0.30765885 0.06552029 0.08399755 0.052301634 0.17051105 0.17188683 -0.18037431
0.14950167 0.07332482 0.078718625 0.27229232 0.07330143 0.024438206 0.11146901 0.08761959
0.17482834 0.18400818 0.06444324 0.21518168 0.06563008 0.22691165 0.20675774 0.14145432
0.12112817 0.2596825 -0.044974502 0.22012827 0.120066985 0.06967553 0.20745978 0.038027827
0.07451585 0.3059461 0.4211575 -0.023650404 -0.12575586 0.2828294 0.09933435 0.24736619
0.024122009 0.2964651 0.044178028 0.08444219 0.1764112 0.22585237 -0.012403078 0.538415
-0.2203178 -0.068560354 0.041125044 0.15764782 -0.1703815 0.3183867 0.0008437711 -0.3076741
0.14975856 0.23731539 0.07383689 -0.09995255 -0.044342317 0.039229296 0.123469666 0.11550113
-0.15135849 -0.12181678 0.009713598 0.12263325 0.2424044 0.110879965 0.18890361 0.21527305
0.21201363 0.19018207 -0.0888144 0.11171474 0.18285279 -0.016752101 -0.2563747 0.11108192
0.35817888 0.107528985 0.2416261 -0.09961359 0.13962117 0.10897361 0.19381277 -0.15639338
-0.050198514 -0.05182101 0.09742098 -0.015792478 0.17108741 -0.022211488 -0.09566476 0.123880856
0.3538693 0.15791398 -0.022841526 0.1899079 0.28552815 0.098188125 0.13152702 0.058880344
-0.030499473 0.0018656868 0.21435352 0.16257711 0.2621287 0.14060806 0.19980176 0.13872379
0.14449069 -0.016367776 -0.104612015 0.45495003 -0.16452552 -0.032424755 -0.0027981168 -0.25067097
-0.04579435 0.1061547 0.15267758 0.27448276 -0.087216154 0.28283992 0.49954352 0.19023076
0.39714834 -0.12792696 -0.056333445 0.14782137 -0.03190413 0.5432368 0.12205642 0.003761584
0.2881994 0.21065806 -0.049085557 -0.0642239 0.07338529 0.1180065 0.18499969 0.081237264
0.044401307 -0.06610459 0.20475474 0.060950637 0.15012564 0.16900164 0.0901681 0.20045877
0.09427387 0.1301745 0.09392982 0.17765677 -0.16492335 -0.05201401 -0.083235614 0.080028206
-0.18809724 -0.15024887 0.07499135 0.12178518 0.3156122 -0.16291848 0.15743074 0.2596207
0.3225379 0.115142934 0.09739831 -0.17628098 0.117834345 0.07289747 0.26205492 0.12954333
-0.18128438 0.13489254 0.3493999 0.14132616 -0.22287218 0.24635935 0.14825961 0.45113888
0.12041142 -0.1846811 -0.058408212 0.008761524 0.09607574 0.10568254 -0.21096575 -0.16263872
-0.12396684 0.15829614 -0.10473534 0.12639433 0.17598064 0.15646464 0.12999229 0.16112453
0.31898132 0.068398364 0.2436854 0.19711092 0.25936338 0.2778347 0.14900038 0.13986646
-0.0052498183 0.21595614 0.13281533 0.35689074 0.3705188 0.43960348 -0.085782774 -0.19594541
-0.27071884 0.25638676 0.116146676 -0.24457765 0.21982719 -0.20618558 -0.07061505 -0.30103874
0.18743789 0.2778923 0.2510222 -0.07807888 0.09903188 0.16398592 0.0028977194 0.14798276
0.0008481487 0.105640784 0.084978335 -0.029181667 0.20278063 0.2405207 0.13327695 0.0025320267
0.39839807 0.42086145 0.47028407 0.05008375 0.14663175 -0.058968857 -0.17371494 0.31072745
0.22998379 0.2280039 0.25458694 0.29064354 -0.15607178 -0.029651675 -0.10782659 -0.20058972

l1.bias f4 [8]
00000000: a85b 8b3e ddca 743e 0261 f13e a057 733e
00000010: 8e2a 913e 0d50 ff3e c6e1 6e3f c38f 773f
0.27218366 0.23905511 0.47144324 0.23763895 0.2835278 0.4986576 0.9331325 0.9670374

l2.weight f4 [4, 8]
00000000: 5d3d 34bf d081 883f 6b8a 7c3f 0efc 71bf
00000010: cdcc 8abf b4b4 333f de2b 73bf 86fe 81bf
00000020: 5457 6a3f b8a8 0d3f 800f 743f f13c 7d3f
00000030: 0d5a 213f 44dc b1bf d2ee 453f b6bc a9bf
00000040: e5cb 6bbf e1e9 60bf afe0 a6be 027d 94bf
00000050: 5f27 97bf d033 88bf 20e1 b73f d072 c53f
00000060: 7d84 873f 7729 05bf 6851 8abf cb77 153f
00000070: 0111 453f 35ca 5b3f ec9a aebf fbfc 683f
-0.7040613 1.0664616 0.9864871 -0.9452523 -1.084375 0.70197606 -0.9498881 -1.0155799
0.915395 0.5533557 0.9533615 0.98921114 0.6302803 -1.3895345 0.77317536 -1.3260715
-0.92107993 -0.8785687 -0.32593295 -1.1600649 -1.180889 -1.0640812 1.4365578 1.5425663
1.0587307 -0.52016395 -1.0806093 0.58385915 0.7697907 0.8585542 -1.3641028 0.9101102

l2.bias f4 [4]
00000000: 34c4 063f cb82 8fbe 05ce 3d3f 6962 99be
0.5264313 -0.28029475 0.74142486 -0.29957893
