train/data.pth (torch, 103224 bytes, 4 tensors)

l1.weight f4 [8, 2138]
0.13048002 0.1293667 0.086889185 -0.16762798 0.09896162 -0.047073968 0.07147173 -0.09005698
0.08618167 0.48218137 0.1552857 -0.13570803 -0.21047729 0.6943753 -0.29449734 -0.13551472
0.26530114 0.2727467 0.22227508 0.26970577 0.14118093 0.21476243 0.052926894 0.32500097
0.116501994 0.03973191 0.046395514 0.03654866 0.071186885 0.05028823 0.03510206 0.06676341
0.050083335 0.07939033 -0.017690822 0.06602241 0.13466197 0.05782064 0.15929489 0.027264854
0.043345798 0.02489069 0.06451576 0.17508791 0.17037484 0.038599774 -0.122747645 0.15969995
0.14574523 -0.061015632 -0.07199197 0.07705233 0.052643493 0.24062635 0.1626332 0.05683492
0.23100609 -0.13688378 0.073544644 0.06284136 0.22617221 0.01042407 0.095760465 0.3379488
0.026481334 0.20863889 0.24098566 0.039172154 0.24895735 0.1513992 0.009323553 0.008490919
0.14013894 0.1961476 0.22355394 0.02270593 0.067740336 0.08628639 0.05987695 0.27794093
0.030179214 0.26523778 0.02635134 0.24466032 0.033747163 0.035995718 -0.014952221 0.025855824
0.030273203 0.06203671 0.033775073 0.23854584 0.08922993 0.024230173 0.051548228 0.029445497
0.08965578 0.011484563 0.1497072 0.16140373 0.044702183 0.038209558 0.28869095 0.08267733
0.09557039 0.08043742 0.26667708 0.3338726 0.09123733 0.05609668 0.034112446 0.14957935
0.05950527 0.10824227 0.07344893 0.1957762 0.08185736 0.035396807 0.20978884 0.043358434
-0.027010716 0.10606687 0.42153004 0.08651474 0.06916044 0.116048634 0.08342234 -0.0050761993
0.006109976 0.28199783 0.15510443 0.050465457 0.1402415 0.033056792 0.43579847 0.06368238
0.004478055 -0.2902955 0.16750978 0.07901069 0.00870521 0.049773797 0.05698988 0.055289105
-0.16102475 0.7085669 -0.023870943 0.10399312 0.26178917 0.19062425 0.16066374 0.11168231
0.30017072 -0.21456872 -0.00079738983 0.029185822 0.108780816 0.11168318 -0.22901027 0.10317455
0.222176 -0.060475875 -0.15536384 -0.22988227 -0.27940074 0.19457239 -0.021135518 0.04078975
0.44189334 0.08195122 -0.69623244 0.101053104 -0.33961132 0.1042819 0.091866165 -0.1651934
0.016862689 -0.30512476 0.93612415 -0.16677105 0.36428344 -0.1002656 -0.13010864 -0.042972617
-0.13455288 -0.2939144 0.5300951 0.21261126 -0.14466514 0.08892744 0.29187262 -0.07914744
0.060794745 -0.0053753974 -0.15051039 0.14855312 0.15338929 0.40564457 0.23472536 0.08053083
0.13158974 0.04975622 0.1703207 0.23107785 0.10028975 -0.1989158 0.063522674 -0.14139971
0.024706904 0.2079016 -0.11835682 -0.15376632 0.03189809 0.011479021 0.386524 0.07406946
0.13760155 -0.085255235 0.061996546 -0.061366085 -0.34045392 0.03924431 0.106942266 0.11349253
0.17055908 0.009266924 -0.23353878 0.4304027 0.17649524 -0.10235432 -0.118483655 0.11879464
0.14917761 -0.2580059 -0.01522519 0.37296754 0.038189355 0.077270366 -0.13338172 0.20392925
-0.051447846 0.36733592 0.08121305 0.12053652 0.024063123 0.19512519 0.022778228 0.1861993
0.15074122 0.334045 0.120526224 -0.15000366 -0.18554088 -0.073224366 0.1947878 0.053462483
00000000: 8e9c 053e b478 043e f5f2 b13d aba6 2bbe
00000010: 64ac ca3d a2d0 40bd c55f 923d cb6f b8bd
00000020: 0480 b03d 7ae0 f63e 3703 1f3e 0cf7 0abe
00000030: 5c87 57be 94c2 313f 5bc8 96be 5fc4 0abe
00000040: 8dd5 873e 75a5 8b3e 149c 633e e016 8a3e
00000050: bc91 103e afea 5b3e dfc9 583d 8766 a63e
00000060: 9998 ee3d edbd 223d 3909 3e3d 0cb4 153d
00000070: 6eca 913d 08fb 4d3d 2dc7 0f3d 41bb 883d
00000080: 2f24 4d3d 6697 a23d 58ec 90bc c236 873d
00000090: d4e4 093e 56d5 6c3d 331e 233e 8b5a df3c
000000a0: 5d8b 313d 8fe7 cb3c d720 843d 3f4a 333e
000000b0: be76 2e3e cc1a 1e3d 1e63 fbbd 6288 233e
000000c0: 3d3e 153e 87eb 79bd 8770 93bd 9dcd 9d3d
000000d0: b4a0 573d c166 763e 5189 263e bccb 683d
000000e0: dc8c 6c3e 432b 0cbe 939e 963d f9b2 803d
000000f0: b099 673e b8c9 2a3c 101e c43d a007 ad3e
00000100: 62ef d83c 6fa5 553e f2c4 763e fb72 203d
00000110: adee 7e3e 6408 1b3e d1c1 183c 7f1d 0b3c
00000120: 9580 0f3e ebda 483e 53eb 643e c901 ba3c
00000130: 72bb 8a3d ebb6 b03d 8841 753d 464e 8e3e
00000140: 663a f73c 3fcd 873e c4de d73c 3c88 7a3e
00000150: 773a 0a3d 3f70 133d 29fa 74bc 98cf d33c
00000160: 82ff f73c 351a 7e3d bb57 0a3d 5c45 743e
00000170: 2ebe b63d 5b7e c63c 3c24 533d af37 f13c
00000180: 739d b73d c029 3c3c d84c 193e 0547 253e
00000190: a319 373d a081 1c3d 4dcf 933e bb52 a93d
000001a0: 69ba c33d 60bc a43d e689 883e 59f1 aa3e
000001b0: a3da ba3d a2c5 653d 7eb9 0b3d 542b 193e
000001c0: ccbb 733d 20ae dd3d 656c 963d 8e79 483e
000001d0: d5a4 a73d 3efc 103d e3d2 563e 9d98 313d
000001e0: 9445 ddbc 9639 d93d c9d2 d73e a42e b13d
000001f0: fda3 8d3d e8aa ed3d 55d9 aa3d 3f56 a6bb
00000200: 3236 c83b 0562 903e b2d3 1e3e deb4 4e3d
00000210: 789b 0f3e 8f66 073d fa20 df3e e86b 823d
00000220: a6bc 923b 9da1 94be af87 2b3e 5bd0 a13d
00000230: 4ca0 0e3c 9cdf 4b3d 386e 693d d476 623d
00000240: ace3 24be a464 353f ff8c c3bc 58fa d43d
00000250: 3b09 863e 0133 433e 0985 243e b2b9 e43d
00000260: faaf 993e e7b7 5bbe ed07 51ba 1b17 ef3c
00000270: 7ac8 de3d 27ba e43d ab81 6abe 2e4d d33d
00000280: 1b82 633e 8db5 77bd b317 1fbe 4266 6bbe
00000290: 9d0d 8fbe fc3d 473e 6524 adbc 2713 273d
000002a0: d83f e23e 0bd6 a73d 4a3c 32bf eef4 ce3d
000002b0: 89e1 adbe c091 d53d 5424 bc3d 7528 29be
000002c0: 9f23 8a3c 5039 9cbe d5a5 6f3f 08c6 2abe
000002d0: 5c83 ba3e 0d58 cdbd 333b 05be 0e04 30bd
000002e0: 3bc8 09be f37b 96be 50b4 073f c4b6 593e
000002f0: 1923 14be 971f b63d 5470 953e 0e18 a2bd
00000300: e903 793d 1a24 b0bb 651f 1abe 4f1e 183e
00000310: 1512 1d3e a5b0 cf3e d85b 703e 59ed a43d
00000320: 76bf 063e 2ecd 4b3d 8d68 2e3e ac9f 6c3e
00000330: b664 cd3d 95b0 4bbe 2d18 823d 16cb 10be
00000340: 2266 ca3c 28e4 543e 0f65 f2bd eb74 1dbe
00000350: 92a7 023d 8112 3c3c 79e6 c53e bbb1 973d
00000360: 6ce7 0c3e 4c9a aebd 17f0 7d3d 015b 7bbd
00000370: fa4f aebe a4be 203d 8c04 db3d c66e e83d
00000380: 0aa7 2e3e 4cd4 173c ca24 6fbe be5d dc3e
00000390: 2bbb 343e 249f d1bd 8fa7 f2bd 9b4a f33d
000003a0: 04c2 183e 5919 84be 1373 79bc 9af5 be3e
000003b0: 716c 1c3d ed3f 9e3d 3895 08be d4d2 503e
000003c0: faba 52bd 7413 bc3e 0753 a63d dadb f63d
000003d0: 0720 c53c e6ce 473e 6899 ba3c 08ab 3e3e
000003e0: e85b 1a3e f207 ab3e 74d6 f63d 8f9a 19be
000003f0: 6efe 3dbe a8f6 95bd 7476 473e 7afb 5a3d

l1.bias f4 [8]
1.5149131 0.48107296 0.3673354 0.3807897 0.40122843 1.0060349 0.2780031 0.27347195
00000000: ace8 c13f 324f f63e 6313 bc3e def6 c23e
00000010: d06d cd3e c0c5 803f 6c56 8e3e 8404 8c3e

l2.weight f4 [5, 8]
-1.5513259 1.442307 1.284036 -0.6537053 -1.2653282 1.1334237 -0.9378443 -0.78311026
0.14767775 -0.5678893 -0.9646302 1.064153 -0.96210104 -1.8208001 1.3126324 1.5356108
1.7405504 -0.8791774 -0.9858451 -1.7539696 -1.4666897 0.90353125 -1.8460068 -1.958139
-0.30321893 0.82994825 0.82490283 -1.2093595 1.2229459 -1.6470243 0.84991795 -0.8212061
-1.9019395 -1.0090721 -1.036857 1.0016505 1.428418 1.486365 -1.7573553 0.44865137
00000000: d991 c6bf 849d b83f 4b5b a43f 3b59 27bf
00000010: 46f6 a1bf 0714 913f 9016 70bf ea79 48bf
00000020: d638 173e 3161 11bf 01f2 76bf 2a36 883f
00000030: 414c 76bf fa0f e9bf 5704 a83f e58e c43f
00000040: 5bca de3f c511 61bf 5860 7cbf 1382 e0bf
00000050: 7dbc bbbf d34d 673f f349 ecbf 4ca4 fabf
00000060: 833f 9bbe 7d77 543f d52c 533f 4bcc 9abf
00000070: 7e89 9c3f b1d1 d2bf 3994 593f 903a 52bf
00000080: c172 f3bf 4629 81bf bbb7 84bf 1536 803f
00000090: 67d6 b63f 3541 be3f 05f1 e0bf a2b5 e53e

l2.bias f4 [5]
-0.1460241 -0.24159731 0.8534135 -0.42198172 0.08084637
00000000: 5787 15be 4965 77be 4f79 5a3f fd0d d8be
00000010: c892 a53d
