train/data.pth (torch, 66744 bytes, 4 tensors)

l1.weight f4 [8, 1367]
0	0xba7f4d3f	-0.00097389886
1	0x3e795f3e	0.24352738
2	0x3d0ea9d4	0.03482993
3	0x3d72be60	0.059263587
4	0xbe620871	-0.22073533
5	0xbc578f7b	-0.013156767
6	0x3e4a7c84	0.19774061
7	0x3e451e6a	0.19249883
8	0x3f1da3cf	0.6157808
9	0x3e27f14e	0.16400644
10	0xbe3182b6	-0.17335019
11	0x3e210e0c	0.15728015
12	0xbe951bab	-0.2912267
13	0x3d9efea2	0.07763411
14	0xbd26d885	-0.040733833
15	0x3e14280b	0.144684
16	0xbdecbec1	-0.11559821
17	0x3e2b2190	0.16712022
18	0xbeb5ac04	-0.354828
19	0xbd256785	-0.040381927
20	0xbc90ed97	-0.017691417
21	0x3da6bcb6	0.081414625
22	0x3d6761b2	0.056489654
23	0xbdec8338	-0.115484655
24	0x3b4d98af	0.0031371524
25	0xbe1e6092	-0.15466526
26	0xbe56573e	-0.20931718
27	0x3e4ab074	0.19793874
28	0xbe1931b2	-0.14960364
29	0xbd1c6f86	-0.038192295
30	0xbd148ff2	-0.03627009
31	0xbea35585	-0.31901184
32	0x3d466d59	0.048444126
33	0x3d8ad98a	0.067797735
34	0xbeaff972	-0.3437
35	0x3c960e67	0.018317414
36	0xbc580f00	-0.01318717
37	0xbe86858c	-0.26273763
38	0xbe821972	-0.25410038
39	0x3cb0eced	0.02159735
40	0xbe2f454a	-0.17116275
41	0xbe091ed8	-0.13390672
42	0xbe722084	-0.23645216
43	0xbe5f2c4a	-0.21794239
44	0xbe31db8d	-0.17368908
45	0x3d616408	0.055027038
46	0x3cc1a101	0.023636343
47	0xbe892ee8	-0.267936
48	0xbd22a7ed	-0.039710928
49	0xbc795a94	-0.015219349
50	0xbeb1c2e1	-0.34718993
51	0x3e01647e	0.12635991
52	0xbe38bbdd	-0.18040414
53	0xbdc7d55c	-0.09757492
54	0xbe8705b9	-0.26371554
55	0x3e79b776	0.24386391
56	0x3e45679b	0.19277804
57	0xbb4f85f8	-0.0031665545
58	0x3f12c55a	0.57332385
59	0x3de964f2	0.11396207
60	0xbd81186c	-0.06303486
61	0x3d6ec6be	0.058295004
62	0xbe329af7	-0.17441927
63	0x39aad743	0.0003258531
64	0x3dbfffe2	0.09374978
65	0xbd4431f3	-0.047899198
66	0x3de908da	0.113786414
67	0x3eaba9e1	0.33528045
68	0x3c7fb54e	0.015607191
69	0xbeabd939	-0.33564165
70	0x3e03d045	0.12872417
71	0xbbea10ae	-0.0071431017
72	0x3cab1979	0.02088617
73	0xbe946d06	-0.28989428
74	0xbea92f2c	-0.33043802
75	0xbe0461a7	-0.12927876
76	0x3eb616b7	0.35564205
77	0x3e4fbb41	0.20286275
78	0x3d8cd8bc	0.06877276
79	0xbdbbde8b	-0.09173306
80	0x3d19f1d5	0.037584145
81	0xbd449e8b	-0.04800276
82	0x3e589ae3	0.21152835
83	0xbeb930ac	-0.36169946
84	0xbd3d1183	-0.04615928
85	0x3d987f28	0.07446128
86	0x3cce3c18	0.02517514
87	0xbdd5e2da	-0.10443659
88	0xbce7f1c1	-0.02831352
89	0x3a921fc0	0.0011148378
90	0x3ce7d507	0.028299822
91	0x3e723c7d	0.23655887
92	0xbdb41f09	-0.08794982
93	0x3dba1061	0.09085155
94	0x3bf2708e	0.0073986715
95	0x3c5d8a16	0.013521692
96	0x3d27dc19	0.040981386
97	0x3e7fc3f7	0.24977098
98	0xbe4ab619	-0.19796027
99	0x3d6da3f4	0.058017686
100	0xbea3fe42	-0.3202992
101	0x3d844cfe	0.064599976
102	0x3e70d539	0.23518838
103	0x3cb05f23	0.02152974
104	0xbe2ad8c2	-0.16684249
105	0x3bc34ee2	0.0059603313
106	0xbdbbcbd9	-0.0916974
107	0xbc0d431f	-0.00862196
108	0x3ca68e34	0.02033148
109	0xbcd49896	-0.025951665
110	0x3e57ec45	0.21086223
111	0xbe5aa54d	-0.2135212
112	0xbe2f470f	-0.1711695
113	0x3dc219dc	0.094775885
114	0x3e3652d0	0.17805028
115	0xbd788ac6	-0.06067922
116	0xbe7f7752	-0.24947861
117	0x3e3b72aa	0.1830546
118	0xbd178268	-0.0369896
119	0xbd9c37bf	-0.0762782
120	0xbe9359e2	-0.28779513
121	0xbe233753	-0.15939073
122	0x3e86a270	0.26295805
123	0x3e18d30c	0.14924258
124	0x3e421b3b	0.189557
125	0x3e55e4a4	0.20888
126	0xbc109c94	-0.008826394
127	0xbe919f2e	-0.28441757
128	0x3e848fa4	0.2589084
129	0x3db460b5	0.08807508
130	0x3d90e9f1	0.07075871
131	0xbe8d7826	-0.27630728
132	0x3dc2e7c5	0.09516863
133	0x3e76308b	0.24041955
134	0x3e807495	0.25088945
135	0xbd5c024a	-0.05371312
136	0x3ddb9b27	0.10722952
137	0xbf0cd262	-0.5500852
138	0x3c54ed56	0.012996038
139	0x3ccaa221	0.024735512
140	0xbcc7e71f	-0.0244022
141	0xbe5cf5ba	-0.21578112
142	0xbeb45466	-0.3522064
143	0xbd37e106	-0.044892333
144	0x3e59c3e3	0.21266131
145	0x3d302c41	0.043010954
146	0x3dda4932	0.10658492
147	0xbcacf06b	-0.021110734
148	0x3dc325a1	0.095286615
149	0x3ddc446e	0.107552394
150	0x3dfe652a	0.12421639
151	0xbe43b204	-0.19110876
152	0xbc4378a5	-0.011930619
153	0xbc62c437	-0.013840727
154	0x3e0932d3	0.13398294
155	0xbcd2cdfe	-0.02573299
156	0x3d749ec3	0.05972172
157	0xbe57c23e	-0.21070191
158	0x3c392f2e	0.011302752
159	0x3d89ce76	0.067288324
160	0x3ca6ccd9	0.02036135
161	0xbdd8b9d1	-0.10582317
162	0x3cbfdc47	0.023420466
163	0x3e403030	0.18768382
164	0xbcaeb63a	-0.021327127
165	0xbe4a3457	-0.19746529
166	0xbd372c9c	-0.044720277
167	0xbd808f24	-0.06277302
168	0xbd3add37	-0.045621123
169	0xbd898bca	-0.06716116
170	0x3af43f56	0.0018634598
171	0xbc44d2a3	-0.01201311
172	0xbdee5a23	-0.11638286
173	0xbe6f215b	-0.23352568
174	0xbd9394f1	-0.07206143
175	0xbe44c101	-0.1921425
176	0xbd8a11dd	-0.067416884
177	0x3e1a239e	0.1505265
178	0x3dab57e5	0.08366374
179	0xbd6a014c	-0.057130143
180	0xbcda0cab	-0.026617369
181	0x3e6130f2	0.21991327
182	0x3b283e52	0.0025671911
183	0xbe9c7107	-0.30554983
184	0xbe4832c0	-0.1955061
185	0x3e4c88fd	0.19974132
186	0x3e315695	0.17318185
187	0x3e2b715e	0.16742465
188	0x3dea047f	0.11426639
189	0x3ca2be1d	0.019866044
190	0x3e28d081	0.16485788
191	0xbe3861d9	-0.18006076
192	0x3e54e681	0.20791055
193	0xbeadb84d	-0.33929673
194	0xbc8f4f7f	-0.017493961
195	0xbd7ec64d	-0.062200833
196	0x3d2b9b95	0.04189642
197	0x3e699a8a	0.22812858
198	0xbe46e616	-0.19423708
199	0x3e030812	0.12796047
200	0x3c924f6d	0.017860139
201	0x3e0d4eaf	0.13799547
202	0xbda567fb	-0.08076473
203	0xbe7d379d	-0.24728246
204	0x3df537c9	0.11973531
205	0x3e2c4e13	0.16826658
206	0xbdc0ecb2	-0.09420146
207	0xbdd6d4c4	-0.104898006
208	0xbb91e320	-0.0044521242
209	0x3dbabd40	0.09118128
210	0x3e3f7098	0.18695295
211	0xbe2177e4	-0.15768391
212	0x3cc4d347	0.024026526
213	0xbe05d6ca	-0.13070217
214	0x3df37970	0.11888397
215	0x3dc476fe	0.095930085
216	0xbe865a5b	-0.2624081
217	0xbe108fec	-0.14117402
218	0xbd12056f	-0.035649713
219	0xbbaa41ad	-0.0051958174
220	0x3d9e66b0	0.0773443
221	0x3e8ecc54	0.27890265
222	0xbec7b579	-0.3900564
223	0xbdc53cce	-0.09630738
224	0xbe85ee10	-0.2615819
225	0xbe872599	-0.26395872
226	0xbec333a1	-0.38125327
227	0x3e4295c3	0.19002442
228	0xbe9c4851	-0.30523923
229	0xbc68105e	-0.0141640585
230	0x3e022ef1	0.12713219
231	0xbe00d579	-0.12581433
232	0xbdb09df7	-0.086238794
233	0x3d017c41	0.03161264
234	0x3e44ac0c	0.19206256
235	0x3c7fca9a	0.015612269
236	0xbebf9c15	-0.3742377
237	0x3e6ebee0	0.23315
238	0x3ddb73de	0.10715459
239	0xbdec1584	-0.11527541
240	0xbe3e35fb	-0.1857528
241	0xbe4ee706	-0.20205316
242	0x3e451810	0.1924746
243	0x3dcb1080	0.099152565
244	0x3e1097ed	0.14120455
245	0x3e41fe6b	0.18944709
246	0x3e3634c6	0.17793569
247	0xbdd3f03f	-0.10348558
248	0x3e090dce	0.13384172
249	0xbc46f687	-0.012143738
250	0x3e8c017a	0.27344877
251	0xbe2c9c51	-0.16856505
252	0xbeb363ab	-0.35036978
253	0x3daf6b54	0.08565393
254	0x3e44c191	0.19214465
255	0x3d8eacd7	0.0696656

l1.bias f4 [8]
0	0x3f2ddc22	0.6791402
1	0x3f0d631a	0.5522934
2	0x3f83e31f	1.0303687
3	0x3ee1bb1e	0.44088072
4	0x3f37cc90	0.7179651
5	0x3fa63a9d	1.2986637
6	0x3f7cbcd7	0.98725647
7	0x3ef09798	0.46990657

l2.weight f4 [5, 8]
0	0xbf5110d5	-0.8166631
1	0x3faaa2e3	1.3330959
2	0xbfa028f7	-1.2512501
3	0xbfb7b5ea	-1.4352391
4	0xbf803459	-1.0015975
5	0x3ea00248	0.3125174
6	0xbfa5637f	-1.2920989
7	0x3f9f9012	1.2465842
8	0xbfd86087	-1.6904458
9	0x3f3219f1	0.69570833
10	0xbfb13217	-1.3843411
11	0xbda24433	-0.07923164
12	0xbfd27fff	-1.6445311
13	0xbfe4f896	-1.7888362
14	0x3fc86f85	1.5659033
15	0x3f8a8ded	1.0824562
16	0x3f818f1d	1.01218
17	0x3d755b6b	0.059901636
18	0x3fdf0984	1.7424779
19	0xbfe1b999	-1.7634765
20	0x3fab50e1	1.3384057
21	0xbf7140d2	-0.9423953
22	0xbe8bf974	-0.27338755
23	0x3f1ee368	0.62065744
24	0x3f4c2657	0.79746
25	0xbfc60679	-1.5470725
26	0xbf0aff42	-0.5429574
27	0x3fedf731	1.8591062
28	0x3f37a556	0.7173666
29	0xbf24c26a	-0.6435915
30	0x3f17ee96	0.5934843
31	0xbfcc8a09	-1.5979625
32	0xbfd22319	-1.6416961
33	0xbfcf70c9	-1.6206294
34	0xbea59250	-0.3233819
35	0xbffb1224	-1.9614911
36	0xbf93796e	-1.1521432
37	0x3ffc86d2	1.9728644
38	0x3ec3ecc7	0.38266584
39	0xbfda0a28	-1.703435

l2.bias f4 [5]
0	0xbf15fae8	-0.5858598
1	0x3ee8cb0b	0.4546741
2	0xbf171345	-0.5901378
3	0xbec86a68	-0.39143682
4	0x3f78b2b1	0.9714766
