train/data.pth (torch, 119807 bytes, 4 tensors)

l1.weight f4 [8, 2478]
00000000: 71f1 65bb 2811 073c f44c d3bc 401f a13d
00000010: 251d d5bc 8541 9cbb b782 dd3d f219 2f3e
00000020: 740b b6bd 4aea 60bd aa1f b781 cc61 043e
00000030: f823 2d3e 1064 5d00 f2ee 9fbc a429 33be
00000040: 9993 98be 7558 aebe 3d9c 8d3e ecc8 313e
00000050: 98ec acbe ed19 35be c73c 1c3e 94ed 00be
00000060: 1fde e0bd f3a5 ebbd b907 2abe cc14 24be
00000070: 5730 a33c 2eed 98bd ed17 bebd a97e 3a3e
00000080: c3bb 0bbe f0f9 8dbd 42b2 9481 c076 5b00
00000090: 5051 d100 bcec d3bc b0bb fc80 4007 5d01
000000a0: 791a d3bc c317 d4bc 5f5a d3bc 90ee 4b01
000000b0: a42c d3bc 4681 893d 8420 cbbc 1a6e b8bd
000000c0: 1129 8381 b8e8 7c01 7487 8a01 96b3 8881
000000d0: 5566 8c81 ace7 1fbe 2cc3 e9bd 5fba a2bc
000000e0: a038 073d 2c91 6801 44b9 353e 9472 f1bc
000000f0: 7497 38bd 92d5 2abe f88f 853e 7710 97bc
00000100: 9d81 c5bb 307f 29be 52f1 eabd 982e 4a81
00000110: 4275 13be afa3 bfbc 2b25 993e 9556 77bd
00000120: b4a5 1180 0717 37be 41ab 8d3b ef52 33bc
00000130: 543c 04be d874 2280 0467 2dbd 68dd 5dbe
00000140: 9b69 1bbd 9aa2 5abe 9083 20bd d76d 91bd
00000150: 1ff3 703e c09a a03e d510 6b3e 5bcf 1f3e
00000160: 055e 37be 9b23 f2bd 6da4 cebc 9878 5d3e
00000170: 502a 10bd 0c6e 1a00 fc53 6b01 5d30 b4bd
00000180: 88f9 c680 5809 39be 303a 34bc 11f8 41be
00000190: e81b d280 50db 2cbd f539 ebbc 60d6 71bb
000001a0: 1765 3bbd a406 4001 e111 13bd ba5d 7901
000001b0: e8a2 3000 e3a0 4ebd 5393 54be be8b 40bc
000001c0: ecc5 3280 5158 c03b eee9 13bd 4081 4280
000001d0: 587a a100 a1c2 aa01 189b 34be 6c33 23bd
000001e0: f7cd e4bc d0aa f63b 9f59 17be c0db 3e81
000001f0: 42aa ecbc 651b afbd b8d6 6a00 de54 4dbe
00000200: 5a1b 74bd 1e9b cbbc 1d3c 08bc b8e8 4201
00000210: 85cd fabd 1275 9681 e798 d6bd 098b 0cbc
00000220: 02c1 51be ae20 28bd 129a 9e81 a327 06be
00000230: fcee 2a81 8442 80bd dac0 b1bc c5ea cbbe
00000240: c347 cdbd 2a1e 3bbd aa7b b6bd 8c2d 68bd
00000250: 8da4 aa39 a12f 01bb 8243 2ebe ac40 0cbe
00000260: 7ae4 e3ba 38f4 afbb a68d 39bc c24b 953e
00000270: bc24 6280 745b 15bc d996 703d 278e dd3d
00000280: c8c5 1dbe 3c91 3100 6c44 6c81 5093 5700
00000290: 482e 72bb 5037 ae00 0938 723e 9a9f 5cbe
000002a0: c731 f93e e021 bf00 8c4b 0abe d4a7 1c3f
000002b0: 653c e3bd 50ad ca00 34b9 353e c917 00be
000002c0: 06bf 9bbc f91c 05be 99b7 363e b95a a3bc
000002d0: e50e 713e f0c2 87be cfc1 22be 9d6a 8cbe
000002e0: 054c 51bd 7a79 80be f0d4 223e 30ab 9cbd
000002f0: aad1 203e 5d39 b43e a792 c2bc c878 213e
00000300: d233 e1bd c35f 833e 3b18 b7bc 57ab a2bd
00000310: 3e97 81be d08b a73e 7404 9e01 9ced a73d
00000320: c0f3 c980 a6fb 2ebe 5af8 67be 40c2 4700
00000330: 26d3 163e fed8 5b3e 2934 66bd 9055 1280
00000340: 04da 4a01 4119 a03d abe1 2e3e eb34 6f3e
00000350: da5c 4f81 1c21 153e 0b9a aabd 3630 3fbe
00000360: 6484 3a3d 3d78 63be 01f6 47bd 906b 8781
00000370: ab6a 413e 2337 193e 2b97 3cbe 55da acbb
00000380: b0ab 85be 7c61 6bbd 497c e1bd e768 a63e
00000390: 915e 27bd e6a4 2dbe 18db 4200 80e4 9a3e
000003a0: 054a cfbe 6e75 fdbd 91f0 7c3d f455 29bb
000003b0: e66b ae81 2eef 023e 6c96 163e 0d78 913d
000003c0: 9067 073e 0056 9d80 14ec 1cbb 1f98 babb
000003d0: daa4 aabc e9ab a5be 3f0d 8dbd f56c 0cbe
000003e0: b1a0 b53e 86c4 1c3e 9ab4 953d 5e16 a237
000003f0: 3253 adbb e72b 54be d7a5 7bbd 12b1 7cbe
-0.0035086537 0.008243836 -0.02579353 0.078672886 -0.026014874 -0.0047685527 0.108159475 0.17099741
-0.08888903 -0.054910935 -6.726902e-38 0.12927932 0.16908252 8.576597e-39 -0.019523118 -0.17496353
-0.29800108 -0.34051862 0.27658263 0.17361802 -0.33774257 -0.17685671 0.1525756 -0.12590629
-0.10979866 -0.11506262 -0.16604508 -0.16023558 0.019920511 -0.074671134 -0.09281907 0.1821238
-0.13645844 -0.069324374 -5.46224e-38 8.39963e-39 1.9222788e-38 -0.02586972 -2.3209875e-38 4.059649e-38
-0.02576946 -0.025890237 -0.025799928 3.7456372e-38 -0.025778122 0.0671411 -0.024795778 -0.09005375
-4.818073e-38 4.6452058e-38 5.088756e-38 -5.0216203e-38 -5.1574717e-38 -0.1561572 -0.11414179 -0.01986426
0.033012986 4.2715826e-38 0.17746454 -0.02947358 -0.045066312 -0.16683033 0.26086402 -0.018440468
-0.006027414 -0.16552424 -0.114718094 -3.713497e-38 -0.14400199 -0.02339348 0.2991117 -0.060385305
-1.620647e-39 -0.17879878 0.0043233936 -0.010945066 -0.12913638 -3.164323e-39 -0.04233457 -0.21666491
-0.03794251 -0.2135109 -0.039187968 -0.071010284 0.23530243 0.31368065 0.2295564 0.15606444
-0.1790696 -0.118231975 -0.025224889 0.21628034 -0.035196602 2.4272e-39 4.322294e-38 -0.08798287
-1.8272943e-38 -0.1806997 -0.011000201 -0.18942286 -1.9295465e-38 -0.04220134 -0.02871416 -0.003690146
-0.045750704 3.5269595e-38 -0.035905723 4.5801323e-38 4.466544e-39 -0.050446402 -0.20759325 -0.011752067
-4.662776e-39 0.005869903 -0.036111765 -6.107509e-39 1.4829404e-38 6.2727416e-38 -0.17637289 -0.03984396
-0.027930243 0.0075276867 -0.14780281 -3.5055151e-38 -0.028889779 -0.08550147 9.811589e-39 -0.20051906
-0.059596397 -0.02485424 -0.008315113 3.579914e-38 -0.12246231 -5.5269285e-38 -0.104783826 -0.00857807
-0.20483783 -0.04104679 -5.8261114e-38 -0.13101058 -3.1395532e-38 -0.06262687 -0.021698404 -0.39827552
-0.10023453 -0.045683064 -0.08910306 -0.056684062 0.00032547527 -0.0019712227 -0.1701794 -0.13696545
-0.0017386817 -0.0053696893 -0.0113252755 0.2915936 -9.013056e-39 -0.009116042 0.05873761 0.10818129
-0.15407479 4.55204e-39 -4.3395444e-38 8.042534e-39 -0.0036953855 1.5999219e-38 0.23654188 -0.21545258
0.4867079 1.7552732e-38 -0.13505381 0.61193585 -0.11095504 1.8612943e-38 0.1774643 -0.12509073
-0.019011986 -0.12999333 0.17843474 -0.01994072 0.23540838 -0.26515913 -0.15894245 -0.2742509
-0.05109789 -0.2509268 0.15901542 -0.07649839 0.1570498 0.35200015 -0.02375157 0.1576873
-0.10996212 0.25658998 -0.022350421 -0.07942837 -0.253107 0.32723856 5.8046423e-38 0.08199617
-1.8546376e-38 -0.17088184 -0.22653332 6.590004e-39 0.14728984 0.21469495 -0.056202088 -1.683733e-39
3.725796e-38 0.07817317 0.17078273 0.2336003 -3.8086513e-38 0.14563411 -0.083301626 -0.18670735
0.045536414 -0.22213836 -0.048818592 -4.974551e-38 0.18888347 0.14962439 -0.18417041 -0.0052750506
-0.2610755 -0.057466015 -0.11010034 0.3250191 -0.04086167 -0.16957435 6.139739e-39 0.30252457
-0.4048616 -0.123759136 0.06175286 -0.0025838586 -6.407233e-38 0.12786552 0.14705819 0.07102976
0.132231 -1.4449024e-38 -0.0023944424 -0.005694404 -0.02083056 -0.3235772 -0.06887292 -0.13713439
0.3547416 0.15309343 0.07309838 1.932232e-05 -0.0052894587 -0.20719872 -0.061437454 -0.24676922

l1.bias f4 [8]
00000000: 0a8b 443f 95be 463f b419 483f bbf9 9a3e
00000010: ca4d d93e 97e3 183f ddab 213f 0320 ce3e
0.76774657 0.77634555 0.7816422 0.30268654 0.4244216 0.59722275 0.6315287 0.40258798

l2.weight f4 [6, 8]
00000000: 42e7 b13f f865 81bf ac12 333f bd99 b7bf
00000010: c3a9 2c3f 0c1b a2bf 0655 47bd df80 033f
00000020: 1b33 133f 55ca 2f3f d1ab abbf d1e2 393f
00000030: 1f5f 693f a7b5 8fbf 3929 7dbf 6987 7fbf
00000040: edb6 92bf 1595 9ebf ccbb b3bf 201c 55bf
00000050: 8300 7c3f cc76 853f c316 77bf f927 7a3f
00000060: 926a 22bf cc48 a13f c137 2e3d 0bd6 35bf
00000070: 0a24 9bbf ce98 623f 6887 7bbf f5e6 4cbf
00000080: 85cf 9cbf 084d 82bf 394c babf ca35 2ebf
00000090: 5c0d 81bf f00d 2dbf bc5d 893f c02b 6fbf
000000a0: c54a 4dbf 4a2b 6bbf e359 5f3f 8c73 c13f
000000b0: 1f2d 46bf 9dcf 53bf b249 68be e7a1 163f
1.3898699 -1.0109243 0.69950366 -1.4343792 0.67446536 -1.2664504 -0.04866507 0.51368517
0.57499856 0.6866811 -1.3411809 0.7261172 0.9116077 -1.1227311 -0.98891026 -0.99815995
-1.1462075 -1.2389246 -1.4041686 -0.8324604 0.9843828 1.0426879 -0.96519107 0.97717243
-0.63443863 1.2600341 0.04253364 -0.7102973 -1.2120373 0.8851441 -0.9825349 -0.8003991
-1.225083 -1.0179758 -1.4554511 -0.68050826 -1.0082202 -0.6759939 1.073173 -0.9342613
-0.80192214 -0.9186293 0.8724653 1.5113387 -0.774126 -0.8273867 -0.22684363 0.58840793

l2.bias f4 [6]
00000000: 16f2 2f3e 9848 abbe f78b 283e eb23 dd3e
00000010: 09ae 603f 5505 91be
0.17182192 -0.33453822 0.16459642 0.43191466 0.87765557 -0.2832438
