train/data.pth (torch, 62712 bytes, 4 tensors)

l1.weight f4 [8, 1285]
00000000: ba94 20bd d8bf c6bd 1a2f 72be e636 82bc
00000010: 3e5c 2cbd 7e63 313c 3ff3 70bd 8f41 cb3e
00000020: 4ef6 093c df9a b33d bed0 d13b 8024 bfbe
00000030: 7181 dabc 7a0f 40bd 50b2 c7ba 4e0f d9be
00000040: d7cf 94be 1c81 2bbe 16db b3bc c0e8 79be
00000050: 21a0 1abd bb48 06be 3d5a a2be ff6d b1bc
00000060: 6655 1fbe abf6 cbbe 73cd 743e a231 62be
00000070: abf2 27be b860 4cbe f1b7 9ebe 82b9 783c
00000080: 30ad 9abc 3396 8c3e 3a36 eabe 0c00 523e
00000090: 75d6 dc3d 5102 14be 6fca 81bd 5c6c 91be
000000a0: ad6a 3dbd 7202 9dbe a09a 2f3e 8d49 39bd
000000b0: ba1b 60be 7733 6cbe 6ee3 0d3e d3b7 27bf
000000c0: 988d 833e 289d 7e3e 53c4 89bd 96fb a7bd
000000d0: 06ba b13e 1908 8cbe b0a9 d23d 2470 3b3f
000000e0: f296 aebd 6d91 97be 8c2d 86bd c8fc b43e
000000f0: 7928 723e cefd 893e 8809 edbd f62b 883b
00000100: 7c30 083f c64b 023e 7c65 f2bb 54de 3abe
00000110: 081b 56be 28d5 89bd 3fb2 d5bd c6f0 7abe
00000120: d196 5dbe 9404 2abc 5df8 9b3d 3dc5 30be
00000130: 0a98 2abe 0303 9e3d 40f8 713e 5f3e 5b3e
00000140: 0629 a7be 2b72 b43c a8a2 29be e655 ea3d
00000150: 60ab 40be 9f53 72bb 100e 5ebe 0fc7 0b3e
00000160: ab81 953e 1f4e 6f3e 2c2c 0abe 2db0 d53d
00000170: 4167 34be a08e 113e 905e ae3e 15a4 30be
00000180: 15c8 01bf 3d5f 32be 056b 833e 0722 6cbe
00000190: 7994 88be 0343 75bd 3b5e c2bd 6f53 a83c
000001a0: 02dd d33d e4ee d23d 7d8b 9bbe dbb3 21be
000001b0: 90db a0be c10b 63be 36e2 a4bc 710d 23be
000001c0: 23d0 b4bd 6104 813e b68f 8f3e f0f3 b6be
000001d0: 7a95 843e 97d6 a63d e271 d13d d364 8f3e
000001e0: e762 693e 76c4 5a3c 4de1 a23c 98f2 bcbe
000001f0: 6565 a33e cc89 92be e37f 26bf 7193 80bd
00000200: 7b0c 0bbf 2530 a53e 2711 763e 9528 0abe
00000210: 3c35 433e 2bf8 28bf dc40 babd 9ab4 0e3e
00000220: f3ca a4be 1d85 77be 80d1 b93d a53d a13e
00000230: 0b36 75bd b1cb 26be 8990 3dbe fc32 d1bc
00000240: d8da 703e 5032 813e 9251 76be fa6c 44bd
00000250: 61c1 1ebe a0b8 30bd a67d ee3b 0346 8bbd
00000260: 9c72 d83b bf42 64be d585 09bd 61ee 37be
00000270: 9ec5 163e 8ccd 623e 5846 193e dcec 95bd
00000280: da83 383e f35e 1d3e da82 aebc fa60 7dbd
00000290: 8e87 8bbe 636b a53e e791 b4bd 533f a1be
000002a0: 216d ddbe 2863 88bd 3442 4bbc 72f5 623e
000002b0: 421b 6abe 25cd 8cbd 4e96 97be 53f9 82be
000002c0: 5ded a63e 0e7b 88be d970 06bf b282 82be
000002d0: 161d 613e 4392 d2be a971 20be 3b95 12bf
000002e0: c46f a9bd dd32 153e 2369 7d3e a718 eebc
000002f0: f7be 9e3e c066 3cbc e128 823e 6156 253e
00000300: 9d0f 023e 9835 40be 9f93 873e 1b26 86bd
00000310: 080c 8dbe e344 e3bc f567 1fbc a836 21be
00000320: c1b6 78be 4c9a a0bd 7359 a0be b169 6fbe
00000330: 687d b5bd cc6f 8bbe 3374 14be 54b0 d53b
00000340: e235 af3c 095b d9bc bd5d 7f3d d9c6 eabe
00000350: 4b90 cfbe 718f 13bf cec1 753e 8afa a03e
00000360: 39fb a73e 84de a3be 7967 ccbd 4c91 363e
00000370: 69e6 c7bd efd8 633e 4d55 873e b60d b43e
00000380: 2128 8cbe f950 9cbe 724e 82be fb69 873e
00000390: b318 babd 7862 a4be 6d75 8a3e f87b cdbc
000003a0: 81df 7c3e 8900 0bbd 5048 3fbd 599f 7b3e
000003b0: facc 87be c482 a6be 912e babd 36ea 343e
000003c0: 6cb4 c2be 203d e0be 6725 08bf 442f 6abe
000003d0: 1ede 0dbe db49 383e f47b ea3d 38ea 95be
000003e0: c8ca 89be c4f2 2ebc e3ca 6abe b889 6bbe
000003f0: ab65 103f eebb 0c3e c739 383e a433 843e
-0.039204337 -0.0970456 -0.2365078 -0.015895318 -0.042080157 0.010826943 -0.058825728 0.39698455
0.00842054 0.08769774 0.006403058 -0.37332535 -0.02667305 -0.04688976 -0.0015235636 -0.4239449
-0.2906482 -0.1674847 -0.021955054 -0.24405193 -0.037750367 -0.13113682 -0.3170947 -0.021658896
-0.1555992 -0.3983663 0.23906498 -0.22089246 -0.16401164 -0.1995877 -0.3099971 0.015180947
-0.01888141 0.27458343 -0.45744497 0.2050783 0.10783092 -0.14454009 -0.06337439 -0.28402984
-0.046244312 -0.30665928 0.17148829 -0.04523616 -0.21885577 -0.23066507 0.13856289 -0.6551487
0.25693965 0.24864638 -0.06726899 -0.08202283 0.34712237 -0.27349928 0.102862716 0.7321799
-0.08524884 -0.2960314 -0.06551656 0.35349107 0.23648252 0.2695145 -0.115740836 0.004155631
0.5319898 0.12724218 -0.007397352 -0.18248874 -0.20908749 -0.067301095 -0.10434388 -0.2450591
-0.21639563 -0.010377068 0.07615731 -0.1726274 -0.16659561 0.07715418 0.23629856 0.21410511
-0.32648486 0.022027096 -0.16565955 0.11442165 -0.18815374 -0.0036976112 -0.21685052 0.13650154
0.2920049 0.23369645 -0.13493413 0.104339935 -0.17617513 0.14214563 0.3405652 -0.17250092
-0.50695926 -0.17419143 0.25667587 -0.23059855 -0.26675776 -0.05987836 -0.09490629 0.020547597
0.10344888 0.10299471 -0.3037986 -0.15791266 -0.31417513 -0.22172453 -0.020127397 -0.15923096
-0.088287614 0.25198653 0.2803933 -0.35732985 0.25895292 0.081463985 0.102267995 0.2800661
0.22791635 0.013352504 0.019882822 -0.36903834 0.31913295 -0.28620756 -0.6503889 -0.06278122
-0.5431592 0.32263294 0.2402998 -0.13492043 0.19063276 -0.66003674 -0.09094402 0.13936082
-0.32186088 -0.24171872 0.09073162 0.31492344 -0.059865993 -0.1628864 -0.18512167 -0.025537007
0.23520982 0.25233698 -0.24054554 -0.04795549 -0.15503456 -0.043144822 0.007278162 -0.06800463
0.0066054594 -0.22291087 -0.033574898 -0.17962028 0.14723822 0.22148722 0.1496824 -0.07320568
0.18019047 0.15368252 -0.02130263 -0.061860062 -0.27251858 0.32308492 -0.08816891 -0.31493625
-0.4324732 -0.066595376 -0.012405921 0.22163942 -0.2286196 -0.06875066 -0.2960686 -0.25580844
0.3260297 -0.26656383 -0.5251594 -0.25490338 0.21983752 -0.41127214 -0.15668358 -0.5725896
-0.08273271 0.14570184 0.24747138 -0.02906449 0.3100507 -0.011499107 0.25421813 0.16146232
0.12701268 -0.18770444 0.26479813 -0.06550237 -0.27548242 -0.027742809 -0.009729375 -0.15743506
-0.24288465 -0.0784193 -0.31318244 -0.23380162 -0.0886181 -0.27233732 -0.14497451 0.006521264
0.021387998 -0.026532667 0.062345255 -0.45854834 -0.40539774 -0.5764075 0.23999712 0.31441146
0.32808855 -0.32005703 -0.09980673 0.17828864 -0.09760744 0.22250722 0.26432267 0.3516671
-0.27374366 -0.30530527 -0.25450474 0.26448044 -0.09086742 -0.32106376 0.27042714 -0.025083527
0.24694635 -0.033936057 -0.046699822 0.24572505 -0.26523572 -0.3252164 -0.09090913 0.1766747
-0.38028276 -0.43796635 -0.5318207 -0.22869593 -0.13854262 0.17996924 0.114494234 -0.29280257
-0.26912522 -0.010677997 -0.22928958 -0.23001754 0.56405133 0.13743564 0.1799079 0.2582065

l1.bias f4 [8]
00000000: 8012 613f 25ea f13e 0919 633f 713e 103f
00000010: 8f05 af3e 3d15 773e 2e01 413f dca2 5f3e
0.87918854 0.4724895 0.88710076 0.5634528 0.34183928 0.24129196 0.75392425 0.2183947

l2.weight f4 [4, 8]
00000000: 03f1 5c3f 8e9f 7b3f 2323 9bbf fbd8 7bbf
00000010: 84f1 893f 0066 84bf 0813 8bbf 469c 8abf
00000020: de2d 99bf 09eb 79bf 1f90 2b3f cb2f a6be
00000030: 29e7 8c3f 23ff 913f aeeb 98bf 4f7d 9f3f
00000040: fc15 a93f a5b9 83bf 795e ae3f f1b2 5abf
00000050: 59b8 97bf 42f5 a5bf 851a 2d3f 8a08 aebf
00000060: b57a ccbf 3c63 44be a038 d3bf a7eb 983f
00000070: 1506 5fbd fc64 9cbf 1f8f 9b3f f7a6 a3bf
0.86305255 0.98290336 -1.2120098 -0.9837796 1.077683 -1.0343628 -1.0865183 -1.0828941
-1.1967123 -0.9762426 0.67016786 -0.32458338 1.1008044 1.1405987 -1.1946924 1.2460116
1.3209834 -1.0291029 1.3622581 -0.8542929 -1.1853133 -1.2965472 0.6761859 -1.3596356
-1.5974947 -0.1917848 -1.6501656 1.1946915 -0.05444916 -1.2218318 1.2153052 -1.2785329

l2.bias f4 [4]
00000000: 0864 e6bc 4805 edbd dd01 efbc 802f 583e
-0.02812387 -0.11573273 -0.029175693 0.2111187
