train/data.pth (torch, 104760 bytes, 4 tensors)

l1.weight f4 [8, 2170]
-0.012988852 -0.13181973 -0.105697505 0.38109064 6.4948574e-05 0.13045603 -0.005117502 0.11336398
-0.006435789 -0.12339067 -0.0745804 0.20300259 0.2281937 0.5776903 0.1676813 0.23531148
-0.47485843 -0.43622574 -0.8868134 -0.72431463 -0.6199221 -0.68423414 -0.012967234 -0.8128583
0.006812265 0.0017724223 0.006077802 -0.0072330507 0.0007833913 -0.012186418 -0.010166758 -0.0061337687
-0.0114216795 -0.01798656 -0.27825344 0.0016998369 -0.40731767 -0.077737354 -0.2519496 -0.05363655
0.020000922 -0.037330516 0.18743104 -0.05709995 -0.56430453 -0.35708863 -0.047862712 0.14817202
-0.32543895 -0.2320523 -0.24420196 -0.40469736 -0.007786462 0.017156342 -0.5482753 -0.3088944
-0.15434149 -0.4860444 0.11519975 -0.0027291868 -0.09298157 -0.5362835 0.012669696 -0.24927755
-0.37594032 0.0068343943 -0.1322837 -0.46371788 -0.027635036 -0.67242336 -0.36286545 0.10570648
0.049301248 0.11489749 -0.4035506 -0.34085134 -0.6260576 -0.061160743 -0.09966228 -0.13949542
-0.08516495 -0.8095135 -0.045873374 -0.48227188 -0.0036556944 -0.46716264 -0.045245986 0.00056290254
0.016743435 -0.0029774595 -0.19471927 -0.13118635 0.0048513915 -0.573532 -0.19150376 -0.0004329104
0.27183342 -0.1915242 -0.0663947 -0.08914186 -0.021039134 -0.2566247 -0.51245064 -0.048249017
0.010565715 0.26825672 0.34876296 -0.0728772 -0.17733447 -0.056634832 -0.56876075 -0.18555759
-0.13178025 -0.07391781 0.0010630507 -0.41940472 0.00019638278 -0.11167587 -0.12328378 -0.38912657
-0.07656347 0.00055887736 -0.5150778 -0.026552314 -0.73294926 -0.19813521 -0.57870317 -0.0657743
-0.18058491 -0.18583262 -0.14250277 0.105531745 0.09647332 -0.26522788 -0.21179378 -0.0049614105
-0.495322 0.006748721 0.2744548 -0.0428516 0.003573116 0.26821616 -0.5071743 -0.025029276
-0.08297221 -0.05289845 0.011226045 -0.110262275 0.24038497 -0.497651 -0.2914718 -0.03436427
-0.21978785 -0.35231668 -0.36738977 -0.10324573 -0.34333247 0.1649206 -0.19436309 -0.012393733
-0.16685064 -0.1022039 0.14131474 -0.023220794 -0.29492787 0.057201322 0.103752665 -0.4098873
0.30939564 -0.43986008 0.011650681 -0.33679998 -0.8702701 0.021320825 -0.47859147 -0.078185596
0.25382295 0.013393266 0.013386337 0.07500119 -0.26845425 0.06529342 0.38673845 0.1522295
-0.31992388 0.18263166 0.102748185 -0.019759167 -0.087384626 0.15924245 -0.010674355 -0.16237931
0.12933147 -0.34047788 0.3885769 0.044561595 -0.04889997 -0.18706454 0.2001873 -0.16626588
-0.026224904 -0.0827986 -0.20150213 -0.00868937 -0.18068303 -0.074004374 -0.12536296 0.36457652
-0.15511583 0.08073527 -0.0043242313 0.20346326 -0.024594245 -0.32627928 0.11935654 0.19010846
0.0009423454 -0.000296278 0.31755558 0.372311 -0.0043423288 0.037697982 -0.27682683 0.07596011
0.3331029 -0.22988884 -0.32877675 -0.01088629 -0.14103878 0.013772124 0.19275415 0.3555919
-0.15036935 0.14755763 0.084191896 -0.009008684 -0.02214355 0.04283237 -0.31485897 0.42822966
0.011082882 -0.10330969 0.20120436 -0.46621126 0.13296679 0.31384048 0.0011330359 -0.21167429
-0.16044497 -0.12344374 -0.20305187 -0.062123127 -0.10927221 0.046765126 -0.23794495 0.11267992
00000000: 32cf 54bc c0fb 06be ef77 d8bd 501e c33e
00000010: 0035 8838 4496 053e b8b0 a7bb 602b e83d
00000020: 50e3 d2bb 3fb4 fcbd 9cbd 98bd e9df 4f3e
00000030: 9cab 693e 83e3 133f a6b4 2b3e 7ef5 703e
00000040: a520 f3be fb58 dfbe 3406 63bf af6c 39bf
00000050: 37b3 1ebf f829 2fbf 8574 54bc 7b17 50bf
00000060: 6c39 df3b a050 e83a 4c28 c73b 3a03 edbb
00000070: 805c 4d3a 8ba9 47bc 7992 26bc c8fd c8bb
00000080: ff21 3bbc 8d58 93bc 3c77 8ebe 10cd de3a
00000090: f18b d0be c334 9fbd 8aff 80be 00b2 5bbd
000000a0: f9d8 a33c e2e7 18bd eced 3f3e a3e1 69bd
000000b0: 4376 10bf 52d4 b6be b10b 44bd 68ba 173e
000000c0: ef9f a6be 1e9f 6dbe 1410 7abe 7e34 cfbe
000000d0: 9425 ffbb 758b 8c3c c55b 0cbf 6827 9ebe
000000e0: b20b 1ebe d0da f8be d9ed eb3d 28dc 32bb
000000f0: 1f6d bebd e049 09bf 8e94 4f3c 9d42 7fbe
00000100: 407b c0be 0ef3 df3b 6175 07be 6e6c edbe
00000110: df62 e2bc f023 2cbf 80c9 b9be a47c d83d
00000120: 1bf0 493d 604f eb3d 2f9e cebe 1184 aebe
00000130: 5045 20bf b083 7abd bd1b ccbd e3d7 0ebe
00000140: f66a aebd 473c 4fbf b8e5 3bbd 57ec f6be
00000150: 6094 6fbb f12f efbe db53 39bd c08f 133a
00000160: 8729 893c 7b21 43bb 7d64 47be b755 06be
00000170: 6cf8 9e3b fed2 12bf 9019 44be 40f8 e2b9
00000180: c02d 8b3e eb1e 44be f2f9 87bd 0290 b6bd
00000190: 435a acbc 5064 83be f72f 03bf c3a0 45bd
000001a0: d21b 2d3c f258 893e 0f91 b23e a440 95bd
000001b0: 2b97 35be edf9 67bd 4e9a 11bf cf02 3ebe
000001c0: 67f1 06be 3962 97bd 1056 8b3a 37bc d6be
000001d0: 1aec 4d39 52b6 e4bd 357c fcbd 993b c7be
000001e0: 4fcd 9cbd a081 123a 24dc 03bf 3d84 d9bc
000001f0: 90a2 3bbf f5e3 4abe e425 14bf adb4 86bd
00000200: 40eb 38be e84a 3ebe 3fec 11be 0721 d83d
00000210: ce93 c53d f3cb 87be 78e0 58be 5493 a2bb
00000220: d89a fdbe 6024 dd3b 5785 8c3e 2985 2fbd
00000230: f02a 6a3b a153 893e 2dd6 01bf 320a cdbc
00000240: 56ed a9bd 0cac 58bd 72ed 373c 30d1 e1bd
00000250: 7a27 763e 1dcc febe cb3b 95be 8cc1 0cbd
00000260: 1110 61be da62 b4be 831a bcbe 7f72 d3bd
00000270: 46c9 afbe f2e0 283e 1e07 47be 150f 4bbc
00000280: e5da 2abe 4750 d1bd d0b4 103e 8939 bebc
00000290: c900 97be ef4b 6a3d 477c d43d c0dc d1be
000002a0: 1b69 9e3e 5735 e1be 7fe2 3e3c 0c71 acbe
000002b0: 05ca 5ebf 03a9 ae3c f109 f5be c51f a0bd
000002c0: 15f5 813e 6e6f 5b3c 5e52 5b3c 399a 993d
000002d0: d672 89be 8eb8 853d 9502 c63e 0de2 1b3e
000002e0: 10cd a3be cb03 3b3e a46d d23d fadd a1bc
000002f0: b6f6 b2bd 7410 233e 7de3 2ebc c346 26be
00000300: 786f 043e 1e53 aebe 8df3 c63e 3886 363d
00000310: 564b 48bd d98d 3fbe e6fd 4c3e 9a41 2abe
00000320: 9cd5 d6bc 5092 a9bd 9356 4ebe dc5d 0ebc
00000330: f904 39be 9b8f 97bd 265f 00be c6a9 ba3e
00000340: afd6 1ebe 8958 a53d 48b2 8dbb ac58 503e
00000350: df79 c9bc 140e a7be 3471 f43d cbab 423e
00000360: bb07 773a c355 9bb9 a596 a23e 8c9f be3e
00000370: 184a 8ebb 3369 1a3d 3fbc 8dbe f990 9b3d
00000380: 778c aa3e fb67 6bbe 6d55 a8be 695c 32bc
00000390: 786c 10be 7aa4 613c 5861 453e 2410 b63e
000003a0: 6cfa 19be 5919 173e cd6c ac3d 2999 13bc
000003b0: 6466 b5bc ff70 2f3d 3235 a1be eb40 db3e
000003c0: fa94 353c 0894 d3bd 8408 4e3e 3eb3 eebe
000003d0: 7228 083e b3af a03e 6082 943a 25c1 58be
000003e0: b04b 24be 12d0 fcbd d4ec 4fbe d274 7ebd
000003f0: 1cca dfbd ca8c 3f3d d7a7 73be bbc4 e63d

l1.bias f4 [8]
1.3695743 0.3450675 0.34777227 0.59548086 0.8086933 0.8645212 0.28587922 1.0364044
00000000: 364e af3f b0ac b03e 350f b23e 6f71 183f
00000010: 8606 4f3f 4351 5d3f c35e 923e e6a8 843f

l2.weight f4 [5, 8]
-0.3606072 -0.62048554 -0.35256594 1.0904645 1.3784899 -1.4748136 -0.49281996 -1.7050818
-1.8083769 -1.2012868 -1.0615492 1.0714537 -1.8475087 -0.3759813 -1.5346014 1.3625306
0.96683013 -0.88569796 -1.5195539 -2.137682 1.3091797 1.5543426 -2.1199017 -0.46065277
-1.8496394 -0.8111027 1.110673 -1.0125769 0.9975028 1.1868695 1.1048172 -0.5718215
0.9084473 1.6062806 1.4413577 -0.3887345 -1.6430537 -1.8039874 1.2105695 -0.4516336
00000000: 82a1 b8be 24d8 1ebf 8683 b4be 5794 8b3f
00000010: 5b72 b03f b1c6 bcbf e652 fcbe 1f40 dabf
00000020: e578 e7bf c4c3 99bf d8e0 87bf 6525 893f
00000030: 2a7b ecbf 9f80 c0be d26d c4bf 6767 ae3f
00000040: 2e82 773f 1abd 62bf be80 c2bf c8cf 08c0
00000050: 3393 a73f b3f4 c63f 78ac 07c0 aeda ebbe
00000060: fcc0 ecbf 6da4 4fbf 882a 8e3f 1f9c 81bf
00000070: 585c 7f3f 57eb 973f a66a 8d3f e562 12bf
00000080: 0190 683f 9a9a cd3f 697e b83f 3508 c7be
00000090: 954f d2bf 0fe9 e6bf f1f3 9a3f 853c e7be

l2.bias f4 [5]
-0.5256448 0.30822942 0.65423715 -0.31089997 -0.12635837
00000000: a890 06bf 3fd0 9d3e 167c 273f 482e 9fbe
00000010: 1764 01be
