train/data.pth (torch, 66616 bytes, 4 tensors)

l1.weight f4 [8, 1365]
00000000: 5f5f 0c3d b52f 9cbe e341 87bd 3e18 c0bd
00000010: 8598 c23e 7c02 09bf d09b 5cbd 58f6 1fbc
00000020: f449 a7be 6541 cbbc 1298 cf3e 3a84 58bd
00000030: 186c ed3e d428 94bd cf8d 533d a986 ddbc
00000040: b5d4 ff3d 3730 0cbd 5a49 d23e 1c4b b33e
00000050: 25c7 da3d 90e6 98bd f0b1 c33e bf14 db3e
00000060: ded0 ce3e 5be6 963e 81f5 bd3e ec01 8cbe
00000070: b995 783e 8fc8 5a3e 1bca 263e 95b6 d83e
00000080: 8ad5 77bd 9cdf 26bd 8d8a 623f cf57 7c3e
00000090: 8739 633e ce26 c8be c277 b4be e674 c93d
000000a0: 51b9 223f 11f4 6d3e f31f b43e 4040 bdbd
000000b0: 128c 053e cb56 033f 0de7 ec3d 76ef 973e
000000c0: b1dd 1f3e b23d 063e b0d5 303f f959 913e
000000d0: 4343 0a3f 62d2 ee3d 2387 cf3e 1d61 253f
000000e0: dc46 e33d c2e1 e73d 69ae cabe caf9 5d3d
000000f0: c6a4 e93e a822 323c ee4c 2c3f 8123 953e
00000100: d75c 423e 0189 583e 9400 03bd 5a2e 26be
00000110: aeca 3b3e 6abc 9bbe f1e1 d8bd 2064 403e
00000120: 6c54 2d3e befd 9cbd a32e 183f a8f8 c43e
00000130: 35d2 2fbc 5916 d23d 0081 cdbd b3c2 f93e
00000140: ab1b db3d 29a7 8c3e 7773 7a3d aec6 1a3f
00000150: c0e4 2c3e ef43 633e 3c54 d83d 20ec 773e
00000160: 7fed 6d3e f0ae 863e 901f 513e c553 f1bd
00000170: 4edf 0c3f 61da 8fbd 23c3 f13d f45a 483e
00000180: 1509 5c3e 0662 adbd 543d 50be df7e 87bd
00000190: 7b51 253f 3149 b2bd cfc2 aabd e886 933e
000001a0: 8d43 b63e 9a79 0c3e dcba 563e f60e f83c
000001b0: 2696 cc3d 4184 1b3e 698d ebbc 1633 7c3e
000001c0: 2b3d 8e3e 91b2 8d3c 7ce3 a3bd aed5 7b3e
000001d0: 7a32 893e f992 3fbc 68d3 d23e dca4 0e3f
000001e0: a2cc eb3e b1e3 c03e 64f7 f33d 607c d13e
000001f0: f1a2 03bb eec1 8cbe 8fd9 be3e b3b0 a13e
00000200: a08e 3abe 0a25 123e 80fc bb3e 7752 0e3f
00000210: b3ce ad3e 83f6 0fbd 3018 d9bd 2298 073e
00000220: 31a0 a8bc ef1d 143f 6ff7 483e c6a7 453e
00000230: 1a48 e63e c5c8 d53e d6f0 03bf b82f 233e
00000240: 801a e7bb 0c2b aa3d 96a7 f0bd a863 4f3e
00000250: 1fdc bfbd 9600 eb3d 0093 ccb9 97bb ce3e
00000260: 9837 453d 4603 f43d c7c1 a7bd e94c a5bc
00000270: 515e c6bd 1319 dc3e ecf4 453e 4409 acbd
00000280: c4d7 463e 7d32 953e f636 523e 8d3b cebc
00000290: 2c61 6f3e d194 92bd 9302 e23d a0e9 053e
000002a0: cfc2 07bd 11f8 20be c951 3b3e 1346 303e
000002b0: e300 a93e 6639 003f 1fbb 023f 80da cb3e
000002c0: 3991 eb3e b740 a7be 01fc 42bd 3443 9d3e
000002d0: 3d13 863e afd6 b0be f56e c03d dbf3 7fbc
000002e0: 14d9 f23c d9e3 55be 7ba9 8abe 133e 763e
000002f0: 8213 99bd 1b61 913e 1c9b 2fbe f2cd eebe
00000300: b2f8 463e 7e1e 063f 84fd 053e 2b78 573e
00000310: c58d b93e a931 8d3e 223e 1cbe d052 5ebe
00000320: a262 a43e e8b2 c93d f537 e03d 3054 4fbe
00000330: 8893 10be 71c4 f3bd f9a7 973e 6fc6 703e
00000340: e6a7 b33e ae03 f73c 64e7 babd 302d d73e
00000350: 22d2 5a3d 9e86 a83e d1cf 4ebd d388 003e
00000360: 135d 10bf 333f f63e 789e 93be f470 843e
00000370: 9125 283d 6559 1abe f9c6 0e3f b525 863e
00000380: f348 9b3e a326 f13e ecaf 1e3f 66ef bbbd
00000390: 742e 95be 7745 e93e dba9 db3e fdf5 9f3e
000003a0: e8d4 4c3e 85c3 573e 54fe 273e 2e3d 643e
000003b0: 900a f0be ccea e8bd d7c1 a73e f086 893e
000003c0: 9c46 b23e 2d2b 6e3f 14c0 c8bd 9a4a d1bd
000003d0: 1e66 8cbd 44e5 b83b 07bf 1ebe 5023 203f
000003e0: 0195 b63d 6e71 993e 2e8e 28be 6fd4 d7bd
000003f0: 40e8 c03e 38fb edbd e34a 55bd dd73 073f
0.03427064 -0.30505148 -0.06604364 -0.09379624 0.38006988 -0.53519416 -0.053859532 -0.009763323
-0.3267361 -0.024811456 0.40545708 -0.052860476 0.4637153 -0.0723435 0.05164891 -0.02704175
0.124917425 -0.03422567 0.41071588 0.3501824 0.10682515 -0.07465851 0.38221693 0.42789266
0.40393728 0.29472622 0.37101367 -0.27345216 0.24275865 0.2136557 0.16288035 0.423268
-0.06050638 -0.040740594 0.8849266 0.24642871 0.22189914 -0.39092106 -0.35247618 0.0983675
0.6356402 0.23237635 0.35180625 -0.0924077 0.13041714 0.5130431 0.11567507 0.29674882
0.15611912 0.13109472 0.6907606 0.28388956 0.54008883 0.11661221 0.4053279 0.6460131
0.110975 0.11322357 -0.3958619 0.054193296 0.45633525 0.0108725205 0.67304885 0.2912865
0.18980728 0.21146013 -0.031982973 -0.16228619 0.18339035 -0.30417186 -0.1058997 0.18788195
0.16926736 -0.07665585 0.5944616 0.3847096 -0.01073127 0.10258169 -0.100343704 0.48781356
0.106986366 0.27471283 0.061145272 0.6045941 0.16884136 0.22193883 0.105629414 0.24211168
0.23235129 0.26305342 0.20422196 -0.11783556 0.55028236 -0.07024074 0.118047975 0.19565946
0.2148784 -0.08465962 -0.20335895 -0.066159956 0.64577454 -0.087053664 -0.08337938 0.28813863
0.35598412 0.13718262 0.20969719 0.030280571 0.09989576 0.1518717 -0.028753953 0.24628863
0.27781042 0.017297061 -0.080023736 0.24593231 0.26796323 -0.011692756 0.41176915 0.55720305
0.4605456 0.37673715 0.119124204 0.40915203 -0.0020086134 -0.27491707 0.3727536 0.31580123
-0.1821847 0.14271942 0.3671608 0.5559458 0.3394676 -0.0351472 -0.106003165 0.13241628
-0.020584198 0.57858175 0.19625638 0.19302282 0.44976884 0.41754737 -0.5153936 0.15936172
-0.0070527196 0.08308992 -0.117507145 0.2025286 -0.09368157 0.11474721 -0.00039019436 0.40377495
0.04814872 0.11914687 -0.08191257 -0.020178275 -0.09685958 0.4298788 0.19331712 -0.08400205
0.19418246 0.29140082 0.20528778 -0.02517488 0.23376912 -0.07157291 0.11035647 0.13077402
-0.03314477 -0.1571963 0.18292917 0.17214231 0.3300849 0.50087583 0.51066774 0.3981514
0.46009234 -0.3266656 -0.04760361 0.30715334 0.26186553 -0.3453879 0.093961634 -0.0156221045
0.029644527 -0.20887698 -0.27082428 0.24047117 -0.07474424 0.28394398 -0.17149013 -0.466415
0.19430807 0.5239028 0.1308499 0.21041934 0.36240974 0.2757695 -0.15258077 -0.21711278
0.321065 0.09848577 0.10948173 -0.20246959 -0.14118779 -0.119027026 0.2962034 0.23513196
0.35089034 0.030153122 -0.091261655 0.42026663 0.053423055 0.32915205 -0.050491158 0.12552194
-0.5639202 0.48095092 -0.2883184 0.25867426 0.04105145 -0.15073164 0.5577236 0.26200643
0.30329093 0.4709979 0.61987185 -0.09176521 -0.29137003 0.4556081 0.42903027 0.31242362
0.20003092 0.21070679 0.16405612 0.22288963 -0.4688306 -0.11372909 0.32765076 0.26860762
0.34819496 0.9303463 -0.09802261 -0.10219307 -0.06855415 0.005642565 -0.15502559 0.6255388
0.08915139 0.29969352 -0.16460487 -0.10538565 0.37677193 -0.11620182 -0.05207337 0.5291117

l1.bias f4 [8]
00000000: 0769 c63e 95c3 843f ed5d 5e3f a827 273f
00000010: d72a 043f 6e54 753f d1c3 8d3e 1bae 3b3f
0.38752005 1.0372187 0.8686207 0.65294886 0.5162787 0.95831954 0.2768846 0.7331254

l2.weight f4 [5, 8]
00000000: 0adc 8d3f 3f55 66bf 6fa6 a7bf bd97 86bf
00000010: c31b 4bbf 43f6 833f 7f87 533f 664e 9d3e
00000020: 612b b23f 2c49 1c3f 0ad6 1e3f 4fda d1bf
00000030: f191 883f d329 ccbf 091b 96bf 2c08 b6bf
00000040: 3553 b8bf 1a14 a83f 0073 043f 9bd2 d7bf
00000050: 4558 c4bf 225c ac3f aa5c c9bf 747b bc3f
00000060: cd4d 10bf e697 aebf 8b2d 9f3f 873a 8e3f
00000070: ef7a a3bf a595 c0bf 18cc a53f dd19 f33e
00000080: bbca 77bf de2e 923f 021a c3bf a0d1 ad3f
00000090: 47fc 803f 9fb4 bd3d 0c48 28bf 8a70 9fbf
1.1082776 -0.89973825 -1.3097667 -1.0515057 -0.79339236 1.0309528 0.82628626 0.30723876
1.3919488 0.6104915 0.6204535 -1.6394747 1.0669538 -1.5950264 -1.1727 -1.4221244
-1.4400393 1.3131135 0.51737976 -1.6861147 -1.5339438 1.3465617 -1.5731404 1.4725175
-0.56368715 -1.3640106 1.2435774 1.1111611 -1.2771891 -1.5045668 1.295291 0.4748067
-0.9679372 1.1420553 -1.5242312 1.3579597 1.0076989 0.09262966 -0.65734935 -1.2456219

l2.bias f4 [5]
00000000: bf2c 97be 9922 c8be 03f8 97be 883b 1d3f
00000010: 2531 c03e
-0.29526326 -0.39088896 -0.29681405 0.6141896 0.37537494
