train/data.pth (torch, 119807 bytes, 4 tensors)

l1.weight f4 [8, 2478]
00000000: 11b8 e9bd ef0a 193e 41df d33d 52ce 40be
00000010: 0853 7201 8165 0cbe 1b7e aabb b6ff 91bd
00000020: a9dc b7bd 0a31 97bd 6865 1f81 da19 bbbc
00000030: f0ef 3a81 30b4 a080 4027 80bd 6027 0700
00000040: c09a c300 d4f8 2a3e d657 d8bb ddf2 60bd
00000050: 51d4 50be b0e7 dd00 6c8d 3680 29f5 91bd
00000060: f07a 153e 06a0 eb3d 8ae2 023f 4821 f23e
00000070: e248 933e 21c0 ce3e 6044 b7bd 3620 66bd
00000080: 4fb5 eb3e f8aa fbbd 40c4 c8bc a3ab 9b3d
00000090: 99a6 dabc b22d 4b01 940f 5480 1e3c cfbc
000000a0: 3c86 d800 e848 3000 a0b8 5381 c82d 4600
000000b0: 8cdd 8c81 088f 873e dd57 5c3d 5b26 303e
000000c0: e4d5 4700 b456 ce00 e8ef f280 1884 5b81
000000d0: f040 4700 2e24 bd3e d182 973e 3ac9 85bd
000000e0: ecfd 08bd 0876 8701 40f1 10bd 2dcd 3b3e
000000f0: 6a8d 483e 7b62 d73e bdf3 6abd 91d2 00be
00000100: 2f1b 9d3e c52c ae3e 0141 ad3e 2c77 813d
00000110: a1c0 aa3e 9e16 c4bc 856c 28be 9ce6 9100
00000120: 888b af3d f2cc be3e 52cb 683d 8ac3 f53d
00000130: 4afb 41be db44 bcbc 1f7f f0bd a2a7 f03e
00000140: fd49 8b3d 3ccd 673e 1b2b 4c3e a57e 3abc
00000150: 7e20 03be 58d6 0dbe 0231 01be eab3 b1bd
00000160: 0dbf 12bd 706d 9d01 199f 673e c19e 9ebd
00000170: 3da3 c53e 8a52 c93d b81c b03d 0b9a 3f3e
00000180: b09c f800 d10d f43e dfcd 8b3d e514 a33e
00000190: 8cb2 2900 bbca 183e 9d74 d33d 556a 633d
000001a0: 67dc 083e a8e7 713d 714f 133e e886 263e
000001b0: 5437 ca3d 5ac5 5e3e 4321 e33e 8bb8 e03d
000001c0: 2297 aa3d 1ba4 c0bd aedc 433e 5374 b301
000001d0: 5894 ea00 3ab8 223e 6457 9f3e 53f7 a13e
000001e0: aa53 d03d 05d8 7a3d 0cb0 51be 5094 8d80
000001f0: 82bb fb3d b165 193e 305f 3480 1956 fb3e
00000200: 1b08 6dbe f8c7 373e 1a14 d73d 975f f73d
00000210: f869 803e 6530 dd3d b180 d7bd a9ee c63d
00000220: 3da3 c93e d76c 103e 8219 b93d 95d8 d33e
00000230: c53b e63d 2b4f 9e3e c99b b1bd b206 d3bb
00000240: 4aea 5fbd 44a7 3ebc 3de7 a73e 2eb5 dbbd
00000250: 321a 4cbd fa5a 89bd b6b3 eb3e 462d a43e
00000260: f6b8 6401 5d62 063f be4a f1bb 278f 59be
00000270: 08f8 5381 4473 b5b8 1bad 823e c2f7 9eba
00000280: 7b3c fb3e 9ca1 5781 7c31 d73d 8c89 5101
00000290: 709f 20bc b8d2 0400 9371 013b 45f2 50be
000002a0: c34e 54be c266 3781 98c8 46bd 4650 4dbe
000002b0: 75c2 5e3e 545c 3e01 eb71 d3bd e8b2 9880
000002c0: 8e8f 5c3e 940a 463e 110d adbd 860b d9bd
000002d0: 9d2d 88bc 8c3d d9bc be74 aebd 2ca0 84be
000002e0: f969 53bd fb71 67be 65d4 743e 71c5 1a3e
000002f0: 93f0 8b3e cf1a c5bd 6f2b 08bd 0e94 7a3e
00000300: 00a8 93bd 937a b13e cb31 f7bc a405 04bd
00000310: d044 653d a526 13be 6bdb bcbd b9ee fc3d
00000320: ac4b 0b80 0e58 f43d e316 f63d 20e5 f200
00000330: fc89 f3bb 8878 08be d5da 37be 340a 3101
00000340: bb16 2b3e 4ddd 023f 55f8 873e a08f be3d
00000350: 4886 7900 1653 70bd bd84 803e dd2b 053e
00000360: 54d8 d63d cbf6 17bd 1352 2c3e 0ced 2d81
00000370: 90c2 8281 0d37 14bd 1320 47be b6fe f6bd
00000380: 16ba 45be 0cdb 12be 07b5 d4bc 3101 2bbc
00000390: fe59 023e 3c2d 48be 26ac 9181 71d0 d5bc
000003a0: e175 4dbe ec82 403e 505f ea3d ce9e 2c01
000003b0: 449a 3101 9b9c 8dbd 5c9b 3f00 67f2 993d
000003c0: 5c65 6e3e a8d3 b300 3671 ecbc aea2 dfbc
000003d0: e834 9dbd 2488 a4be bbf3 81bb abed a5bd
000003e0: cb8f e8bd bff6 83bd 81c6 f43d d3e7 4bbe
000003f0: 80e9 aabb a6d5 9fbd 5642 38bc ba42 23be
-0.11412061 0.14945577 0.10345317 -0.18828705 4.4507952e-38 -0.13710596 -0.005203021 -0.07128851
-0.089776345 -0.073824 -2.9276443e-38 -0.022839475 -3.433495e-38 -1.4758318e-38 -0.06257486 6.56974e-40
1.7963436e-38 0.16696483 -0.0066022677 -0.054919112 -0.20393492 2.0378758e-38 -5.00985e-39 -0.07126839
0.14597678 0.115051314 0.5112692 0.47291017 0.28766543 0.40380958 -0.08948588 -0.056183062
0.46036765 -0.12288469 -0.024507642 0.076010965 -0.026690768 3.7317996e-38 -7.71977e-39 -0.02529722
1.9884621e-38 4.434258e-39 -3.888704e-38 6.444908e-39 -5.174578e-38 0.26476312 0.05379473 0.17202131
6.59705e-39 1.8949215e-38 -2.2310252e-38 -4.031872e-38 6.543615e-39 0.36941665 0.29591992 -0.065325215
-0.033445284 4.9760534e-38 -0.035386324 0.18339987 0.19585195 0.42067322 -0.057361353 -0.12580325
0.30684802 0.3401853 0.33838657 0.06321558 0.3335009 -0.023936566 -0.16447647 1.3398874e-38
0.08571535 0.37265736 0.056834526 0.12000187 -0.18943515 -0.022982052 -0.117429964 0.47002894
0.068012215 0.22636884 0.19938318 -0.0113827335 -0.12805364 -0.13851297 -0.12616351 -0.08676894
-0.03582673 5.7829727e-38 0.22619285 -0.07745124 0.38601103 0.09830196 0.08599228 0.18711106
2.2831412e-38 0.4766679 0.06826376 0.3185188 3.829306e-39 0.14921086 0.103249766 0.055521328
0.13365327 0.059058815 0.14385773 0.162624 0.09873834 0.21754971 0.44361314 0.10972699
0.083296075 -0.09406301 0.19127151 6.592113e-38 2.1542722e-38 0.1589059 0.3112136 0.31634006
0.10172208 0.06124117 -0.20477313 -1.300201e-38 0.12291624 0.14980198 -4.809593e-39 0.49089125
-0.23147623 0.17947376 0.10501881 0.12078779 0.25080848 0.10800246 -0.10522593 0.097134896
0.39382353 0.14104019 0.09038068 0.41376176 0.11241869 0.30919775 -0.08672292 -0.006440007
-0.054666795 -0.011636559 0.32793608 -0.10727917 -0.04982967 -0.067068055 0.46035546 0.3206579
4.200969e-38 0.5249384 -0.0073636463 -0.21246015 -3.8932533e-38 -8.6522225e-05 0.25522694 -0.0012128281
0.4906958 -3.9605212e-38 0.10507485 3.8485922e-38 -0.009803638 4.42934e-40 0.0019751533 -0.20404918
-0.2073317 -3.3685517e-38 -0.048531145 -0.20050153 0.21753867 3.496373e-38 -0.103244625 -1.4023175e-38
0.21539137 0.19339973 -0.08449758 -0.10597901 -0.016623313 -0.026518606 -0.085183606 -0.2590345
-0.051614735 -0.22602074 0.23909147 0.1511438 0.2733198 -0.09624254 -0.033244547 0.24470541
-0.07209778 0.3466383 -0.03017511 -0.03223194 0.055973828 -0.1437021 -0.09221538 0.1235022
-1.037336e-39 0.119308576 0.12016084 2.2306385e-38 -0.0074322205 -0.13327229 -0.17954572 3.2517086e-38
0.1670789 0.5111893 0.2655665 0.09304738 1.1160266e-38 -0.058672987 0.2510127 0.13005014
0.1049048 -0.037100594 0.16828184 -3.1945154e-38 -4.803364e-38 -0.036185313 -0.19445829 -0.12060301
-0.19309267 -0.14341372 -0.025965227 -0.010437296 0.12729642 -0.19548506 -5.351161e-38 -0.02610037
-0.20064498 0.18799943 0.11443961 3.1705347e-38 3.2620446e-38 -0.06914636 5.841369e-39 0.07516938
0.23280853 1.6514482e-38 -0.028862577 -0.027299251 -0.07676107 -0.32135117 -0.0039658225 -0.08101972
-0.11355551 -0.064435475 0.11951924 -0.19912653 -0.0052158237 -0.07804422 -0.0112462845 -0.15943423

l1.bias f4 [8]
00000000: 59b9 803e cbdc 3a3f a2c0 f93e b94d 023f
00000010: 5e3f 0e3f 4ad3 3c3f f27e 873e 6231 0f3f
0.2514141 0.72993153 0.4877978 0.50899845 0.5556544 0.737599 0.2646404 0.5593473

l2.weight f4 [6, 8]
00000000: c372 64bf 7101 843f 764d 87bf 5a60 913f
00000010: 1baf 5c3f 107e 833f 619a 6cbf f079 a4bf
00000020: 11d1 833f 85db 9ebf 8216 39bf e6ed 0f3f
00000030: dc91 efbb f34c 86bf 8ede 033f ed75 7b3d
00000040: 433a 83bf 271b 3c3f c86b 32bf f457 5fbf
00000050: 60ec 95bf 3c6c c3bf 6042 7f3f 8e3b 633f
00000060: 7d7f 51bf 9fe8 0b3f 7c38 9ebe a808 8cbf
00000070: 2046 91bf a1db 603f 8cfc bdbf 2509 4a3f
00000080: 7a91 493f 75d9 8ebf 9ac9 313f 7e5a 62bf
00000090: 14b0 99bf 81d2 553f 2c83 15bf a055 81bf
000000a0: d6ae 91bf 2282 b0bf 5061 883f da39 7c3f
000000b0: d9b6 433f c1c7 c0bf 423c 2bbf 13e1 3fbf
-0.8923761 1.031294 -1.0570514 1.1357529 0.8620469 1.0272846 -0.92423064 -1.2849712
1.0298177 -1.2410742 -0.7229997 0.5622238 -0.007311089 -1.0492233 0.51511467 0.06139176
-1.0252155 0.7347893 -0.6969571 -0.8724358 -1.1712761 -1.5267406 0.99710655 0.8876275
-0.81835157 0.54651827 -0.3090247 -1.0940142 -1.1349525 0.8783513 -1.4842696 0.78920203
0.78737605 -1.1160113 0.69448245 -0.8841933 -1.200686 0.8352433 -0.5840328 -1.0104256
-1.1381481 -1.3789713 1.0654697 0.98525774 0.7645088 -1.506096 -0.6688882 -0.7495281

l2.bias f4 [6]
00000000: ef69 923c 89be 20bf 4293 aa3c d551 b83e
00000010: 0cde 52bd b92c 573e
0.017872779 -0.62790734 0.020822171 0.35999933 -0.05148129 0.21013154
