train/data.pth (torch, 99384 bytes, 4 tensors)

l1.weight f4 [8, 2057]
0	0xbdcee28c	-0.10101804
1	0x3e0a75e1	0.1352153
2	0x3dd9d8fe	0.10637091
3	0xbe9385b9	-0.2881296
4	0x3c559a9e	0.013037352
5	0xbdb8cfeb	-0.09024032
6	0xbd9347d1	-0.07191432
7	0xbd592716	-0.05301579
8	0x3c2f6217	0.010704539
9	0xbe8a9165	-0.27064052
10	0xbdb58087	-0.08862405
11	0xbc53290f	-0.012888207
12	0x3a5d15c0	0.0008433722
13	0x3e144e88	0.14483082
14	0x3c6aad50	0.0143235475
15	0x3e63553f	0.22200488
16	0x3e652c7f	0.22380255
17	0x3f1d04b0	0.6133528
18	0x3ee69d42	0.45041853
19	0x3ee5212a	0.44751865
20	0x3ef5ae35	0.47984472
21	0xbd737dd2	-0.059446163
22	0x3f117969	0.5682588
23	0xbe151042	-0.14556983
24	0x3d8eb784	0.069685966
25	0xba274ab5	-0.00063816766
26	0x3a297e60	0.000646567
27	0x3a2b7f0f	0.00065420655
28	0xbccce762	-0.025012676
29	0xbb8d7cf1	-0.0043178727
30	0x3c8599db	0.016308716
31	0x3e906d98	0.28208613
32	0x3d7f18fb	0.062279683
33	0x3e252204	0.16126257
34	0x3d8400f4	0.06445494
35	0x3c82fb03	0.015988832
36	0x3d2e348a	0.042530574
37	0x3d25bf7d	0.04046582
38	0x3ea85afd	0.3288192
39	0x3ea34ad4	0.31893027
40	0xbce28cd3	-0.02765504
41	0xbc9bb7e8	-0.019008592
42	0x3e8b2d03	0.2718278
43	0x3e91de99	0.2849014
44	0x3ee07843	0.43841752
45	0x3d386307	0.045016315
46	0xbd97253d	-0.073801495
47	0x3d5e372d	0.05425184
48	0x3edaa3ab	0.42702994
49	0x3e953109	0.29138973
50	0x3db3ddd8	0.08782548
51	0x3ec431cc	0.38319242
52	0xbdf365a2	-0.11884619
53	0xbc4b63c8	-0.012413926
54	0x3d40ace7	0.047039893
55	0x3ed347e7	0.41265795
56	0x3c8e2431	0.017351242
57	0x3e2c246d	0.1681077
58	0xbde976ed	-0.113996364
59	0xbc2630a2	-0.010143431
60	0xbdaa86c3	-0.08326485
61	0x3ec6892f	0.38776538
62	0x3c9861c7	0.018601311
63	0x3e6a947c	0.22908205
64	0x3e8674c3	0.26260957
65	0xbd7e62b9	-0.062105868
66	0xbdd6af40	-0.10482645
67	0x3e936bf0	0.28793287
68	0xbe0cc921	-0.137486
69	0x3ed790f9	0.42102793
70	0x3db768fe	0.089555725
71	0x3d738845	0.05945613
72	0x3e19296d	0.14957209
73	0x3dc6efb7	0.09713691
74	0x3f0ea9fb	0.5572812
75	0x3d901dac	0.070369095
76	0x3e658aaa	0.22416177
77	0x3d83f7b5	0.06443731
78	0x3eb946d8	0.36186862
79	0x3dd01b47	0.10161453
80	0x3d0a002a	0.033691563
81	0x3e56e534	0.20985872
82	0x3cc011ab	0.023445925
83	0x3e65744e	0.22407648
84	0x3e1faf81	0.15594293
85	0x3d8dbb5c	0.069205016
86	0x3eda50ac	0.42639673
87	0x3e0cabd7	0.13737427
88	0x3d32e1bd	0.043672312
89	0x3e7770e5	0.2416416
90	0x3c62ebf2	0.013850199
91	0x3dd10fb3	0.102080725
92	0x3e2591d0	0.16168904
93	0x3e9e092c	0.30866373
94	0x3ea573e4	0.3231498
95	0x3da631bd	0.081149556
96	0x3c89d051	0.016822966
97	0xbc020bb2	-0.007937359
98	0x3df6b081	0.12045384
99	0x3e048476	0.12941155
100	0x3dcdc2fd	0.10046957
101	0x3edd071f	0.43169495
102	0xbe92c892	-0.28668648
103	0x3e1b8b8e	0.15189955
104	0x3d5e44d6	0.054264866
105	0x3dd22ea0	0.10262799
106	0x3eb51883	0.35370263
107	0x3dac348e	0.084084615
108	0xbdc360b0	-0.09539926
109	0x3dbc07ab	0.0918115
110	0x3eb29cab	0.34885153
111	0x3deb3226	0.114841744
112	0x3d30377f	0.043021675
113	0x3ee5170b	0.44744143
114	0x3da67404	0.08127597
115	0x3f086e7d	0.5329359
116	0xbc94a832	-0.018146608
117	0xbe26b1ba	-0.16278735
118	0xbd8818c0	-0.06645346
119	0xbd2fa0b9	-0.042877886
120	0x3e8193d0	0.25308084
121	0xbe0550ce	-0.13019106
122	0xbd4731df	-0.048631545
123	0xbd5c787f	-0.05382585
124	0x3ece0ba2	0.4024325
125	0x3e8ac54e	0.27103657
126	0xbc568dc1	-0.01309532
127	0x3f06856f	0.52547354
128	0xbc996a94	-0.018727578
129	0xbf17ea69	-0.59342057
130	0x3d8a623f	0.0675702
131	0xbb90faff	-0.0044244523
132	0x3e8327af	0.25616214
133	0x3ea5cff8	0.3238523
134	0x3be6edcb	0.00704739
135	0x3dce4afb	0.10072895
136	0x3d800b72	0.06252183
137	0xbb810511	-0.0039373715
138	0x3dd2b782	0.102889076
139	0x3ddcf79b	0.107894145
140	0xbe4c7430	-0.19966197
141	0xbda8864f	-0.08228742
142	0xbd536b73	-0.051616143
143	0xbb1a7689	-0.0023569188
144	0x3e864681	0.26225665
145	0xbca7b697	-0.020472808
146	0xbe8558af	-0.26044223
147	0xbc13c883	-0.009019974
148	0x3e1fc748	0.15603364
149	0x3e228572	0.15871218
150	0x3cece8b0	0.028919548
151	0xbd8c3e95	-0.06847874
152	0x3b251ff1	0.002519604
153	0xbe02d95a	-0.12778226
154	0xbe9239c1	-0.28559688
155	0x3e7b4463	0.24537806
156	0xbe9054e8	-0.28189778
157	0x3e95143c	0.29117
158	0x3e8f8887	0.2803385
159	0x3e99f32d	0.3006834
160	0x3d21d644	0.03951098
161	0x3eddecc6	0.43344706
162	0xbd838361	-0.06421543
163	0x3f123f96	0.57128274
164	0xbcfb0b65	-0.030645082
165	0xbd7d7005	-0.06187441
166	0xbd1218bd	-0.035668124
167	0xbdef0a2d	-0.11671863
168	0x3dc7fd58	0.09765118
169	0x3e313697	0.1730598
170	0x3dacb671	0.084332354
171	0xbca6050f	-0.020266084
172	0xbcb5b78f	-0.022182254
173	0xbe9728be	-0.2952327
174	0xbe084edf	-0.13311337
175	0x3af01910	0.0018318016
176	0x3e205e43	0.15660958
177	0x3f00052a	0.5000788
178	0x3e8c3bcd	0.27389374
179	0x3d988a4c	0.07448253
180	0xbd0994f2	-0.03358931
181	0xbd210506	-0.03931143
182	0x3e3ee68c	0.18642634
183	0x3c83c8b5	0.016086916
184	0x3e4dd009	0.2009889
185	0x3c03db1a	0.008047843
186	0x3e7e0688	0.24807179
187	0xbdc7cb4b	-0.09755572
188	0xbe3e2a32	-0.18570784
189	0xbdd0995c	-0.10185501
190	0xbe7bd4fa	-0.24592963
191	0xbba913c4	-0.005159827
192	0xbd26add8	-0.040693134
193	0x3da9a5b5	0.08283559
194	0xbe5ecf83	-0.21758847
195	0xbe4825d3	-0.19545679
196	0x3e0150ce	0.12628481
197	0x3e092a30	0.13395
198	0x3c49d9c8	0.0123199895
199	0xbe1a64ac	-0.15077466
200	0xbb8bd559	-0.0042673764
201	0xbcf39685	-0.02973486
202	0x3db4b529	0.08823616
203	0x3e8d6cf0	0.27622175
204	0xbcbc1ee9	-0.022963958
205	0xbd4a30e3	-0.04936303
206	0xbdea0036	-0.114258215
207	0xbe9f2b29	-0.31087616
208	0xbc82a380	-0.015947104
209	0xbe59b5ff	-0.21260832
210	0x3e54a582	0.20766261
211	0x3db783fd	0.08960722
212	0xbd4a520f	-0.049394663
213	0xbc3d8117	-0.011566422
214	0xbe2e11f2	-0.16999033
215	0x3c4d4eb9	0.012530976
216	0x3e446ac4	0.19181353
217	0xbe5caeec	-0.21551102
218	0x3ed0746b	0.4071382
219	0xbdac92f5	-0.08426467
220	0x3d927ba6	0.0715249
221	0xbd8c8e47	-0.06863075
222	0xbdc68d5e	-0.096949324
223	0x3e29cd77	0.16582285
224	0x3e69ad82	0.22820094
225	0x3d86c875	0.06581203
226	0xbc554820	-0.013017684
227	0xbcac4de9	-0.021033244
228	0xbe12de3b	-0.14342587
229	0xbe3a8177	-0.1821345
230	0xbd6670e9	-0.056260023
231	0xbe49b97d	-0.19699664
232	0x3dc4c53e	0.096079335
233	0x3e364ee8	0.17803538
234	0x3dcd3cf6	0.10021393
235	0xbe2dd80c	-0.16976947
236	0xbe8a0437	-0.2695634
237	0xbdbdd6c1	-0.09269477
238	0xbdaafa36	-0.08348505
239	0xbdfe7498	-0.12424582
240	0x3e4808cb	0.19534604
241	0x3df579bd	0.1198611
242	0x3e45ac2c	0.1930396
243	0xbe06cd56	-0.13164267
244	0x3d511b83	0.051051628
245	0x3e27fed1	0.16405798
246	0xbd75e7a9	-0.06003538
247	0x3d95b7db	0.07310458
248	0xbdcfb853	-0.10142579
249	0xbd98d2bd	-0.0746207
250	0xbc33a5a1	-0.010964782
251	0xbc960778	-0.018314108
252	0x3d51ffbe	0.051269285
253	0x3ecc256c	0.398723
254	0xbe31746d	-0.17329569
255	0x3eb319a3	0.34980497

l1.bias f4 [8]
0	0x3ebb2a5a	0.3655575
1	0x3fb9dcfd	1.4520565
2	0x3f7e7cfd	0.99409467
3	0x3ef6ee33	0.48228607
4	0x3eb84875	0.3599278
5	0x3f07d716	0.5306257
6	0x3ea325d0	0.31864786
7	0x3f161a21	0.5863362

l2.weight f4 [5, 8]
0	0x3f9b13fd	1.2115475
1	0xbf5e0733	-0.86729735
2	0xbf97e903	-1.1867985
3	0xbf830bee	-1.0238016
4	0xbfa8ec1e	-1.3197057
5	0x3f928931	1.1448117
6	0x3f8662be	1.0498884
7	0xbf8e851b	-1.113437
8	0xbf98b3ce	-1.1929872
9	0xbfb4a33c	-1.4112315
10	0x3f613628	0.8797326
11	0x3e298154	0.16553241
12	0x3fa42344	1.2823262
13	0x3f979aea	1.1844151
14	0xbfbc0b21	-1.4690896
15	0xbfb88fe1	-1.4418908
16	0xbf7da2cb	-0.9907653
17	0x3fe64a69	1.7991458
18	0x3f9a915f	1.2075614
19	0xbfdc0137	-1.7187871
20	0xbfd50629	-1.6642505
21	0xbf766bbc	-0.9625814
22	0xbfb32025	-1.3994185
23	0xbf613b70	-0.8798132
24	0x3f1e7787	0.61901134
25	0x3f1b6db6	0.6071428
26	0xbfc12a76	-1.5091083
27	0xbfa9de60	-1.3270988
28	0x3f9b93a1	1.2154428
29	0xbfa2f9b9	-1.2732459
30	0x3f176c7e	0.5914992
31	0x3f3417b6	0.7034868
32	0xbf442a09	-0.7662664
33	0xbf99081d	-1.1955601
34	0x3d475d3d	0.048672903
35	0x3fbcbf41	1.4745866
36	0xbfdf31f5	-1.7437121
37	0xbfa98f7d	-1.3246914
38	0xbe405edd	-0.18786187
39	0x3fd85027	1.689946

l2.bias f4 [5]
0	0x3d2127a0	0.03934443
1	0xbeb41b4c	-0.35177076
2	0x3f062d54	0.52412915
3	0xbf241ef3	-0.64109725
4	0xbe0bcc99	-0.13652267
